DDPG/trex_ddpg_models/critic_best.pkl (torch, 285360 bytes, 5 tensors)

net.0.weight f4 [256, 17]
000000 18 da 90 bd 79 f7 24 bf 20 d7 1c be 96 32 02 bd
       -0.07072848 -0.64440113 -0.15316439 -0.031786524
000010 19 a9 82 be f7 d2 3d 3c 32 e1 28 3d ba d6 88 be
       -0.25519636 0.0115859425 0.041230388 -0.26726323
000020 e1 fa 46 be 79 bb 39 be f9 88 62 bd 03 10 65 3d
       -0.1943164 -0.18137921 -0.05530641 0.055923473
000030 5c 05 09 bf 2a 89 0f be 6a 52 6c be 5c 47 03 be
       -0.535238 -0.14017168 -0.23078313 -0.1282019
000040 54 6d 7e be bb 8b 3c be f6 21 a8 3d 12 0f cf 3d
       -0.24846393 -0.18412678 0.082096025 0.10110296
000050 26 81 26 be e9 74 30 bd 16 71 13 3c f4 c1 40 3d
       -0.16260204 -0.043080244 0.00899913 0.047059968
000060 45 57 fe 3d 0c b7 93 bd ba e6 8e 3d b0 16 ce bd
       0.12418989 -0.07212648 0.06977601 -0.10062921
000070 2c 16 b5 be 54 61 0a be fb 74 0b be 9c ed da 3d
       -0.35368478 -0.1351369 -0.13618843 0.10689852
000080 d1 53 d7 3c e2 62 45 3c d3 62 8b bd c3 91 84 be
       0.026285084 0.012047501 -0.068059586 -0.25892457
000090 5b 76 9e bd 02 03 65 c0 7f e6 22 3e 0b ff 78 3e
       -0.07737418 -3.5783086 0.1590824 0.24316041
0000a0 f2 e8 64 3e 9c d8 82 bd 19 d3 92 be b9 38 5c be
       0.22354487 -0.06388971 -0.2867668 -0.21506013
0000b0 c7 09 19 3e 9a 11 03 3f ba b0 91 3e 97 56 7e 3f
       0.14945136 0.5119873 0.28455144 0.99350876
0000c0 9b 13 08 3f 42 57 4a be f0 13 d3 3e 5e 3e 8f be
       0.53154916 -0.19759849 0.4122615 -0.2797727
0000d0 ad 36 09 3d a8 de 1e 3d 43 83 5c bd a6 22 4e bd
       0.03349941 0.03878656 -0.05383612 -0.050326012
0000e0 d7 e3 6d bd 9c 2e db 3c b8 fd 18 3e e6 25 a3 3d
       -0.058078613 0.026755624 0.14940536 0.07966213
0000f0 8d 33 ed bd 46 51 30 be c9 4a 73 be fa 55 80 3c
       -0.11582098 -0.17218503 -0.23758997 0.015665997
000100 59 55 69 be 89 92 8c be c0 d5 ce bd 90 c4 a1 bd
       -0.22786464 -0.27455547 -0.10099363 -0.078988194
000110 a2 e0 4d 3d 09 c1 05 be c0 6d ec 3b 87 f3 56 be
       0.050263055 -0.13061918 0.0072152317 -0.20991336
000120 a4 1a 58 be 62 3c 88 bd 62 38 b5 bd 1f 79 9b 3d
       -0.21103913 -0.06652142 -0.08848645 0.075914614
000130 b4 4c 27 bc 90 7b 04 3e 00 8e 71 bd 3f 7c 9b bd
       -0.010211159 0.1293776 -0.058973312 -0.075920574
000140 31 5f 1a be b3 71 9b bd c3 09 3c bd aa f8 b1 bb
       -0.15075375 -0.07590046 -0.045907747 -0.0054312544
000150 d3 e1 fc 3d 7c 4e d4 3a 44 85 01 3e d6 4a f6 3d
       0.1234776 0.0016197707 0.12648493 0.120259926
000160 0c 49 d7 3d 66 ac b5 bd ee 89 85 be 7c b2 a2 3d
       0.105119795 -0.08870773 -0.26081795 0.079441994
000170 32 9d bb 3d 9e ab 5d be ab 0a 82 3d fb 14 9c bd
       0.09160842 -0.21647498 0.06349691 -0.07621189
000180 51 4c 4f 3d 44 4a 0b 3e da 90 94 be d3 dd 0d be
       0.05060989 0.13602549 -0.29016763 -0.1385415
000190 e7 99 2d bd 64 8f 0f 3e 93 03 2d 3e 2b 00 39 bd
       -0.0423831 0.14019543 0.16895895 -0.045166176
0001a0 6d 83 a7 bd d5 a2 f9 bd 89 fc 9a be 51 63 51 bc
       -0.08179364 -0.12189261 -0.30270794 -0.0127800265
0001b0 60 dd 08 3d 72 91 1a be 5b bc 22 be c6 1a 07 bc
       0.033414245 -0.15094545 -0.15892164 -0.008246129
0001c0 36 96 a8 3d d3 13 ea bd c5 a2 83 be 32 01 05 bd
       0.082317755 -0.114295624 -0.2571012 -0.032471843
0001d0 08 a1 06 be 19 16 99 3c eb 77 5d be ee 75 b1 3e
       -0.13147366 0.018687295 -0.21627776 0.34660286
0001e0 ba bb 76 bf 7e 77 4d 3e 95 83 1b c0 cb f3 23 bd
       -0.963802 0.20065114 -2.4299061 -0.04002742
0001f0 dd 42 90 bd d6 f8 78 be 98 37 b6 3e e0 ee 3b bf
       -0.07044003 -0.24313673 0.3558929 -0.7341137
000200 f3 75 8b be f8 b9 64 bd 5c b1 4f bd a5 47 3c be
       -0.27238426 -0.055841416 -0.050706252 -0.18386705
000210 b8 f3 4f bd 7e 98 3c be 21 e8 b1 bd 21 e9 1d bf
       -0.050769538 -0.18417546 -0.08686853 -0.6168385
000220 2b d1 fb bd 96 4b 23 3e f1 ea 73 be 4b b3 63 3d
       -0.12295755 0.15946802 -0.23820092 0.05559091
000230 76 7d da bc 2e ac 7a be 57 98 6e be 1e c7 55 be
       -0.026671153 -0.24479744 -0.233003 -0.20876738
000240 d0 02 33 bd 3c 65 50 be 42 b8 98 bb 30 70 39 bd
       -0.043703854 -0.20351118 -0.004660637 -0.045273006
000250 ba 94 cb 3d a9 bb 9a bd d2 64 2b bd e1 31 3b be
       0.09940477 -0.075553246 -0.041844197 -0.18280746
000260 97 6d 53 bd 05 0b e1 3c 16 54 02 bf 51 12 99 3d
       -0.051618185 0.027471075 -0.50909555 0.07474197
000270 c7 92 e6 c0 82 04 8f bd 80 de 69 3e 38 e2 7a 3e
       -7.205417 -0.06983282 0.22838783 0.24500358
000280 8d 2c 50 3e 75 7e 02 bf 5f 4b 39 3d 4d 1b 2b bd
       0.20329495 -0.5097421 0.045237895 -0.041774083
000290 ed c5 9a 3e 82 2c 8b 3e a6 3d 5b 3f 99 04 fd 3d
       0.3022913 0.27182394 0.85640943 0.123543926
0002a0 fc 3e b3 3d da 84 2f 3c 3e d3 d1 3d c4 35 14 3d
       0.08752248 0.010712827 0.102453694 0.036184087
0002b0 e7 32 8f 3d ca 94 2d 3e 21 84 dc bb b6 6d be be
       0.06992131 0.1695129 -0.006729618 -0.37193078
0002c0 9d 4c 68 bd 8a 61 ea 3c 12 ef 2c be 37 fb 38 be
       -0.05671369 0.028610963 -0.16888073 -0.18064581
0002d0 f7 c5 8d 3d 97 e3 24 3d ee bd f6 bd ad cd 8d be
       0.069225244 0.04025611 -0.12047945 -0.2769598
0002e0 98 6f 51 be fb 38 85 3b 33 9f 19 be 15 b4 02 be
       -0.20452726 0.0040656305 -0.15002136 -0.12764008
0002f0 d5 1f f8 3d ac 78 25 be 48 5e 1b be c4 31 55 3e
       0.121154465 -0.16159314 -0.15172684 0.20819765
000300 21 e0 e3 bd b8 67 c8 bd 1c 4d 56 bd fb 2b 25 be
       -0.111267336 -0.09785408 -0.05231963 -0.16130058
000310 ca fd f4 bd 4f 48 20 3d ec 2f 33 3d 98 fe 10 be
       -0.11962469 0.03913146 0.043746874 -0.1415962
000320 96 74 04 3d 2a 04 50 be fc 2a 74 be 9e 47 3c be
       0.032337748 -0.20314088 -0.23844522 -0.18386695
000330 93 43 02 3f 17 86 25 3f f7 e4 43 3e 65 d5 9f 3f
       0.5088436 0.6465773 0.19130312 1.2486998
000340 fb 57 a8 3d d5 6b 3b 3e 00 3b 19 3c 14 8b 50 bd
       0.08219906 0.18302853 0.009352446 -0.050913885
000350 57 7a 4c 3e 21 38 88 3e 1b 37 03 bd f6 f8 67 3d
       0.19968544 0.26605323 -0.032034975 0.056633912
000360 8d f5 83 3d 23 43 b6 3d 04 59 70 3d 3a 6e 0d 3e
       0.064433195 0.08899524 0.058678642 0.1381158
000370 22 95 8c 3e af da 76 3e 04 0c f1 3d 65 64 50 3e
       0.2745753 0.24106859 0.1176987 0.20350797
000380 60 1f 84 be 62 61 9a be ce 58 5e 3d 43 22 c8 bd
       -0.25805187 -0.30152422 0.05428391 -0.0977216
000390 87 b7 7c 3c 41 c8 e1 bc 0a ee 29 3e c1 2c 14 3e
       0.015424616 -0.027561309 0.16594711 0.14470197
0003a0 73 d3 41 3d 97 c8 66 be ef 68 7f be 63 91 57 bd
       0.047320794 -0.22537456 -0.24942373 -0.052628886
0003b0 6c ec 2a be f6 5e 27 be 94 9f 94 3d ae 11 0e bf
       -0.1669175 -0.16344818 0.072569996 -0.5549573
0003c0 d7 e9 6f be 90 23 90 bf 71 8b 09 bf f1 f7 33 be
       -0.23429047 -1.1260853 -0.53728396 -0.17575051
0003d0 ff c7 b2 3d 40 7f a4 be 33 cf 6d be 40 bd c1 3c
       0.087295525 -0.32128334 -0.23223571 0.023649812
0003e0 d8 90 f1 be 25 29 2a be 2c cf b6 be f1 80 1c 3e
       -0.4718082 -0.16617258 -0.35704935 0.15283562
0003f0 30 8c c0 be 94 5b 52 bd 2b 2f 19 be 66 94 0b 3e
       -0.37606955 -0.051356867 -0.149594 0.13630828

net.0.bias f4 [256]
000000 46 a3 72 be 2e 04 c2 be b0 99 83 3e 1c 80 25 be
       -0.23695096 -0.37893814 0.25703192 -0.16162151
000010 09 4d 28 bd 13 8f 9e be d7 76 9f be 6c 0c db be
       -0.04108909 -0.30968532 -0.31145355 -0.42782915
000020 15 02 53 bc df ae e1 3d c3 0e 92 bd f1 d4 cb bc
       -0.012878914 0.11019682 -0.07131722 -0.024881812
000030 e8 8a 8b 3e d2 56 8c bc c6 5a f9 bd 4e db 90 3d
       0.27254415 -0.017131243 -0.12175517 0.07073079
000040 be 64 47 be 6f db 9f 3c b6 0e 43 bc ca ad a9 3e
       -0.19472024 0.019513814 -0.011905363 0.33140403
000050 bf 29 76 be be 8e 0c be a2 ab 38 be 26 f7 87 be
       -0.24039362 -0.13726327 -0.18034223 -0.26555747
000060 1c 22 3f 3b 47 1a a9 be a2 ea 23 be 90 cf a1 bd
       0.0029164618 -0.3302786 -0.16007474 -0.079009175
000070 0e 5b 02 3e bf e4 e3 bd 19 07 ba be bc 23 00 be
       0.12730047 -0.11127614 -0.3633354 -0.12513632
000080 b7 c8 ae be ac 53 e4 bd ee 68 10 be c7 45 72 be
       -0.34137508 -0.11148772 -0.14102527 -0.2365943
000090 e4 65 27 be a0 71 a7 be 32 7b 8e bd 45 fd cf 3d
       -0.16347462 -0.32703876 -0.069570914 0.10155729
0000a0 e5 eb 86 3d 70 cc 84 bd ad 96 72 be 26 a9 1e be
       0.06587962 -0.06484306 -0.23690291 -0.15494213
0000b0 94 e2 3e be 06 d0 ce 3d 80 c4 0c 3b 8c f8 35 3e
       -0.1864112 0.10098271 0.0021479428 0.17770594
0000c0 12 31 94 3e 06 70 2c be 6e b5 ea bd c1 13 d0 bc
       0.28943688 -0.16839609 -0.11460386 -0.025400044
0000d0 d2 f8 22 be db b3 fb 3d e9 4d ba be 79 7c c4 3c
       -0.1591523 0.12290164 -0.36387566 0.023985134
0000e0 18 ca 32 be d5 fe 06 3e e4 f8 09 bd fd ea 87 be
       -0.17459905 0.13183148 -0.033684626 -0.2654647
0000f0 ba 55 3a be d5 85 7a 3e ae 3a f9 3c 85 7d 13 3e
       -0.18196765 0.24465115 0.030423488 0.1440335
000100 0b f0 63 be 7a 3c 53 bc ab e7 f4 bc 54 13 62 be
       -0.22259538 -0.012892837 -0.029895624 -0.22077686
000110 ee 81 b0 3c 52 6e 9e 3d d2 f6 dd 3d bb 49 a3 be
       0.02154633 0.07735886 0.10838093 -0.3189219
000120 1c c7 4b be 7e bb 57 3c b6 a8 9f be d4 50 5e bd
       -0.19900173 0.01316726 -0.31183404 -0.054276302
000130 e6 76 f1 bd 29 75 09 be 54 63 25 3e 1b 55 54 3e
       -0.11790256 -0.134236 0.16151172 0.2073559
000140 d4 95 70 be 9e 4e 03 3e 88 e6 f9 bb ac 94 3e 3d
       -0.23494655 0.12822959 -0.0076263584 0.046528503
000150 ab c0 81 be 52 bc 2a 3d cd 7e e5 bd f3 c3 2c 3e
       -0.25342306 0.041683502 -0.11205826 0.16871624
000160 c1 81 6a be d7 52 88 bc 10 7c 91 be 1d 89 9e be
       -0.2290106 -0.016641064 -0.28414965 -0.30963984
000170 b8 18 81 bd 2a 4c 8b be 94 ef a3 3d 10 4f 17 be
       -0.06303543 -0.27206546 0.0800468 -0.14776254
000180 c7 36 1b 3d b6 b9 5a bd 5f 30 2f be 15 72 59 be
       0.037894037 -0.053399764 -0.17108296 -0.21234925
000190 0c 66 7a be ed 5a d9 bd f7 eb 82 3d 50 96 f2 bd
       -0.2445299 -0.10613046 0.06392663 -0.11845076
0001a0 6a b1 d8 3d b7 82 89 3e d6 1e f6 bb a0 04 c4 3c
       0.10580714 0.2685754 -0.007511 0.023927987
0001b0 10 7e 4f be 4a 15 26 bd 9e d3 04 3c ab d2 1b be
       -0.20262933 -0.040547647 0.008107094 -0.15217082
0001c0 7a ad e4 bd 96 4b 49 be bf fb de bd c3 96 4e 3e
       -0.111659005 -0.1965774 -0.108878605 0.20174699
0001d0 08 68 77 be c2 97 80 bd 1b 41 8b bd 36 ec ba 3c
       -0.24160779 -0.062789455 -0.06799527 0.022817712
0001e0 05 4a 32 3e 7c 0f 37 3d c6 ca b3 be 8d 1b 24 be
       0.17411049 0.0446925 -0.3511564 -0.16026135
0001f0 5e 24 90 be 4d fd 8f 3d 7f 0c 4f be ba a4 d8 bb
       -0.28152746 0.07030735 -0.2021961 -0.006611434
000200 a1 28 4f bc 43 88 10 be 98 5c ba 3d 81 06 50 3e
       -0.012643964 -0.1411448 0.09099692 0.20314981
000210 65 a0 e9 bc e8 a1 1b 3e cb c3 95 3a f9 c4 ee bd
       -0.028518865 0.15198481 0.0011426149 -0.11658663
000220 a0 8c 29 3d 57 39 ad 39 8d 2e 5d be 02 63 66 3c
       0.041393876 0.00033039853 -0.21599789 0.014061691
000230 d7 5c c0 be 26 c5 0c bc 1a 8d ba 3d 8f 48 9c 3d
       -0.3757083 -0.008591926 0.09108944 0.07631027
000240 54 93 6c be bd 01 d7 bd 8c 4f 55 bc 00 56 4d be
       -0.23103076 -0.104983784 -0.013019454 -0.20052338
000250 dc 17 b4 be c8 89 06 3e 40 24 da 3c 16 64 01 bc
       -0.35174453 0.13138497 0.026628613 -0.0078973975
000260 f4 60 2f 3e 13 27 f2 bd 4e 3a 9e be e7 23 5a be
       0.17126828 -0.11823859 -0.30903858 -0.21302758
000270 e1 63 1e be 5b 56 40 3e 30 4e 24 3d 96 74 89 3e
       -0.15467788 0.18782942 0.040113628 0.2684676
000280 b9 0c 09 be 9a d9 93 3d 8a 86 3f be a7 2f cf 3d
       -0.1338376 0.072192386 -0.18703666 0.10116511
000290 65 23 88 be 60 8a fe 3d 00 68 5b be 59 9e 2f be
       -0.26589504 0.12428737 -0.21426392 -0.17150249
0002a0 21 84 99 3d f9 de 10 be 3e a3 8e 3d ee 79 d0 bd
       0.07495905 -0.14147557 0.0696473 -0.10179506
0002b0 83 91 22 3c f1 ff 0e 3e 41 39 23 3e 70 b0 6d 3e
       0.009922388 0.13964821 0.1593981 0.23211837
0002c0 fb 09 21 3e 63 a6 58 be 7b d2 d0 bc b8 41 03 be
       0.15726463 -0.21157221 -0.02549099 -0.12818038
0002d0 17 e2 98 3e fd 2b 4f be 57 d5 b9 3e 23 6d 97 bd
       0.29859993 -0.20231624 0.36295578 -0.07393863
0002e0 22 ef 03 3d 42 11 88 3d 51 5d 89 be d1 98 22 be
       0.032210477 0.06643917 -0.26829007 -0.15878607
0002f0 34 70 59 bd c0 92 6b be b1 fc 8a be 01 ee 5d be
       -0.05308552 -0.230052 -0.27145913 -0.21672823
000300 c3 24 6c 3e 23 63 83 3d fb 04 45 be f5 3a 4b be
       0.23060898 0.06415393 -0.19240181 -0.19846709
000310 06 84 26 3e 8b d5 b3 be 2f 74 6b bd 11 d7 fd 3d
       0.162613 -0.35123858 -0.05748385 0.12394536
000320 af b3 7b bd de 7a 7d 3c 4c ed 8b be 40 ce 63 bd
       -0.061450657 0.015471188 -0.2732948 -0.055616617
000330 3c d4 18 3e 21 27 28 bc 2b 60 98 bc 95 3f 88 be
       0.14924711 -0.010263235 -0.018600544 -0.2661101
000340 3c 54 54 be c4 40 1f 3d 9c d8 53 3e db 54 82 be
       -0.20735258 0.038880125 0.20688099 -0.25455365
000350 eb 31 09 be 71 0e 15 be 7e 44 a4 bd a6 e0 5a be
       -0.13397948 -0.1455629 -0.08020876 -0.21374759
000360 d5 cb 07 be 2d bf b6 3d 68 0a d6 bc 47 b7 a2 bd
       -0.1326135 0.08923183 -0.026128009 -0.07945114
000370 6c d8 99 bd 0a 51 9f be f3 8b d1 be 7f 15 a1 be
       -0.07511982 -0.31116515 -0.40927085 -0.31461713
000380 62 7f 63 be cf 76 97 be e4 60 92 be c2 01 e3 be
       -0.22216561 -0.2958283 -0.28589547 -0.4433728
000390 00 1a 5c 3e 8e 59 5e be d2 d6 f1 3d c4 90 a8 3d
       0.21494293 -0.2171385 0.11808552 0.08230737
0003a0 60 a1 29 bd ad af 83 be f4 8f 09 be 61 8b b3 3e
       -0.041413665 -0.25719967 -0.1343382 0.35067275
0003b0 7d 5e 0d be ac d6 62 be 38 94 87 be 99 bf 0d be
       -0.13805576 -0.22152203 -0.2648027 -0.1384262
0003c0 52 6f a6 be 27 e7 e2 bd 2e 71 86 3e 1f e9 1c be
       -0.32506806 -0.11079245 0.26258224 -0.15323304
0003d0 ad e7 a5 3e 2c bc 89 be d9 52 19 3c df 72 b5 bd
       0.32403317 -0.26901376 0.009358131 -0.088598005
0003e0 87 3a 8d bd 30 82 ca bb 18 c6 0c 3f 4d 2a 93 b9
       -0.06895929 -0.0061800703 0.5498977 -0.0002806954
0003f0 5c 82 c8 bd 26 0c 71 be 2d 19 0a be 76 14 45 be
       -0.09790489 -0.2353979 -0.13486166 -0.19246086

net.2.weight f4 [256, 256]
000000 cc 5e 49 3d 91 54 2d bd dd 9d ad 3c 9b b3 0d 3d
       0.04916267 -0.042316977 0.02119344 0.034595113
000010 d8 50 81 bc 1d 61 3b 3d b2 11 2f bd 8e 81 4a bd
       -0.01578562 0.04574691 -0.042741485 -0.04943996
000020 c0 ed c5 bb dd c3 68 bc 4a d1 59 bd b0 46 7f bd
       -0.006040305 -0.014206854 -0.05317811 -0.062323272
000030 b9 d4 49 bd 9a 62 46 bd 36 c7 47 3a 7f 9b 19 bd
       -0.049275134 -0.048433878 0.00076209323 -0.03750181
000040 20 92 f6 bb 05 4c 61 3d 44 2a 5b bd 7c 11 8c bd
       -0.0075247437 0.05500414 -0.053507105 -0.068392724
000050 c6 de ab 3c bc db 64 bd a5 83 00 bc d0 21 8b bb
       0.02098025 -0.055873618 -0.0078438865 -0.004245974
000060 7d 46 17 3d f9 cf a2 bc 1a 2b 48 3d 4e c9 f2 bc
       0.036932457 -0.01987456 0.04886923 -0.029637005
000070 b2 12 97 3c 1b c1 89 bd 09 16 f8 3c b8 ee 87 3c
       0.018441532 -0.06726285 0.030283945 0.016593322
000080 0c d6 89 3a 41 5a b3 bd 90 f0 91 3c 90 d1 34 3c
       0.0010516061 -0.08757449 0.017814904 0.011036292
000090 af 34 8f bc 51 ac e2 3b ca a6 32 bd a2 94 74 3c
       -0.017481176 0.0069175144 -0.043616094 0.014928015
0000a0 02 db 09 bd f3 0d 1b 3d 14 2d fd bb 70 94 71 bc
       -0.033656128 0.0378551 -0.007726321 -0.014744863
0000b0 be 90 5c 3d eb 72 c7 3c d8 39 57 bc 18 b2 aa 3c
       0.053848974 0.02434679 -0.01313635 0.020836875
0000c0 6e f1 ef bc b8 ac 33 bd 97 0c 20 bc c4 58 48 3d
       -0.029289927 -0.04386589 -0.009768627 0.04891278
0000d0 ca 74 fc 3b 93 82 51 bd cb 40 3b bd 60 c3 8e 3d
       0.007704352 -0.051149916 -0.04571609 0.069708586
0000e0 3a 75 89 bd 00 5e 59 3a 30 24 40 3d 9a 5c 81 3d
       -0.06711812 0.00082919 0.04690951 0.063164905
0000f0 f0 9e 1d bb d2 7e 06 3d 5e e0 0c 3d 6e c5 6c 3d
       -0.0024051033 0.03283579 0.03439366 0.05780547
000100 00 34 43 39 04 17 8a bc 25 b4 56 bd e0 6e 09 bc
       0.0001861602 -0.016856678 -0.052417893 -0.008388251
000110 0a f4 2e 3d b6 8a a5 3c 63 a2 ec bc 6c 93 98 3b
       0.042713203 0.020207744 -0.028886026 0.004656246
000120 4c 4a 42 3d 9a 7f 6d bd 95 df 53 3c 4e 85 35 3d
       0.047434136 -0.05798302 0.012931724 0.044316582
000130 2b 38 9c bd da 18 8d bc c4 f6 e9 3c 54 67 7c 3d
       -0.07627901 -0.017223764 0.02856005 0.06162198
000140 b8 8a a1 bc 59 01 27 3d 28 2f 49 bc e8 67 2f bd
       -0.019719467 0.04077277 -0.012279309 -0.042823702
000150 07 a0 03 bd 7b 16 af bd 2f 37 27 3c ac 36 cf 3c
       -0.032135036 -0.0854921 0.010206028 0.025294624
000160 86 2c 0d 3c ba 27 0c 3d 26 2f d4 bc a3 c9 27 3d
       0.008616572 0.034217574 -0.025901388 0.04096378
000170 a4 40 a3 bd 04 58 9d 3c 0d e2 c4 bd 9c 08 c3 3c
       -0.079713136 0.019207008 -0.09613428 0.023807816
000180 d9 25 7a 3b 07 c7 cd bd d0 f1 67 3d 14 61 14 bd
       0.0038169532 -0.10047727 0.056627095 -0.036225393
000190 c5 24 55 bd 44 55 2f bd 3d 3a 02 bc 60 1c 9a bb
       -0.05203702 -0.042805925 -0.007948455 -0.0047030896
0001a0 a8 68 80 bc a2 7c d1 3b 48 a3 f0 bc 47 69 07 3d
       -0.015674904 0.006393031 -0.029374734 0.033059385
0001b0 a1 65 92 bd cc f4 8a bc 42 75 2c bd 20 70 04 3c
       -0.071482904 -0.016962431 -0.042104013 0.008083373
0001c0 58 b3 09 bc 00 e7 a9 b9 07 bf ea bc d1 7e ba bd
       -0.008404575 -0.000324063 -0.028655542 -0.091062196
0001d0 d0 49 df bb 76 6f 46 bc ee 07 bb 3d e0 a0 87 3b
       -0.006814219 -0.012111535 0.09132372 0.004139051
0001e0 ba b3 42 bd 99 3d 12 bd ac 09 3c bd e6 10 15 3d
       -0.04753468 -0.035703275 -0.04590766 0.03639307
0001f0 04 9d 23 bc 60 89 6c bd 4e d6 66 3d 6a 99 8d 3c
       -0.009986166 -0.0577482 0.05635672 0.017285068
000200 5a 87 63 3d 70 fb 93 bb b6 03 50 3c 92 4a 6b bd
       0.055549003 -0.0045160577 0.012696197 -0.057444163
000210 83 98 1f bd f8 ce 86 bb fd 8f 22 3c 3c 5e 3b bd
       -0.038963806 -0.004114028 0.009922025 -0.045744166
000220 3a a0 5e bd 8b b7 17 bd 80 73 9a 3d 00 26 79 ba
       -0.054352023 -0.037040275 0.07541561 -0.00095042586
000230 8c cb 5a 3d c4 91 32 bc 0b fc 3d bd d6 49 90 bd
       0.053416774 -0.010899011 -0.046382945 -0.07045333
000240 e4 dd 3b 3d 1b c4 91 3c 70 03 58 3d 1a d2 39 3d
       0.04586591 0.017793706 0.052737653 0.045366384
000250 b2 96 8e bd f3 45 eb 3c a0 9e 2d bb 48 1e 21 3d
       -0.069623366 0.028719878 -0.0026492253 0.03933552
000260 26 cd 0c 3c ea 2d 77 bd f9 a3 4d bd 04 b1 5c 3d
       0.008593833 -0.06034652 -0.050205205 0.053879753
000270 a6 3c 9c bd 94 a3 52 bd b1 fb 61 bb ca a7 8c bd
       -0.07628755 -0.05142553 -0.0034482295 -0.06867941
000280 64 72 ac bc a4 fe b3 bc 11 1a 71 3d b4 7d c5 bd
       -0.02105064 -0.021972008 0.05886275 -0.096431166
000290 b7 0e 73 bc 86 fe 24 bd 5a 89 37 bd 25 ab 72 bd
       -0.014835051 -0.040281795 -0.044808723 -0.059245247
0002a0 cb 4f 89 bd 66 eb 20 bd 6f da c9 bd 87 bf 78 bc
       -0.067046724 -0.039286993 -0.09856116 -0.015182382
0002b0 05 88 1d 3d d8 96 44 bb 80 b7 ac ba 8a f6 b6 3b
       0.038459796 -0.0029997136 -0.0013177246 0.005583589
0002c0 c1 b2 62 bd 69 0d be bb a7 24 be bd 7a b6 9b bd
       -0.055346254 -0.0057999385 -0.09284335 -0.07603164
0002d0 0d 49 74 3c 82 6e f8 3a 80 b9 5d bd 95 df 2f bd
       0.014909995 0.0018953832 -0.054131985 -0.042937834
0002e0 58 0d 1d bd 2d 41 e7 bc 4d b5 89 bc d4 77 52 3d
       -0.038342804 -0.02822932 -0.016810084 0.05138381
0002f0 f0 c5 37 bd 29 eb 28 bd b0 54 66 bd 90 2e da bc
       -0.044866502 -0.04123989 -0.056233108 -0.02663353
000300 bf ee 1f bd 00 d8 45 3b 5f fe 73 bd 91 a5 38 bd
       -0.039046045 0.003018856 -0.05956876 -0.04507977
000310 f8 3f 68 3d 02 b5 b3 bb 10 bf 3b 3d df ac 84 bd
       0.05670163 -0.0054842243 0.04583651 -0.06478285
000320 80 36 33 3a 98 9b 4a 3d c9 4e 55 3c a5 90 0e 3d
       0.0006836429 0.049464792 0.013019272 0.034805913
000330 58 70 60 3d 62 6a c9 bc 56 ed 0e bd e5 c2 74 3c
       0.05479464 -0.02458686 -0.03489431 0.014939045
000340 18 cc 28 3d 01 1f 07 bd 74 87 6f 3d 46 48 0c bc
       0.041210264 -0.032988552 0.058478788 -0.008562153
000350 00 83 01 bb 1c 92 4f bd 54 db aa bc 6b 88 ae bd
       -0.001976192 -0.05067645 -0.020856537 -0.085221134
000360 d0 6b 46 3c 75 e3 5e 3c 95 29 39 bd 6a 27 9e 3c
       0.012110665 0.013604035 -0.04520567 0.019305903
000370 ef e2 c8 3c 9b da 0b 3d 6f e4 25 3c 3d bb eb b9
       0.024522273 0.034144025 0.010125264 -0.00044962196
000380 35 35 93 bd 10 0e 46 bd df 35 34 3d 94 43 57 3d
       -0.07187883 -0.048353255 0.043996688 0.052554682
000390 7b 1f b4 bc 88 2b e6 bc c0 8e 0a 3d fd 35 02 bd
       -0.021987667 -0.02809693 0.033827543 -0.03178977
0003a0 71 f6 b8 3d 08 a2 05 bc de 2c 5a bd dd f9 2a bd
       0.0903138 -0.008156307 -0.053265445 -0.041742194
0003b0 78 13 4d 3b 4e 4b 4e bb 4a 6b 7d 3d 93 1c 13 3d
       0.0031292122 -0.003147799 0.061869897 0.035915922
0003c0 46 56 33 bd e4 7a cd bc d2 1e dd 3c 24 e0 af bc
       -0.04378345 -0.025083013 0.026992235 -0.021469183
0003d0 cf 2a 3e bc fe b6 58 bd 6c 1c 25 bd 53 d5 ba bc
       -0.011606886 -0.05290889 -0.04031031 -0.022806799
0003e0 39 93 0a bd d1 8f 36 3c 32 2e 99 3c e1 55 d1 3c
       -0.03383181 0.011142687 0.018698785 0.025553646
0003f0 ea 27 00 bd 00 c4 59 bb e0 49 9d bc 20 93 ea bc
       -0.031288065 -0.0033228397 -0.019200265 -0.028634608

net.2.bias f4 [256]
000000 fc b1 de bb ed b3 02 be e8 db d2 bc 5a 59 e2 3c
       -0.0067961197 -0.12763949 -0.025739625 0.027630497
000010 86 56 ed 3c 11 7e 93 3d 22 0d e4 3e a7 5d b9 3c
       0.028971922 0.0720178 0.4454127 0.022627665
000020 23 ed 41 bd 58 d1 39 bd 3f 82 29 be dd 1d be bc
       -0.04734529 -0.04536566 -0.16553591 -0.0232076
000030 1a 06 85 bd 12 6b b4 bd 3a 11 3e bc fa a7 b2 bd
       -0.064953044 -0.088094845 -0.011600787 -0.08723445
000040 4d 60 84 bd ad 40 02 bc 95 f8 2e bb bf 11 3d 3c
       -0.064636804 -0.00794999 -0.002669846 0.0115398755
000050 32 af e7 bd 8e ff 90 bd 21 22 b2 3c 16 df 20 bd
       -0.11312713 -0.07079993 0.02174479 -0.03927525
000060 da ea f1 3e 9a 93 07 bd 46 2d 31 3d 6d 3c 8f bc
       0.4724949 -0.03309975 0.043256067 -0.017484868
000070 ba 31 50 be a0 a3 c2 bb 56 fd 5e 3c 98 b3 6d bc
       -0.20331469 -0.005939916 0.013610205 -0.0145081505
000080 17 26 23 3e c3 a9 a6 bd 1b fb bd bb ff 85 29 be
       0.15932499 -0.08137848 -0.0057977564 -0.16555022
000090 37 79 8d bd ad 93 7f bb af f6 75 bd 69 e7 f5 bd
       -0.069078855 -0.0038997934 -0.06004971 -0.120070286
0000a0 e5 f6 e6 3c 3a de 3c 3e 24 fa 0a bd 87 25 20 3c
       0.0281939 0.18444148 -0.03392996 0.009774572
0000b0 bb 00 bc bd c6 22 4a 3e dc 27 55 bd ee 90 4a bd
       -0.09179827 0.19739828 -0.052039966 -0.049454622
0000c0 26 e2 87 bd 03 2b 20 3d 9c 28 ae 3c 40 75 e9 3e
       -0.06634931 0.03910352 0.021259598 0.45597267
0000d0 06 b6 df bd 5b 14 98 bc ef 57 95 3c 34 72 0c bd
       -0.1092339 -0.018564394 0.018230407 -0.0342886
0000e0 f2 7b 76 3e eb a8 ab bd ea 18 f4 3c 5b f0 ce bd
       0.24070719 -0.08381828 0.029797036 -0.10104438
0000f0 62 58 23 bd 79 16 2a 3e 14 0e 24 bd 8a e2 cb 3e
       -0.03987921 0.16610135 -0.04005249 0.39821273
000100 9c 56 71 bc 60 e9 40 3c cf 51 8a bd c7 a7 6d ba
       -0.014730122 0.011774391 -0.06753885 -0.00090658333
000110 35 08 2a 3c c0 c5 cc bc e9 60 80 bb 53 a5 20 bd
       0.010377933 -0.024996638 -0.0039178026 -0.039220165
000120 87 55 64 bd 58 af 49 bd 6b 59 15 3e 38 4a 4b bd
       -0.055745628 -0.049239486 0.14584891 -0.049631327
000130 ad b2 8a 3e 0d 07 30 bd e1 13 1a be 47 40 d9 3d
       0.27089444 -0.042975474 -0.15046646 0.10607963
000140 0d 3f 77 bd c2 ee 4b bc 54 dd f5 bc e8 aa 48 3d
       -0.060362864 -0.012447061 -0.030012764 0.048991114
000150 92 c1 8c bc 73 ab 0d 3f fb 13 d7 bd 19 bc b8 bd
       -0.017182145 0.55339736 -0.10501858 -0.09020252
000160 90 b4 d0 bd 68 68 38 bd af 0a a2 3b 96 22 5b bd
       -0.101906896 -0.045021445 0.0049451212 -0.05349978
000170 76 dd 84 bd 90 5f b0 b9 5e 38 60 bd c4 70 55 be
       -0.06487553 -0.00033640536 -0.054741256 -0.20843798
000180 31 e7 c3 3c 89 77 90 bc c0 c8 f0 bc 72 b3 7e 3d
       0.023913952 -0.017635124 -0.0293926 0.06218285
000190 7e 4a 11 3e 7a cb f5 3c 10 91 ff 3d d7 f1 54 be
       0.14188573 0.030004252 0.1247884 -0.2079538
0001a0 7c 1d 9b bd 93 aa 13 3e e7 0c eb 3d 24 09 b7 bd
       -0.07573983 0.14420538 0.1147707 -0.0893729
0001b0 29 ed a4 3e 3d da 0b bc 6a 1b 22 3e a2 d4 b3 3b
       0.3221219 -0.008535919 0.1583077 0.0054879943
0001c0 8c 2c 86 bd 94 3d f1 bc 83 fd c0 3b ec 1b 01 3e
       -0.065514654 -0.029448308 0.005889596 0.12608308
0001d0 f0 2a 83 bd d5 52 b0 bd cb b0 4a 3d 21 f0 4b 3e
       -0.06404674 -0.08609549 0.04948501 0.1991582
0001e0 b1 cd d9 bc 30 8d ef 3e 50 18 45 bc 63 f8 18 be
       -0.02658734 0.46787405 -0.012029722 -0.14938502
0001f0 da a3 ef bc 47 d1 f3 3e fd 59 cf 3e ec 59 39 3d
       -0.029252935 0.47620603 0.40498343 0.04525177
000200 2c 1b 8c 3c 68 7a ab bd 5b 52 52 be eb 7d ab bd
       0.0171028 -0.083729565 -0.20539229 -0.08373626
000210 bf c9 63 bd 81 ab a1 bb 98 1c 4a bc dc 1c dc 3c
       -0.055612322 -0.004933775 -0.012335919 0.02686923
000220 a9 06 ba 3c 38 c5 cd bd 68 2e 78 bd a9 32 57 bd
       0.022708254 -0.10047382 -0.06059113 -0.052538548
000230 99 3b a6 bd 24 0b 3d bc 45 57 d9 bb 7e 94 11 be
       -0.08116836 -0.011538301 -0.006632718 -0.14216802
000240 fc 5c 35 bd f0 ea a2 3e c9 00 6b 3c d8 4f a7 bd
       -0.04427813 0.31819868 0.014343449 -0.08169526
000250 6d d6 8b bd f3 76 c5 3d 14 da af bd a1 10 c4 bd
       -0.06828008 0.096418284 -0.08586517 -0.09573484
000260 00 22 dd bd f4 6c fc 3e 6c b4 44 bd 73 68 e1 bd
       -0.107975006 0.49301875 -0.048023626 -0.1100625
000270 38 e9 55 bd b3 9f 95 bd 40 da 44 bc 1e d9 97 bc
       -0.052224368 -0.07305851 -0.0120149255 -0.018536147
000280 d4 f2 08 3d 9e bc 2e 3c a8 9d e8 3d 0b 37 eb 3d
       0.033434704 0.010665087 0.113581955 0.11485108
000290 cf 00 95 bd 92 33 cb 3c 6b f6 79 3c 66 d3 b8 bd
       -0.07275545 0.024804864 0.0152565045 -0.09024696
0002a0 6f 34 ca 3c 9f ad 4e 3c d4 db 68 bd b6 d7 e4 3d
       0.024683205 0.012614637 -0.05685027 0.11173956
0002b0 9f f7 68 bd 51 2a 70 3c 83 fb 0e be 87 fc 09 39
       -0.056876775 0.0146585265 -0.13963132 0.00013159412
0002c0 a3 c2 cf 3c aa 7b 17 3e 14 08 9d bd 57 32 2f 3e
       0.025361365 0.14793268 -0.076675564 0.17109047
0002d0 b0 7a 3c bc d8 cc 4f 3e 49 6b 25 be 55 82 f2 3b
       -0.01150386 0.20292985 -0.16154207 0.0074007907
0002e0 50 52 b2 bd 42 77 c7 ba 54 a3 4f bd 7f 4c 6b bd
       -0.08707106 -0.0015218037 -0.05069287 -0.057446
0002f0 10 e1 5f bd 73 96 8b bd 29 bc b9 bd a8 0d ff 3c
       -0.054657996 -0.06815805 -0.09069092 0.031134441
000300 5e 32 b2 3d dd 98 b7 3d 7f 57 10 bd 52 a4 92 bd
       0.08701013 0.08964703 -0.035239693 -0.07160248
000310 2e e6 f1 be ae 9e 9e bd ec 03 51 be d4 e1 02 3d
       -0.47245926 -0.077451095 -0.20411652 0.031953648
000320 2b ea a7 3c 7d 50 7c bd f0 fb 40 bd 18 54 2e 3e
       0.020497402 -0.061600197 -0.047115266 0.17024267
000330 41 b4 41 3c e4 23 f8 3c d0 ea 3e bd 5a 48 2b be
       0.011822761 0.030290551 -0.046610653 -0.16726819
000340 ce 7a 46 bd 72 32 df b9 2a 72 0f 3d cf 77 58 bd
       -0.04845696 -0.0004257146 0.035020985 -0.052848633
000350 c4 f6 f2 bd b5 d5 8e bd cd 1c 87 bd ab 96 ab bd
       -0.11863473 -0.06974355 -0.0659729 -0.08378347
000360 be ea c7 bd f7 d3 6e be dd cc dd 3d 5a 97 23 3e
       -0.097615704 -0.23323046 0.1083009 0.15975705
000370 ad 14 9b bd 42 34 b3 bd 1c b9 30 bd fd ba c8 bd
       -0.07572303 -0.08750202 -0.043145284 -0.0980129
000380 a8 22 16 3c 15 60 fd 3b e3 82 87 3c c5 8c 92 bd
       0.009163536 0.007732401 0.016541904 -0.07155756
000390 fe c1 ac bd e6 9b 0a bd e4 7a c3 bd a2 34 c7 bd
       -0.084354386 -0.033840083 -0.09544924 -0.09726836
0003a0 68 97 c7 bd 5f ec 09 bc 5b ff 21 bc c8 c2 f7 bd
       -0.09745675 -0.008418172 -0.009887542 -0.120976985
0003b0 f4 e3 25 bd 7c bf c5 3c 4a 07 47 be f4 e3 26 3d
       -0.040500596 0.024139158 -0.19436374 0.040744737
0003c0 b3 b1 ce 3b bb 49 2e 3d f6 49 85 bd c5 f3 41 bd
       0.0063078045 0.042550784 -0.065082476 -0.047351617
0003d0 a0 72 0d bd 7b 6d 6b bc 89 bd b7 3d 27 a7 38 3d
       -0.034533143 -0.014369364 0.08971698 0.045081284
0003e0 9c 23 f8 bc 7d b6 f3 3d c4 24 49 bd 6e 08 09 3e
       -0.030290417 0.11900041 -0.049107328 0.13382122
0003f0 97 7a 50 3b 85 93 9a 3e 5f 86 5c bc 0e 18 dc bd
       0.003181135 0.30190673 -0.013459771 -0.107467756

net.4.weight f4 [1, 256]
000000 03 e5 41 bc 29 4d c8 be bb b0 58 bc 20 82 18 3e
       -0.011834386 -0.3912137 -0.01322573 0.14893389
000010 f6 da 0d bc c0 0b 19 3d ff e3 bf 3e 13 38 e8 3c
       -0.008658161 0.03736472 0.37478635 0.02834705
000020 cc 15 b8 3f f2 e1 0b 3d f0 46 17 3f 74 83 d5 3c
       1.4381652 0.034151025 0.5909262 0.026063658
000030 5a 54 83 bb d6 15 ca bd 78 16 a4 3c 61 a6 3c bf
       -0.004007858 -0.09867446 0.020030245 -0.73691374
000040 ab e4 7c 3c ec 12 b0 bc ef a4 75 bc 01 43 f9 3d
       0.015435378 -0.021493398 -0.0149929365 0.12170983
000050 0c 47 9b 3e 0b 6e de bf 8f 09 c5 bc 78 eb b8 bd
       0.30327642 -1.7377332 -0.02405241 -0.09029287
000060 ef 3f ef 3e 92 cc d9 3a e0 3d 4d be 0a 2c 8a 3d
       0.46728465 0.0016616753 -0.20043135 0.06746681
000070 67 77 97 bf 34 42 08 3d 2b 06 1e 3b 46 99 96 be
       -1.1833314 0.03326626 0.0024112563 -0.29413813
000080 a9 bc 4e 3b fc 68 08 bc 7e 06 bd 3c 77 e1 0c 3f
       0.0031545556 -0.0083258115 0.023074385 0.5503153
000090 b8 d9 8a bd 2e 21 9b ba 2d b2 19 bc 61 89 19 3e
       -0.06779808 -0.001183545 -0.009380859 0.14993812
0000a0 40 34 af be cc 28 79 bf 7c 7b 28 be 05 60 aa 3c
       -0.3421955 -0.97327876 -0.16453356 0.020797739
0000b0 1d 43 19 be 97 50 89 bc cb 24 81 bc 7a 44 30 3d
       -0.14967008 -0.016762061 -0.015764615 0.043034054
0000c0 1d 85 f3 bc a7 07 5b 3b 9f 49 8f bc 5c 08 25 3f
       -0.02972656 0.003342131 -0.01749116 0.6446588
0000d0 83 8d 74 3c a7 ba 41 bd 28 5f 74 bc f2 1e 8a bb
       0.014926317 -0.047297146 -0.014915265 -0.0042151147
0000e0 85 1a ba 3e ad 0e c8 3b f2 53 24 3c 97 02 79 3c
       0.36348358 0.006105265 0.01002978 0.015198371
0000f0 c3 14 fc bb 45 98 4c 3f 90 5a b0 3c 59 b8 99 3e
       -0.0076929047 0.79919845 0.021527559 0.3002346
000100 ba e4 f2 3d 7b f5 49 bd 28 13 62 3c 53 a5 29 be
       0.118600324 -0.049306374 0.0137985125 -0.16566972
000110 a1 d1 19 bf 22 6d 6d bc f7 da 98 3b e3 cd 88 3f
       -0.60085493 -0.014491351 0.0046647745 1.0687832
000120 37 0a 6d 3b 50 1c 0c 3d 4a 55 1f 3f 4e 9d 2c 3d
       0.0036169419 0.03420669 0.62239516 0.042142205
000130 19 6e 93 be 03 b5 0a be 4d 3c f1 be 8c cb ca 3d
       -0.28794935 -0.13545613 -0.47116318 0.09902105
000140 d2 4d 16 3c 65 a4 97 3c fd f8 ce bd d3 fb ea 3d
       0.009173827 0.018511007 -0.101060845 0.11473813
000150 a3 33 d9 ba 28 05 9c 3e 41 4e cc be 8b f1 ca bb
       -0.0016571175 0.30472684 -0.39903453 -0.006193345
000160 12 6e 3e 3e 59 b3 8c 3b b0 d1 86 bc 31 e5 37 bd
       0.18596676 0.004293841 -0.016457409 -0.04489631
000170 18 0b f5 bb 68 77 64 bc d6 59 18 be 11 79 41 3b
       -0.007478129 -0.013944484 -0.1487802 0.0029521624
000180 f8 aa 33 3d a8 1b e3 3c 6a ae 63 3d 9e 05 10 3e
       0.04386422 0.027723148 0.055586256 0.14064643
000190 df b3 17 3e 7f 10 73 bc fb c6 af 3b cf 55 47 be
       0.14814709 -0.014835476 0.0053642965 -0.19466327
0001a0 63 08 ca bc 6a 52 3a 3c 7c 87 62 bc 2b b5 3f bd
       -0.024662202 0.011372188 -0.013826247 -0.046803635
0001b0 90 b7 21 3f ee 79 9e 3d c8 8b 1e 3e b7 e5 eb bc
       0.6317072 0.077381 0.1548301 -0.02879606
0001c0 a1 04 89 3c 32 ad b0 3d 86 a7 71 be fd 05 3c 3a
       0.01672584 0.086267844 -0.23599061 0.0007172523
0001d0 3a 78 2e 3d a2 49 95 3b 20 da 80 bc c9 d1 c5 3d
       0.042595126 0.004555897 -0.01572901 0.09659154
0001e0 d5 dd 88 3e 9f a6 57 3e 09 f6 51 bd 78 a3 ea bf
       0.26731744 0.21059655 -0.051260028 -1.8331137
0001f0 0c 50 29 be 31 ea c6 3e 2b 28 24 3f 68 7c bd bd
       -0.16534442 0.3885055 0.6412379 -0.09252244
000200 f8 e0 82 bb 3e 03 79 3c 42 ac 08 40 52 4b 9d bc
       -0.0039941035 0.015198527 2.1355138 -0.019200955
000210 70 f9 93 be 02 2a 6f bb 7a da aa bb 7b 9c 0b bb
       -0.28901243 -0.0036493544 -0.0052140327 -0.0021302986
000220 11 da ac bc 99 c1 3c 3e c6 b5 10 3f 84 98 03 bb
       -0.021100076 0.18433227 0.56527364 -0.002007992
000230 c8 98 dd 3c 6a c8 ac bd fb f0 62 bc d0 d0 94 be
       0.02705039 -0.084366634 -0.0138513995 -0.2906556
000240 17 e1 8e 3b 17 c7 2e 3e 32 e2 46 3c 9e 17 9f bc
       0.004360329 0.17068134 0.01213889 -0.019420441
000250 66 c6 b3 3c 19 a1 09 bc e5 dd da 3c 89 50 08 3d
       0.02194519 -0.008400225 0.026717136 0.03327993
000260 a0 7a af bc d0 d2 e2 3e cd fb 8c bb 23 43 c5 b9
       -0.021420777 0.44301462 -0.004302478 -0.0003762479
000270 7d 72 98 3c 64 18 eb 3c bb 36 6b bb fa e3 11 3c
       0.01860928 0.028698154 -0.0035890776 0.0089044515
000280 25 15 2e bc 37 e3 7d bc 11 e3 55 3b 62 92 b9 3b
       -0.010625158 -0.015496067 0.0032636563 0.005663202
000290 26 14 da bb 82 10 12 bd 5b 14 57 bc 64 72 ab bb
       -0.006655234 -0.035660274 -0.013127412 -0.0052321423
0002a0 c6 52 5d be 6a 15 09 bb a3 04 29 bd be 10 47 3d
       -0.21613607 -0.0020917305 -0.041264188 0.04859995
0002b0 94 bc f6 3c 46 03 8f ba 89 5b 2b c0 d3 04 eb 3c
       0.030119218 -0.001091101 -2.6774619 0.028688824
0002c0 b7 80 19 bd ad e7 43 bc f6 88 84 3c 4f 9b a8 bc
       -0.037476268 -0.011957091 0.01617859 -0.02058187
0002d0 80 89 2c 3d e2 8c ba 3f 9b 43 d7 be 52 3f 90 3c
       0.042123318 1.4574244 -0.42043766 0.017608318
0002e0 a7 ef 41 bb b3 c9 a9 bc 09 68 c9 bc 1a 94 ea bf
       -0.0029592307 -0.02072606 -0.02458574 -1.8326447
0002f0 6f 76 87 bc e4 f0 2a bd 72 dd 58 3e 4a 3c 8e bc
       -0.016535966 -0.041733637 0.21178225 -0.017362732
000300 b7 f7 c8 3c 77 a9 99 bf d2 8e 7f 3d cf 47 47 3b
       0.024532182 -1.2004842 0.062392063 0.0030407791
000310 f5 c4 88 40 2e cd 51 3e 37 a1 86 bc 18 a5 00 bd
       4.2740426 0.20488426 -0.016434295 -0.031407446
000320 e9 1e fb bc 9f bb 3d bc 8c 4a fa bc 01 4e d3 3a
       -0.030654388 -0.011580377 -0.030553125 0.001612127
000330 e9 5e b8 3c 6a e9 ec 3c f2 2f 53 3d a0 dc 10 bf
       0.022506194 0.028919894 0.051559396 -0.5658665
000340 36 5c 9d 3b f8 87 01 be 23 82 90 be a0 08 a0 3c
       0.004802252 -0.12649524 -0.28224286 0.019535363
000350 07 b1 c3 be ad 80 c5 3b 1f 65 3c 3c 17 2c ed 39
       -0.38221 0.0060273022 0.0114987185 0.00045237012
000360 86 84 c2 3c 19 42 67 bc f9 16 2b bb 9c 03 64 bc
       0.023744833 -0.01411488 -0.0026106222 -0.013916876
000370 da 43 b4 bc e1 97 f6 bc 1d 38 93 bb 24 f6 46 3d
       -0.02200501 -0.030101718 -0.004492773 0.04857458
000380 f1 8a bd 3c 99 06 08 bf f2 0d 6b 3c de 9a ea 3b
       0.023137541 -0.5313507 0.014346587 0.007159575
000390 36 82 5a 3b 09 bc 9f bc 63 63 09 3c 29 c8 2d be
       0.0033341772 -0.019498842 0.008385512 -0.16970886
0003a0 e2 fe af bc 65 57 87 3c 55 0e d2 3c f5 82 8c bd
       -0.021483842 0.016521165 0.0256416 -0.068609156
0003b0 73 b7 a4 bc 87 25 64 3e 16 46 11 bc cf 1c 5a be
       -0.020107007 0.2227994 -0.008866807 -0.21300052
0003c0 3c 2d e1 ba 23 51 65 bc 67 4f 23 bb ad d9 d0 bc
       -0.0017179619 -0.013996395 -0.0024919154 -0.02549442
0003d0 7e c9 ed 3d ca 33 5b 3c 7b ad 70 3d 8e 99 81 3b
       0.11610697 0.013379047 0.058759194 0.0039550727
0003e0 49 75 e8 b9 a4 01 07 3d ff 44 91 3d 23 1b fe ba
       -0.00044337873 0.03296055 0.07093238 -0.001938675
0003f0 f6 b1 b1 bc 9f ea 07 3f 62 87 61 bc 42 18 0f 3d
       -0.021691304 0.5309238 -0.013765188 0.034935243
