PPO/trex_ppo_models/actor_best.pkl (torch, 284390 bytes, 6 tensors)

net.0.weight f4 [256, 14]
000000 0f 4f 95 be 70 bc a8 bd 9b 1a f2 bd 6b 93 b8 3d
       -0.2916188 -0.082390666 -0.11821481 0.09012493
000010 a5 3b ee bd ef 2d 40 3e b1 5a cf 3d 5e b4 53 3d
       -0.1163247 0.18767522 0.1012472 0.051685683
000020 77 3e 7b be 11 dc 92 3e fb 23 d4 bc 79 64 0b bd
       -0.24535547 0.28683522 -0.025896063 -0.034031365
000030 a0 d6 b8 3d 0a 91 3c 3d f2 8f 9e bc 60 e5 63 bd
       0.090253115 0.046036758 -0.019355748 -0.05563867
000040 6f f1 dd bd 71 44 cc bd 0a 2b 4a 3e 79 14 34 be
       -0.108370654 -0.09973992 0.1974298 -0.17585935
000050 39 f5 77 3b 2f 16 a3 bd 97 58 43 be c8 49 72 be
       0.0037835373 -0.079632156 -0.19076763 -0.23660958
000060 76 dd cf 3d e3 2f c8 3d 8d 72 f6 3d 0f 89 81 be
       0.10149662 0.09774759 0.120335676 -0.2529988
000070 44 bc 16 3e 30 f6 82 3e 10 bb f6 bd 1c d3 9b 3d
       0.14720255 0.2557845 -0.12047398 0.07608625
000080 ec 88 49 be b0 f6 d7 bd 70 c7 62 bd 0b 2a 44 bd
       -0.19681138 -0.10545099 -0.05536598 -0.047891658
000090 bf 57 3a 3e b3 59 a3 3d c1 61 36 3e 71 dd 1d bc
       0.18197535 0.07976093 0.17810728 -0.009635315
0000a0 2e 05 55 3e 34 82 51 3e 85 15 58 be aa 77 78 3d
       0.20802757 0.20459825 -0.21101959 0.060660996
0000b0 a3 c8 d0 be f8 25 7c 3e a3 81 80 be f5 83 71 3e
       -0.40778074 0.24623859 -0.25098905 0.23585494
0000c0 ea 16 0e 3e 76 45 d3 bc 3b ae 18 be ec 47 16 bd
       0.13875929 -0.025789957 -0.14910214 -0.036689684
0000d0 6c 27 48 3c 6b c6 60 be 34 d2 62 3d 79 ff 85 bd
       0.01221643 -0.2195069 0.055376247 -0.06542868
0000e0 96 43 32 be ef 13 4a 3d b9 ec 68 be 30 d0 85 3c
       -0.17408594 0.049335416 -0.22746553 0.016334623
0000f0 6b b0 76 3e 3a 79 b5 3d e5 ce 25 bd cc 92 2e be
       0.24090736 0.08861013 -0.040480513 -0.17048186
000100 b1 2a aa 3a 9b 75 12 3d 93 9f bd bc 30 33 90 be
       0.0012982694 0.03575669 -0.02314738 -0.28164053
000110 69 97 87 be b1 7e c2 3d 58 1c fa 3d cc 3b 95 be
       -0.26482704 0.09496821 0.122124374 -0.29147184
000120 c9 f8 b1 bd a6 4c 77 3d e6 79 6a 3d 1c 12 49 be
       -0.0869003 0.060375832 0.057245158 -0.19635814
000130 e5 d6 33 be 91 5a 32 be 97 22 83 3e 64 15 ff 3c
       -0.17562445 -0.17417361 0.25612327 0.03113813
000140 ed 78 01 be 63 18 64 be f1 cb 2e be a6 44 8b be
       -0.12643786 -0.22274928 -0.17069985 -0.27200812
000150 94 e3 92 bd 8e e0 41 3e 97 f2 e3 bd 16 a6 47 3e
       -0.07172313 0.18933317 -0.11130255 0.1949695
000160 d8 68 96 bd 13 6d 0e bd f2 e6 e9 3c a9 ad 34 3e
       -0.07344216 -0.03477199 0.028552506 0.17644371
000170 bd e4 a2 3d db d5 06 3e 79 3c 2d 3e b3 ed 99 3d
       0.079537846 0.13167517 0.169176 0.07516041
000180 4d ae 4e 3e 4d c4 6c 3e 0b d7 27 be a4 30 a3 be
       0.20183678 0.23121758 -0.16390626 -0.31873047
000190 6d 7e ed bd 79 44 33 bd 23 fc c0 3d 4d 6a 5c 3d
       -0.115963794 -0.043766472 0.09423091 0.053812314
0001a0 35 fe cc 3d ae cd 52 3e e5 20 04 3e 67 20 22 be
       0.10009424 0.20586273 0.12903173 -0.15832673
0001b0 15 c7 f3 bd 37 c7 a5 3d 35 5b 04 be a2 42 4c bd
       -0.11903206 0.08094638 -0.12925418 -0.049868234
0001c0 d8 8e a7 be 8e 86 2e 3c 45 ae 64 3e 20 07 6f be
       -0.3272617 0.0106521975 0.22332104 -0.23342562
0001d0 be d2 10 be 94 24 d6 3d 44 62 8c 3d 63 28 93 3d
       -0.14142892 0.104561955 0.0685468 0.071854375
0001e0 29 b5 74 3e 58 2e 6d be 24 c4 5d 3d d4 09 35 3e
       0.23897232 -0.2316221 0.054142132 0.1767953
0001f0 c0 0b 74 bc 17 98 ab 3d cd ea 61 3e a4 67 20 3e
       -0.01489538 0.08378618 0.22062226 0.15664536
000200 c3 bf dd bd 08 aa dd bd 66 77 54 bc a1 f7 09 bd
       -0.10827591 -0.108234465 -0.01296792 -0.033683423
000210 ae 39 fe bc 67 89 67 be 98 2f bf 3d 84 d2 06 3e
       -0.031033363 -0.22611009 0.0933525 0.13166243
000220 72 04 78 bd 6d 96 61 3e 67 11 0a 3e 4b a0 4a bc
       -0.060551114 0.22030039 0.13483201 -0.012367318
000230 c0 55 18 be 16 d7 91 be ee e3 97 bb bd 30 67 3e
       -0.14876461 -0.2848441 -0.0046353256 0.22577186
000240 5f a7 4e 3e 7f ee 60 be 4c 80 6a 3d da 2e 56 be
       0.20181035 -0.21965979 0.05725126 -0.2091631
000250 ff 63 2b 3d ca 48 34 3e c7 18 12 3e 88 0d f8 bd
       0.04184341 0.17605892 0.14267264 -0.12111956
000260 7a 08 45 3e 66 79 30 3d d6 4d 0d 3e be da fd 3c
       0.19241515 0.043084525 0.13799223 0.030988093
000270 3e 8d 3b 3e 66 56 3e 3e 1d a5 97 3e 27 49 11 3d
       0.18315598 0.18587646 0.2961816 0.035470154
000280 db e9 91 be 86 b8 1f 3e b0 c5 6a 3e 9b b3 65 be
       -0.2849873 0.15597734 0.22926974 -0.22431795
000290 4d be a8 bd 72 73 8c be ba 18 21 3e 2f 54 3e be
       -0.08239422 -0.27431828 0.15732089 -0.18586801
0002a0 28 8e bf 3d 7d 88 50 3e 55 4a 64 3e 7d f1 21 3e
       0.09353286 0.20364566 0.2229398 0.15814777
0002b0 85 aa 87 3e bc 21 c8 3d 12 91 79 be ef d7 83 bc
       0.26497284 0.09772059 -0.24371746 -0.016094176
0002c0 a4 8b 0c 3e 75 e9 a8 3d 3d 4c 05 be 2d d5 c3 bc
       0.13725144 0.082476534 -0.13017364 -0.023905361
0002d0 97 cc 1a 3e f7 b5 08 be 16 06 f9 bd e5 9f 94 3d
       0.15117107 -0.13350664 -0.12159364 0.0725706
0002e0 a2 10 2b be c4 03 9b 3d a0 2a 69 be 99 cc 5e be
       -0.16705564 0.075690776 -0.22770166 -0.21757735
0002f0 fb 4d 5a be 8e 7c 08 3e 54 75 84 be 8e cb 29 3e
       -0.2131881 0.13328764 -0.25870764 0.16581556
000300 59 76 82 be 8a 23 37 be a8 ce 4c be 88 ca 83 be
       -0.25480917 -0.17884651 -0.20000708 -0.25740457
000310 4a 73 4d be 73 cb b3 bd 2c ab 01 be 17 f8 72 3e
       -0.2006351 -0.08779039 -0.12662953 0.23727451
000320 bc dc c5 bd 96 f9 41 be 13 e2 1a 3c b9 dc a3 be
       -0.09661242 -0.18942866 0.009453314 -0.32004336
000330 97 9b 39 3e f9 95 5f 3e 99 4e 51 3d 1a d0 68 be
       0.18125759 0.21834554 0.051100347 -0.22735634
000340 8c 44 2d be b3 9e 87 be fd dc 55 be 00 c4 20 3e
       -0.1692068 -0.26488265 -0.20885082 0.15699768
000350 69 31 a1 3e 8d 7f 73 3e 04 bc 08 3e 97 f8 d0 bc
       0.3148301 0.23779126 0.13352972 -0.025509162
000360 68 ee 4e be 4c 84 2c 3e cb 59 29 bc 0a 2f 9a 3d
       -0.20208132 0.16847342 -0.01033635 0.07528503
000370 a0 12 77 3e 55 a7 45 3e 3d 20 5d 3d a6 43 8f be
       0.24128199 0.19302113 0.053985823 -0.279813
000380 17 e3 7f bd 97 98 8f be 04 5c 06 be 44 13 9e be
       -0.06247243 -0.28046104 -0.13121039 -0.30874074
000390 ae 99 4a 3e 18 d6 29 be 4a b3 5a 3e 1a 8d 5f 3d
       0.19785187 -0.16585577 0.21357456 0.054577924
0003a0 93 07 87 3d ce 79 59 be 1e e4 1a be 4a 1a 1e 3e
       0.065932415 -0.21237871 -0.15126082 0.15439716
0003b0 c5 bf 49 3d d5 cd 0a be c3 86 21 bd 12 42 0e 3e
       0.04925515 -0.13555081 -0.03943516 0.13892391
0003c0 fa 88 04 3b df 66 df 3d f6 34 a7 bd db 9e f4 bd
       0.0020223246 0.10908293 -0.08164398 -0.11944362
0003d0 a4 3b ac bd e6 b4 0a bd 38 1f 0d bd 43 14 20 3e
       -0.08409813 -0.033863924 -0.0344536 0.15632729
0003e0 58 a9 83 be 84 64 6a be ee 18 bd 3d 8d 67 5a 3e
       -0.25715137 -0.22889906 0.092332706 0.21328564
0003f0 84 87 88 be 5f cc 5b be 59 9c 80 3d 3e 0d 4e 3e
       -0.2666589 -0.2146468 0.06279821 0.20122239

net.0.bias f4 [256]
000000 45 a6 1b be 33 df bb 3c 0a 93 70 3d bc 05 77 3e
       -0.15200146 0.022933578 0.058733977 0.24123281
000010 e7 8e 3f be 3f 08 8e bd 0d 34 f8 bd 41 2c 7c bc
       -0.18706857 -0.069351666 -0.12119303 -0.01539141
000020 7b 6b 6b 3d 3f cc e8 bd 0b 8a 8b be 02 b6 c2 bc
       0.05747555 -0.11367082 -0.27253756 -0.023768429
000030 f0 97 8a bd 13 17 3e 3b 06 75 c3 bd fa b7 9b bd
       -0.06767261 0.0029005453 -0.09543805 -0.0760345
000040 53 c5 3f 3e 80 90 e2 bc d3 4d ba 3d ee 79 52 3e
       0.18727617 -0.027656794 0.09096875 0.20554325
000050 7f 57 cc 3d 02 68 df 3b 79 19 6f 3d b0 46 54 be
       0.09977626 0.0068178186 0.058373902 -0.2073009
000060 da d4 8d be 6c c8 18 be 7e ea 05 3c 0a 5c ad 3d
       -0.27701455 -0.14920205 0.008173583 0.08464821
000070 ec 01 46 3e 39 b1 2c 3e 67 89 0a 3e e8 a0 dd bc
       0.1933667 0.1686448 0.13528977 -0.027054265
000080 ad 85 62 be 56 58 e8 3d 9f 83 59 be 0c 4d a3 3d
       -0.22121306 0.11344974 -0.21241616 0.0797368
000090 4d 0b 67 be 1f 90 c3 3d 2c 6b 68 3c ff 0a 11 3e
       -0.22562905 0.09548973 0.014185708 0.14164351
0000a0 d4 37 f0 bd ab 08 71 bd f0 8c 23 be 06 04 2b be
       -0.11729398 -0.058846157 -0.15971732 -0.16700754
0000b0 27 78 80 3e b0 e6 01 3e cb 04 1c bd 1e 39 92 3d
       0.2509167 0.12685657 -0.03809051 0.071398005
0000c0 7f 3d b6 3d 14 23 4a 3d 0d 69 36 3e ce 06 a7 3e
       0.08898448 0.04934986 0.17813511 0.3262238
0000d0 6b 0e 39 3e 83 45 de 3d 1e 4d b2 bd 32 25 35 3e
       0.18071906 0.10853102 -0.08706115 0.1768997
0000e0 93 16 d9 bc c8 7d 2d 3e 62 57 6a be 7c 1b 3e 3e
       -0.026500022 0.16942513 -0.22884896 0.18565172
0000f0 3c 00 42 3e 79 54 f1 3d 9a 49 08 3d 72 97 6e 3c
       0.18945402 0.1178369 0.033273317 0.014562475
000100 2c 02 80 bd 13 fe f7 bd 65 62 43 be 39 54 f0 bd
       -0.06250414 -0.12109008 -0.19080503 -0.11734814
000110 ea a0 1c be 9b 55 39 bd 25 8a 1d 3c a9 d3 a8 3d
       -0.15295759 -0.045247655 0.009615456 0.08243496
000120 61 08 19 3e 32 71 c2 3d a0 23 97 bd 93 86 9e bd
       0.14944603 0.094942465 -0.07379842 -0.07740512
000130 bc 3c 21 3e bf fd 3a 3e 34 c1 dd bd e0 5e 31 be
       0.15745825 0.18260859 -0.10827866 -0.17321348
000140 39 79 3f be 97 27 f5 3d da 55 1c 3e 2d fc 44 3d
       -0.18698587 0.11970442 0.15267125 0.048092056
000150 a2 04 05 3e 23 7a d4 bd 2c 51 1c 3d a2 94 b3 bd
       0.12990049 -0.10374858 0.03816335 -0.08768584
000160 9c f8 64 bd 88 48 80 3d ca ec ba bb 6e 3d 81 be
       -0.055901155 0.06263834 -0.005704497 -0.2524218
000170 1a 39 6e bd 9f f1 2b 3e b9 c8 74 3e b0 59 e6 3d
       -0.058159925 0.1679139 0.23904695 0.11247575
000180 5c e8 f2 3d 49 7d 46 3e 6a 32 25 be 06 95 d3 3d
       0.11860725 0.1938373 -0.16132513 0.10331158
000190 5a fd d4 3d f6 80 11 3e a6 25 17 3d c2 6b 0e 3e
       0.103998855 0.14209351 0.03690114 0.13908294
0001a0 57 12 92 3d 47 d6 b1 bc 67 c0 26 3a 4a 95 13 be
       0.07132404 -0.02170862 0.00063610676 -0.14412418
0001b0 a7 09 18 bc be 21 a1 bd 47 f9 97 3d ec d9 e2 3d
       -0.009279645 -0.07867764 0.07420593 0.110767215
0001c0 45 97 e2 b8 f1 53 3f be 08 2b de bd d7 6c 00 3e
       -0.00010804696 -0.18684365 -0.10848051 0.12541519
0001d0 0e 87 0f be b7 d4 1a be 69 e1 94 3e e1 b4 22 3e
       -0.14016363 -0.15120207 0.29078224 0.15889312
0001e0 5e d4 31 3e b1 8c 0d be 4c 22 ba bd 61 c3 00 3e
       0.17366168 -0.13823201 -0.09088573 0.12574531
0001f0 3a 11 89 be 23 84 12 be d5 f8 66 3e 72 23 73 be
       -0.26770955 -0.14308219 0.2255586 -0.2374399
000200 a3 91 ea 3d d5 4a 61 be 95 d0 a9 3d 64 94 77 bd
       0.11453559 -0.22001202 0.08291737 -0.06044425
000210 2d 95 1b be 65 35 17 be f1 4b 3f 3e a6 d7 2a 3e
       -0.15193625 -0.14766462 0.18681313 0.16683826
000220 d2 a9 34 bd e0 ed 07 3e d3 70 e5 bd 3b ba 04 be
       -0.044107266 0.13274336 -0.1120316 -0.12961666
000230 51 d9 a2 3e 87 f6 2a be 21 0c 30 be c1 6e 56 be
       0.31806424 -0.16695605 -0.17192127 -0.20940687
000240 34 6a 3c 3e ed d5 6f be 17 1c 41 3e fe 1f 56 3e
       0.18399888 -0.2342145 0.18858372 0.20910642
000250 40 6c c0 bd 70 5c 5c be a3 c8 2c be 2f 9b 2c be
       -0.09395647 -0.21519637 -0.16873412 -0.16856073
000260 43 68 42 3b 99 55 61 3e be 45 88 bc c7 24 00 bd
       0.0029664196 0.22005309 -0.016634818 -0.031285074
000270 2a 4b 0c 3e fb 9a 99 3d e8 59 e8 3d 41 3a d2 bd
       0.13700548 0.07500263 0.11345273 -0.10265017
000280 4e 9a 7e 3e 84 2e 07 be b4 86 d5 bd 42 2d 40 3e
       0.2486355 -0.13201338 -0.10426083 0.18767264
000290 8d c7 d2 bd a3 39 2a bd 82 46 68 be 5e e4 c7 3d
       -0.102919675 -0.041558873 -0.22683147 0.097603545
0002a0 ef 3c 45 be 06 58 a3 be 8a b6 1c be 82 a5 6a 3e
       -0.19261526 -0.31903094 -0.15304008 0.22914699
0002b0 ee 4b 90 3e 7a c7 5b 3e eb 37 e5 bd a0 41 7a be
       0.2818293 0.21462813 -0.11192306 -0.24439096
0002c0 d1 87 56 3e ab 17 87 3d fa 6f b4 3d 2d c1 e5 3a
       0.20950247 0.06596311 0.0881042 0.0017528884
0002d0 69 ba 99 3b 4f 35 31 3e aa e5 2d 3e 94 aa 2e 3c
       0.0046914113 0.17305492 0.16982141 0.010660786
0002e0 ed d3 17 3c d0 57 f6 bd 05 aa 91 3e 6d 48 43 3e
       0.009266836 -0.12028468 0.28450027 0.19070597
0002f0 e4 a4 06 be 68 09 80 3e b1 78 50 3d 26 d6 51 bb
       -0.13148838 0.25007176 0.05089635 -0.0032018512
000300 34 7d 47 3e c4 62 4f 3d 96 51 fd 3c a2 d9 b8 3d
       0.19481355 0.0506313 0.030922692 0.09025885
000310 ab 7e 13 3e fb e5 8d 3e de 72 64 be 6b f4 35 be
       0.14403789 0.27714524 -0.22309443 -0.1776902
000320 d9 69 26 bc 3a 4f 79 be c7 21 02 be c6 3c 88 be
       -0.010157072 -0.24346629 -0.12708198 -0.26608866
000330 f0 f3 2d be 75 e0 09 3e 8f 6e 43 3d d6 1d 77 3e
       -0.16987586 0.1346453 0.04771286 0.24132475
000340 ac d7 31 be ec 23 40 3e e5 4b 3f be 97 68 0d be
       -0.17367429 0.18763703 -0.18681295 -0.13809429
000350 2b a5 7a 3d d0 c9 9d 3e 28 ce c2 3c 25 0d 45 bc
       0.061192673 0.30818033 0.023779944 -0.01202706
000360 f6 0e f3 3d 32 5c 67 3e f8 8a 29 3d 46 9e f0 3d
       0.11868088 0.22593763 0.041392297 0.11748938
000370 80 cc 35 bd 52 b9 86 be 93 f1 0d be 53 93 4b 3e
       -0.04438448 -0.26313263 -0.13861685 0.19880418
000380 d1 9f 30 be 59 ce 71 be 06 b3 cc 3d 90 fd b4 3b
       -0.17248465 -0.23613872 0.099950835 0.005523391
000390 6d 0a 40 be 0e f8 1f 3e 07 73 1d 3e 48 00 5c bc
       -0.18753977 0.15621969 0.1537591 -0.013427801
0003a0 48 db 2d bc a8 c1 06 bd ec 0f 69 3e 65 a6 83 3c
       -0.010611363 -0.03289953 0.2275998 0.016070554
0003b0 7a fe 27 3d e6 3e 0d be 3f 57 9e 3d 17 c5 d6 bd
       0.041014172 -0.13793525 0.077314846 -0.10486811
0003c0 62 20 02 be 14 15 0b 3e e9 21 32 bc d2 7d 99 3e
       -0.12707666 0.1358226 -0.010872343 0.29978806
0003d0 45 90 a5 bd 42 ad 60 be 6f f3 03 3e 50 56 db 3d
       -0.08084158 -0.21941093 0.12885831 0.10709822
0003e0 3a 4e f2 bd f1 1d 30 be ef 46 f8 3d 85 2e 50 3e
       -0.11831327 -0.17198922 0.121229045 0.20330246
0003f0 66 d3 d1 bd 48 c4 0f 3b c1 cb e9 3d db c0 7b bc
       -0.10245399 0.002193706 0.11415816 -0.015365805

net.2.weight f4 [256, 256]
000000 65 e1 94 3c 22 11 26 bd 3d 06 05 3c f2 92 5c bc
       0.018173883 -0.040543683 0.008119163 -0.013462769
000010 1b 29 83 3d b3 cf 5e bd 8d 1f 2f 3d 79 ae 12 be
       0.064043246 -0.054397296 0.0427547 -0.14324369
000020 14 5c 40 3b 9d 8e 9e bb c8 c9 12 bb 70 f5 24 3d
       0.0029351758 -0.004838778 -0.0022398103 0.04027313
000030 1b 09 82 3d 08 3d 3b 3c 97 6d 64 bd 78 fe 4a bd
       0.06349393 0.011428125 -0.055768576 -0.049559087
000040 ad 1c 48 bd 42 33 11 3c af 17 64 bc 7f fb 27 3b
       -0.048855472 0.0088623185 -0.013921662 0.002563208
000050 3d ea c4 bc 16 eb 46 bd fd 4d a1 bd 68 ab b0 3c
       -0.024037475 -0.04856404 -0.07876203 0.021566108
000060 bd 20 d9 bd cd 10 a3 3c 8a de 2c 3d fa 53 cb bd
       -0.106019475 0.019905472 0.042204417 -0.09928127
000070 93 50 44 bd 17 4b c2 bd 4e 8c e1 bb df f3 f7 bc
       -0.047928404 -0.094869785 -0.0068831807 -0.030267654
000080 99 b2 32 bc 33 93 26 bd 52 30 10 bd ee 59 f7 bc
       -0.010906839 -0.040667724 -0.03520233 -0.030194249
000090 a5 47 0c 3c 3c 36 d0 bc c7 83 03 3c e1 f7 89 bc
       0.008562003 -0.025416486 0.008027024 -0.01684183
0000a0 6d b7 06 3d b6 6b 4d bd 41 05 c5 bc 10 87 ba 3c
       0.032889772 -0.05015155 -0.024050357 0.022769481
0000b0 32 91 69 bd ad 36 e0 bb 44 4b 14 3d 93 9c 7a bd
       -0.057023235 -0.0068424554 0.03620459 -0.061184477
0000c0 99 11 5a bc 0b 8b 82 3c 44 c2 44 bc 38 25 31 bd
       -0.01330986 0.015935441 -0.012009207 -0.043248385
0000d0 ca 43 04 3d e7 3f 00 3d b0 95 fe bc 8d 9d 8f bd
       0.03229121 0.031310942 -0.031077236 -0.07012472
0000e0 b9 ea 24 bd f6 78 47 3d 7b be 39 bd e7 5d 38 bc
       -0.04026291 0.04869934 -0.045347672 -0.011252857
0000f0 94 a2 25 bd 6c 61 a3 3c 24 88 66 bd 6f aa db 3c
       -0.04043825 0.019943915 -0.056282178 0.026814668
000100 a5 6d 49 3d 15 1a ef 3b 3d 80 27 3d 6e 6c 2c bd
       0.04917683 0.0072968104 0.040893782 -0.042095594
000110 5b 00 a9 bd 84 91 85 3c ea ab a9 bb 7e fb 84 bd
       -0.08252021 0.016304739 -0.0051779645 -0.06493281
000120 7d e1 07 3d 1d 08 61 3d 6e bf 92 bc 1a cb 95 bd
       0.033174027 0.054939378 -0.017913546 -0.07314129
000130 12 48 c7 bb c0 8d 19 be c7 36 32 3d 9a bd 7a bc
       -0.0060815895 -0.1499548 0.04350927 -0.015303994
000140 fc e6 0e bd 42 f4 aa b7 e0 90 38 bc b5 36 67 bd
       -0.034888253 -2.037932e-05 -0.01126501 -0.056448657
000150 52 64 73 bd 24 d6 7e bd 90 3b 70 3d 22 2f e9 bc
       -0.059421845 -0.06221594 0.058650553 -0.028464857
000160 86 75 22 bd f3 35 74 bd 6a 05 0b 3d 8c 3b 9c bc
       -0.03966286 -0.059621762 0.03394071 -0.019071363
000170 f3 3e 52 bd 58 ef 7d bc d0 5c 8e bd f2 1c c4 bd
       -0.051329564 -0.0154989585 -0.06951296 -0.095758334
000180 45 eb 7c bd e3 1c cb bc 79 ba 97 3d f8 c7 c6 bd
       -0.061747808 -0.024794048 0.07408614 -0.0970611
000190 dc 05 05 bd 0d cf 91 bd de 09 10 bc 47 e4 35 3d
       -0.03247629 -0.0711957 -0.008791415 0.044407155
0001a0 e6 df 8b 3c fb de 7c bc 7d bc 11 3b 01 79 2c 3d
       0.017074537 -0.015434022 0.0022237592 0.042107586
0001b0 a8 45 73 3d d0 fe d8 3c 7e 1b 56 bd 48 c6 a5 3c
       0.0593926 0.026488692 -0.052272312 0.02023615
0001c0 68 be 86 bd 03 8c 90 bc ee 53 54 3d 5f 75 99 3a
       -0.06579286 -0.017644888 0.051837854 0.0011707953
0001d0 ad 65 f0 3b 09 0a c3 3b fb 8c 16 3a 4c f5 6b bd
       0.0073363394 0.005952124 0.00057430536 -0.05760698
0001e0 64 29 46 3d 90 63 72 3c 17 4b 38 3d 88 9a d3 bc
       0.048379317 0.014794245 0.044993486 -0.025830522
0001f0 33 65 48 3d b5 bf ad bc d1 b8 22 bd 18 d5 ac bc
       0.048924636 -0.021209577 -0.039727036 -0.021097705
000200 00 de 0a 3d 2c 27 84 bd 6c bf 52 bd 30 8a 06 bb
       0.033903122 -0.06452784 -0.051452085 -0.0020529144
000210 8f e0 87 3d e1 be 80 bd a3 9a 87 bd 40 91 bf bc
       0.06634628 -0.06286407 -0.066212915 -0.02338469
000220 d8 cb bc bd b1 ca 90 bd a0 bf e4 bc 68 25 a5 bc
       -0.092185676 -0.0706991 -0.027923405 -0.020159438
000230 7d f3 3a 3d 2e c4 00 3c 8c af 71 bd 01 1f e6 3c
       0.045642365 0.007859273 -0.059005305 0.028090956
000240 4f 3f ad bc 9b be 33 3d 78 26 4c bd 5f 66 fb bc
       -0.021148352 0.043882947 -0.049841374 -0.030688463
000250 56 bc 91 bd 95 51 3a 3d 9f 3c 11 3d 43 89 c2 bc
       -0.07116 0.04548796 0.035458203 -0.023747092
000260 73 82 d3 3a dc fa a7 3d a9 a2 81 3d 96 42 9e 3d
       0.0016136899 0.082021445 0.06329853 0.07727544
000270 2f 70 af bb ae ff 92 bc f6 f1 90 bd 17 21 8e bd
       -0.0053539495 -0.017944183 -0.070774004 -0.06939905
000280 ba cb e2 3c cd b0 a0 bd e4 db 48 bd 7a b9 ae 3b
       0.027685035 -0.07846222 -0.04903783 0.005332169
000290 9d 81 95 bd a7 a0 d8 3c b8 08 c8 38 fd 6c e0 3a
       -0.073001124 0.026443793 9.538367e-05 0.0017122325
0002a0 e1 0d 2a bd 42 6d 58 bc 22 79 d8 bb a0 b4 d2 3c
       -0.041517142 -0.013209643 -0.006606237 0.025720894
0002b0 54 4b c4 3c 6e 60 6b bd 91 0d e6 bc 08 f2 15 bd
       0.0239617 -0.05746501 -0.02808264 -0.036607772
0002c0 71 fd dc 3c 0e 25 c4 3b d6 93 6f bd c7 8e 85 bc
       0.026976319 0.0059858626 -0.058490597 -0.016303433
0002d0 d0 c8 26 bc 80 e8 b3 bd 84 2d 9e bc 95 38 47 bd
       -0.010179713 -0.0878458 -0.019308813 -0.048637945
0002e0 a2 69 48 3d d5 58 1d 3d 8c 54 07 3c 69 c3 07 bd
       0.048928864 0.038414795 0.008259904 -0.033145342
0002f0 47 ec 7c bd e7 67 a5 3c 9b 5b 27 bd 3a 60 b4 bd
       -0.06174877 0.020191146 -0.040858846 -0.08807416
000300 09 20 78 bd 90 be 0a 3d 6a 3c 84 3d 23 99 51 bd
       -0.060577426 0.03387314 0.064568356 -0.051171433
000310 33 41 5a bc 46 fd df 3c 31 18 ab bd 48 a6 61 bc
       -0.013321209 0.02734245 -0.083542235 -0.013772555
000320 23 fc 77 bd 35 fd fc ba c6 35 23 3d d0 4a 30 bd
       -0.06054319 -0.0019301536 0.039846204 -0.043040097
000330 52 ad 87 bd dd 0d c8 bd 81 13 01 bd d2 47 bd bd
       -0.06624855 -0.09768269 -0.03151274 -0.09242214
000340 97 b6 be 3a b5 e5 5e bd 9c 57 ac bd 8f 7d bc bd
       0.0014550266 -0.054418284 -0.08415148 -0.09203636
000350 d9 9c 35 bd 4a 4e 46 bc db 97 2f 3d be 49 44 bd
       -0.044339035 -0.0121036265 0.04286943 -0.04792189
000360 0b c9 e3 bb 15 28 e2 bd 86 24 08 3d 84 6f 95 3c
       -0.0069514564 -0.11042801 0.033237956 0.018241651
000370 b5 d3 44 3d c7 e9 cd bd 2a 96 91 3d 1a b6 a7 bd
       0.048053462 -0.10054355 0.0710872 -0.0818903
000380 25 90 2e 39 49 2d fc bc 02 3c 83 bc f1 6a b6 3a
       0.00016647631 -0.030783312 -0.016019825 0.0013917369
000390 36 da b4 bc 9d 23 b8 3c 26 87 b4 bd 69 05 ea bd
       -0.022076707 0.02247792 -0.0881484 -0.11426813
0003a0 28 77 0e 3d 84 74 45 3b ec 07 00 bd 54 54 e3 bc
       0.034781605 0.0030129263 -0.031257555 -0.027750172
0003b0 80 43 84 3b bf 6c 08 3c c6 45 55 3a 33 f0 fb bd
       0.004036367 0.008326708 0.0008135702 -0.12301674
0003c0 e8 12 91 bc 0a 7c 76 3d cd 7a 02 be 56 0d 9e bd
       -0.01770921 0.060176887 -0.12742157 -0.077173874
0003d0 fc 08 dc 37 c6 0c 48 bb 29 be e3 bc d8 0d 37 3b
       2.6230227e-05 -0.0030525192 -0.027800636 0.0027931836
0003e0 09 0d 1e bd a2 58 c3 3c 2e 72 38 3b dc ab f2 bc
       -0.03858665 0.023845974 0.0028144228 -0.029622965
0003f0 90 c2 a7 bc ba ad 07 bc 82 39 82 bd 5c 06 96 3c
       -0.020478517 -0.008281166 -0.06358625 0.01831358

net.2.bias f4 [256]
000000 5e 0f 5f bd f3 61 94 bd 5e bf ca 3c d7 77 63 bd
       -0.054458015 -0.07245245 0.024749454 -0.05553421
000010 bc 79 d9 3c e1 df 28 bd a8 66 9a 3d 48 92 b9 bc
       0.026547305 -0.041229133 0.075391114 -0.02265276
000020 d3 8d 24 bd 9c 7d e6 3c ef 4b 13 3c e9 07 1e bd
       -0.040174317 0.028136067 0.008990272 -0.038581762
000030 32 9b 85 3c 3e 2d 34 bb b0 bd fd bc d9 41 67 bc
       0.016309354 -0.0027492787 -0.03097424 -0.01411482
000040 8a 08 99 bd 0a 34 49 3d ad 9f b6 bc bb b1 7c 3d
       -0.07472332 0.049121894 -0.022292936 0.061692934
000050 60 1f 48 bc 0e 36 5c 3d 47 90 a6 bd c2 a4 28 3d
       -0.012214512 0.053762488 -0.081329875 0.04117275
000060 bd 62 6c bd 92 90 ff bc 4b 5d 65 3c 6c 81 19 3d
       -0.05771135 -0.031196866 0.013999294 0.037476942
000070 d8 a1 89 3d 2b 08 ee bc d3 db 87 bd c1 26 8d 3d
       0.06720322 -0.02905663 -0.06633725 0.06892157
000080 b4 43 8e 3b e6 a0 c9 3c a4 61 37 3d 61 1a a2 3d
       0.004341567 0.024612855 0.04477085 0.079151876
000090 8c f7 28 3d bf 3f 8b 3d 58 7a 60 3d fe d8 8b bd
       0.041251704 0.06799268 0.054804176 -0.06828497
0000a0 b5 88 1e bd 31 36 e1 bc 50 be 12 3c 37 b3 04 3c
       -0.038704593 -0.02749166 0.008956507 0.008099369
0000b0 58 5b 81 bb ca 78 cf bc b8 1f 24 bd 78 93 48 bd
       -0.0039476566 -0.025326151 -0.04006931 -0.048968762
0000c0 dc 10 8c bd bf 50 24 3d 50 0c b0 3b 5b be 15 bd
       -0.06839153 0.040116068 0.0053725615 -0.03655849
0000d0 6b 6e 8b bd bb b1 02 bd 1b 3e 33 bd 0e 5b 3f bd
       -0.0680817 -0.03190778 -0.0437604 -0.046717696
0000e0 59 63 41 3d 60 e4 2f bd 79 3f e5 bc 01 7d 97 ba
       0.047213886 -0.042942405 -0.027984368 -0.001155764
0000f0 1f 56 ab 3c 50 07 48 bd 25 d6 78 bc 4d 99 c5 bb
       0.02091509 -0.0488351 -0.015187775 -0.006030238
000100 88 b7 80 3c 9c 1e 02 bd 53 3c 9f 3c 0a ee 32 3c
       0.015712515 -0.031767473 0.019437945 0.010921011
000110 0b af 15 bd 5f 09 55 3d df 23 a2 3c 34 bf 06 3d
       -0.036543887 0.05201089 0.019792495 0.03289719
000120 8e 56 68 bd 19 15 a1 bd db aa 30 bc 70 32 4f 3d
       -0.05672317 -0.07865352 -0.010782923 0.05058521
000130 55 dc 24 bb f8 1b c6 3c 12 09 56 bc d1 f9 de 3c
       -0.0025155742 0.024183258 -0.013063686 0.027218731
000140 7e 64 ca 3c aa 0d 9d bb 6c 76 a0 3d 96 ca 88 3c
       0.024706122 -0.0047928886 0.07835087 0.016698163
000150 53 b2 cc 3c 30 71 c4 3c 48 7a 44 bd e2 f9 36 3d
       0.024987375 0.023979753 -0.04796818 0.0446719
000160 bd be 40 bd 99 26 ee bc 3c 30 1b 3d f2 cf c6 3d
       -0.047056902 -0.02907114 0.037887797 0.09707631
000170 89 1f 87 3c 11 75 f7 bb 37 10 9f 3d 94 7d 0d bd
       0.01649453 -0.007551797 0.077667646 -0.03454359
000180 f2 79 09 3c 90 bd 94 bd 1c 82 c3 3b 27 ef 47 3c
       0.00839089 -0.07262719 0.005966438 0.012203014
000190 8c 03 1d 3d fa c7 f6 3c af 0f 30 3d 1e db 22 bc
       0.03833346 0.030124653 0.042983707 -0.009939937
0001a0 27 63 01 bd a3 de 4a 3c 09 aa 1d 3d e2 bb 3f 3d
       -0.0315887 0.012382182 0.038492236 0.04681004
0001b0 c2 e4 7a bc 11 ef 44 3d bc b9 24 3d 50 9e 71 bc
       -0.015313329 0.048079554 0.040216193 -0.014747217
0001c0 db 01 64 bd a7 bd 80 3d ae f5 a0 bd d2 28 f2 3c
       -0.055665832 0.06286173 -0.0785936 0.02956048
0001d0 9d 97 86 bc c0 52 09 3c 8e 60 07 bc 66 77 9b 3b
       -0.016429717 0.008381546 -0.0082627665 0.004744458
0001e0 9e 0f 39 bd af b7 21 bd 6c 5c 76 bd 48 bb 9a 3c
       -0.04518091 -0.039481815 -0.060146734 0.01888813
0001f0 d6 fb 9e bc db ee 32 3d 9b 78 0b bd da 65 ae bc
       -0.019407194 0.04368482 -0.034050565 -0.021288801
000200 72 94 02 bd f9 00 56 bd 40 4b 0d bd d5 ef ad bc
       -0.03187985 -0.05224702 -0.034495592 -0.021232525
000210 42 84 37 3d bd f2 3b bd f0 21 f8 3b 1e c2 80 bd
       0.044803865 -0.04588579 0.007572405 -0.06287025
000220 ff ca 71 bd 24 4e 07 3e 73 1d c0 bc 40 97 89 3b
       -0.059031483 0.13213402 -0.023451542 0.0041989386
000230 ce 50 53 bc 04 db 34 3d 32 56 1e bc cb 8d f1 bb
       -0.012897683 0.044154182 -0.009664105 -0.0073716394
000240 4a 73 18 3d 45 cf f5 bb 63 ba 5f bd 10 49 4c bc
       0.037219323 -0.007501515 -0.05462111 -0.012468591
000250 60 52 e2 3b 85 f2 9f 3d ff 27 4b bd 3e 0a 8e bd
       0.0069067925 0.07809929 -0.04959869 -0.06935547
000260 be ee 76 3d 52 83 ce 3c 21 10 b5 3c ce 29 e9 bc
       0.060286276 0.025209103 0.022102417 -0.028462317
000270 5f b5 77 bc e1 02 a6 3d 5b 59 6e bc a3 6a 51 3c
       -0.015118926 0.08106018 -0.014547671 0.012781772
000280 ea 9a cb bc 85 a9 e0 3c 1f 79 9b bb 42 46 36 3d
       -0.024854142 0.027424583 -0.0047446634 0.044500597
000290 7d 2f 11 3d 0d 4d 04 3d 55 1b 3f 3b 4c fb 0d 3d
       0.03544568 0.032300044 0.0029160578 0.034663484
0002a0 90 d7 d2 bd 20 d9 a4 3d 54 b1 e6 bc 56 e0 58 bc
       -0.102950215 0.08049226 -0.028160729 -0.01323708
0002b0 61 40 6d bd e9 e1 9b bd 3f 1b 6f bd 52 6d 38 3c
       -0.057922725 -0.07611448 -0.058375593 0.011256533
0002c0 c8 ad 40 3d b4 78 cb 3a 56 57 14 3d 1c 77 88 3d
       0.04704073 0.0015523643 0.036216103 0.06663343
0002d0 8c 94 3c 3b 3d ae 64 3d b0 cb c3 bc f3 ac e0 bc
       0.0028775064 0.05583023 -0.023900837 -0.027426219
0002e0 4f c1 42 3d 5c e7 bd bd 9e 53 a1 3b ee fb 96 bd
       0.047547635 -0.09272644 0.004923298 -0.073722705
0002f0 ae 6a 51 3c a7 63 05 3d 66 ff 09 bd f7 ec 52 3c
       0.012781782 0.03256574 -0.033690833 0.01287388
000300 6c 19 de bb 72 61 0a bd e7 c4 b7 3c 8b ed 1f bd
       -0.006777933 -0.033784337 0.022432758 -0.039044898
000310 55 34 d7 bc 95 6b 24 bd 14 d7 9d bd 25 0a 63 bb
       -0.026270071 -0.04014166 -0.077070385 -0.0034643498
000320 3d 4c 27 bc 76 31 73 3c 25 5f 3b bd 46 cf 7d bc
       -0.010211048 0.014843335 -0.045745034 -0.015491312
000330 28 f8 6a bd f8 d9 8b bc 2e 4d 28 3c eb 4c 89 bc
       -0.057365566 -0.017071709 0.010272307 -0.01676031
000340 41 1f 9c 3d d6 bf 0d bd 74 8e 87 bd 99 58 94 bd
       0.07623149 -0.034606777 -0.06618968 -0.07243461
000350 57 8c 08 bd 53 6c fe 3b c2 e6 4e bd 49 ca 9d bc
       -0.033336964 0.007764378 -0.050513037 -0.019261496
000360 de 02 7d 3c 8b d2 a2 bd b8 b6 49 3b 29 06 03 bd
       0.015442578 -0.07950314 0.0030779075 -0.031988297
000370 3d 06 8a 3d e6 49 86 bd f4 62 64 bd 73 3b ff bc
       0.06739471 -0.06557064 -0.05575843 -0.031156277
000380 c7 f1 43 3b 02 eb cd ba 50 96 97 bc 34 b7 98 bc
       0.002989875 -0.0015710297 -0.018504292 -0.018642046
000390 6c 78 07 bd ee 20 70 bc 61 c8 17 bd 69 83 2b bd
       -0.033073828 -0.014656289 -0.03705633 -0.04187337
0003a0 9f 3a 0d bd e5 d6 6c 3d 95 0d 18 bd 8c d4 ae 3c
       -0.034479734 0.057822127 -0.037122328 0.021341585
0003b0 f5 3c 4e 3d f8 67 7e bd 91 c9 86 3d ae 13 87 bd
       0.050351102 -0.06211087 0.065814145 -0.065955505
0003c0 36 66 1d bd c4 91 15 bc ff d1 85 3d 1f fd ca bc
       -0.038427554 -0.0091289915 0.06534194 -0.0247789
0003d0 2e 64 27 bd b6 cd a6 3c d5 fc 99 37 30 8f 12 3d
       -0.040867023 0.020361762 1.8356755e-05 0.035781085
0003e0 5e 76 7d 3d 6c da 8e bd 73 b2 4c 3d 94 22 11 bc
       0.061880462 -0.069752544 0.04997487 -0.008858342
0003f0 76 78 f5 3c 94 97 91 bd 23 57 4a bd e5 8d 6a 3c
       0.029964667 -0.07108989 -0.049399506 0.014316057

fc_logits.weight f4 [3, 256]
000000 a7 96 c8 bd 5d ad 9f 3d cf 25 02 3d 14 9b a7 3d
       -0.0979436 0.07796738 0.03177434 0.08183876
000010 f9 26 a7 3d bd 16 e9 bc 71 60 a5 bd 95 26 92 bc
       0.0816173 -0.028453225 -0.08075035 -0.017840663
000020 df ab dd 3d 27 7b f6 3b 9a c3 29 bd 44 41 8d bd
       0.108237974 0.007522005 -0.041446306 -0.06897214
000030 c6 e0 13 be 89 93 8c bc d3 89 35 3d dd d3 52 3d
       -0.14441213 -0.017160194 0.044320893 0.05147158
000040 cd 5f 99 3c 6d 4e 93 bd 1b 74 ae bb 5f 28 01 bb
       0.01872244 -0.07192693 -0.0053238994 -0.00197079
000050 1f 5f d9 bd 7c 46 90 3d 9d 07 53 bd ca 2b 6e 3d
       -0.10613846 0.07044694 -0.051520932 0.05814723
000060 f5 86 66 3c ec d9 96 3d 6b ce b0 3d 55 95 ca 3b
       0.014070262 0.07365784 0.08633121 0.0061823525
000070 9a dc 26 bd d5 39 4d 3d 41 df c5 3d ac a1 b0 3d
       -0.040737726 0.05010398 0.09661723 0.086245865
000080 f9 e7 16 be de 50 f7 3c a7 35 85 3c 10 4d c5 bd
       -0.14736928 0.030189928 0.016260935 -0.09633839
000090 6e 23 87 bd 15 04 c6 bd 5b 6e bb 3c 5d d3 6a bd
       -0.065985546 -0.09668747 0.02287977 -0.057330478
0000a0 68 10 9a bd df b8 ab bd 22 80 4e 3c 23 e8 f1 3c
       -0.075226605 -0.08384871 0.012603791 0.029529637
0000b0 57 25 e1 3d a0 39 5c bd f0 95 07 bc 4f 8d 4f bd
       0.1099345 -0.053765893 -0.008275494 -0.05067187
0000c0 9c af e6 3c 50 bc 3e bd c4 2b 07 bd 53 69 11 be
       0.028159909 -0.046566308 -0.033000723 -0.14200334
0000d0 c8 d4 23 bd bf 40 eb bb 0f cc 03 3d ed 49 43 3d
       -0.039997846 -0.007179349 0.032177027 0.047677923
0000e0 90 5d 1e bd 64 b9 b5 3d 57 a6 29 3d af 4e a7 bb
       -0.038663447 0.08873251 0.0414184 -0.0051058154
0000f0 7f 33 ae 3c b3 21 83 bc 04 c8 25 3d 2b ed 53 3d
       0.02126479 -0.01600728 0.040473953 0.051739853
000100 0a 0d 9b 3d 9b 1c 2a 3e 1b dc 14 bc d2 2b 34 3d
       0.075708464 0.16612475 -0.00908568 0.043987103
000110 56 ef e5 3c a0 f1 60 3d 11 98 ba 3c 79 fa 53 3d
       0.028068226 0.05491793 0.022777589 0.05175254
000120 04 75 a8 3d 2c 01 1d 3e f8 a2 10 3d 02 4d 37 3c
       0.08225444 0.15332478 0.03531167 0.011187794
000130 f5 17 2e 3c 0a be 37 3d c0 68 32 bd b7 c1 aa 3d
       0.010625829 0.04485897 -0.04355693 0.083377294
000140 b3 39 7e bd 27 ee ea 3c b7 54 a0 3d 61 c2 8e bc
       -0.062066745 0.028678013 0.07828658 -0.017426671
000150 82 74 21 3e bb 34 97 bd ee c8 3d 3d d7 9d 25 3e
       0.157671 -0.073831044 0.0463342 0.16173492
000160 57 51 13 3d fe 03 68 bd 39 c7 5b bd 40 39 03 bd
       0.035966244 -0.056644432 -0.05365679 -0.03203702
000170 3e 21 19 3d 3a 0d 8d 3b 72 4f b0 bd f1 43 cb bc
       0.037385218 0.0043045552 -0.08608903 -0.02481267
000180 68 b5 de bc 81 58 ac 3d ef f0 48 bc 86 0e 99 bb
       -0.02718611 0.08415318 -0.012264474 -0.004670921
000190 aa c0 55 3c 44 68 26 3e c2 7f d2 3c c6 04 a6 3d
       0.013046423 0.16250712 0.025695685 0.08106379
0001a0 b2 06 fa 3b 64 c3 2f bd 5d 10 4b bc 9a cb e5 3c
       0.0076301927 -0.04291095 -0.012394038 0.028051186
0001b0 84 92 6a bb 0d 0c ab bd 61 ca 54 3d ea 29 07 3d
       -0.0035792897 -0.08351908 0.051950816 0.032998957
0001c0 17 f1 1b bd 79 11 8b 3d a4 d8 2d 3d 34 75 71 bb
       -0.038071718 0.06790442 0.042442933 -0.003684354
0001d0 5f d5 9f 3d 27 4e 08 bd 15 27 ab bc 5f 0e bb 3d
       0.07804369 -0.033277657 -0.02089266 0.091336004
0001e0 b7 95 b0 ba 3c 0d 18 3d 62 dd 2a be 15 b6 77 3c
       -0.0013472353 0.037121996 -0.16686013 0.015119095
0001f0 19 a7 1b bd 09 3b 99 bd c2 3f 91 bb 69 03 83 3b
       -0.038001154 -0.07481963 -0.0044326494 0.0039982093
000200 8d fa 88 3c 9a 1f 13 bd 78 fd 95 bd 83 c9 67 3d
       0.016721034 -0.03591881 -0.07323736 0.05658866
000210 55 4e 54 3d 67 65 c9 3c 44 91 92 3c e2 e9 28 3d
       0.051832516 0.024584485 0.017891534 0.041238673
000220 74 9f 58 bd 43 a1 49 be ef d0 3b bc b0 55 71 bc
       -0.05288644 -0.19690423 -0.011463388 -0.014729902
000230 7a 97 e0 3d cf 1b d2 3d 3c 96 1c 3d f4 5a b2 3d
       0.10966392 0.1025921 0.038229212 0.08708754
000240 8c a5 a9 bd 0c 1c 7b 3d bd 4d 77 3a 1c 45 56 bd
       -0.08283529 0.061306044 0.0009433886 -0.052312
000250 d9 c9 0a 3d b2 e1 ac bd a2 94 59 3c 75 2c b5 3c
       0.033883903 -0.084414855 0.013280066 0.022115925
000260 75 c5 83 3d 65 0a 5e bd 33 49 c9 3d 3a d3 e1 bb
       0.06434146 -0.05420913 0.09828415 -0.0068916352
000270 2c 10 af bd 6a fa ad bd a5 94 e1 bc c3 6e 85 3b
       -0.085480064 -0.08495028 -0.0275367 0.0040720417
000280 84 9c 13 3d f0 78 e1 bc a0 f2 e6 bb d8 9b fe 3d
       0.036037937 -0.027523488 -0.007047966 0.124320686
000290 b9 33 80 bc f6 8d a9 bd 00 8d 9a 3d 31 60 33 3d
       -0.015649663 -0.0827903 0.07546425 0.043792907
0002a0 84 6c 93 3b 9b be d8 bd 52 cb 26 3d fe 21 b7 3d
       0.00449902 -0.1058323 0.040721245 0.0894203
0002b0 c6 3d 5c bb c7 e9 74 3d 31 aa a2 3d 78 36 1b bd
       -0.0033606156 0.05979326 0.07942618 -0.037893742
0002c0 22 85 25 bd 82 da 15 bd e1 bd 46 3d f7 f6 aa bd
       -0.04041017 -0.03658534 0.048520926 -0.08347886
0002d0 21 52 53 3d e3 46 84 bd 92 b1 36 3b fb f2 e2 3c
       0.051591996 -0.06458833 0.0027876836 0.027703753
0002e0 cf 83 53 3c f8 34 8a bd 04 e6 fa bd 08 c9 fc ba
       0.012909844 -0.06748384 -0.12250903 -0.0019285986
0002f0 76 5a 27 bd 21 1a ba 3c 93 8e 83 3d 06 87 ec 3c
       -0.040857755 0.022717537 0.06423678 0.028872978
000300 6d a2 89 3d 82 05 01 3d 59 21 26 3d 60 b8 b5 bc
       0.067204334 0.031499393 0.040559147 -0.022182643
000310 3b 17 78 3b 52 ee 88 3c 00 51 d7 bd 11 90 11 b9
       0.0037855643 0.016715202 -0.105134964 -0.00013881947
000320 2d 6b 08 bc c3 c7 38 3d 25 5b 76 bd ad a6 46 3d
       -0.008326334 0.045112383 -0.060145516 0.0484988
000330 a8 55 2e 3c d8 0b 1b bd a9 e5 50 3d ea 78 15 bd
       0.010640539 -0.037853092 0.05100027 -0.036492266
000340 5b 69 d6 bc f9 d4 00 bc 7d 70 06 3d f2 1a 48 bd
       -0.026173284 -0.007863277 0.03282212 -0.048853822
000350 50 85 ab 3c 78 2b cd bd 54 d9 21 bd fe 3a c0 3d
       0.020937592 -0.10018057 -0.0395139 0.09386252
000360 69 bb 16 3d 85 aa 70 bb ca 6c 9f bc 73 08 34 3e
       0.036799822 -0.0036722731 -0.019461054 0.17581348
000370 55 e8 e3 bd 13 60 11 bd 2f ce 9a bc 80 bc 8e bc
       -0.11128298 -0.035492014 -0.018897144 -0.017423868
000380 22 1c 30 bd 81 70 e5 ba 79 b2 8e 3a c5 79 57 3d
       -0.04299558 -0.0017504842 0.0010886929 0.052606363
000390 65 0d 64 bd be 47 23 3c e4 e1 bf 3d 90 be 02 3d
       -0.055676837 0.009965835 0.09369257 0.031920016
0003a0 f8 20 35 3d d3 33 63 3d 3e 2b 63 bd bc b1 51 3c
       0.044220895 0.055469345 -0.05546116 0.012798723
0003b0 7b 61 27 3d 91 06 8a bd e7 e7 1d be a0 3f 70 bd
       0.04086445 -0.06739534 -0.15420495 -0.058654428
0003c0 04 f3 44 bc 8c cf 06 bd 87 8a 68 3d b1 cd 0f 3c
       -0.01202083 -0.032912776 0.056772735 0.008777068
0003d0 46 93 bb bd 4c 56 49 3d 1e ea 18 3d 37 15 f0 3d
       -0.091589496 0.049154565 0.037332647 0.117227964
0003e0 a5 99 a2 3c b1 cb fb 3c 2e 7c 2f bc 7e 92 6b bd
       0.019848654 0.030736776 -0.010710759 -0.057512753
0003f0 a2 75 0c be a3 1f ed 3d ce f8 2e 3d 85 37 25 3d
       -0.13716748 0.115783 0.042717747 0.04033615

fc_logits.bias f4 [3]
000000 88 67 7f bd c1 b1 a5 bb b1 cd 1d 3d
       -0.062354594 -0.0050565903 0.03852624
