PPO/trex_ppo_models/actor_ep100.pkl (torch, 284400 bytes, 6 tensors)

net.0.weight f4 [256, 14]
000000 7d cc 7c be fc 92 69 bd 90 95 b9 bd 81 cf 2f 3e
       -0.24687381 -0.05702494 -0.0906173 0.17169
000010 02 dd 49 bd 9c 8e 45 3e b2 7a bb 3d ed 43 14 3d
       -0.049283035 0.19292682 0.09154262 0.03619759
000020 21 c6 6b be 4f 12 86 3e 79 b7 17 bc e1 f6 c9 bc
       -0.23024799 0.26185843 -0.009260052 -0.024653854
000030 d5 87 07 3d 1c 6d ec 3c b1 58 39 b8 cc af a5 bd
       0.033088524 0.028860621 -4.4190037e-05 -0.08090171
000040 73 45 ee bd 31 31 0e 3d 4d cf 5a 3e 85 a4 22 be
       -0.1163434 0.03471488 0.21368141 -0.15883072
000050 40 52 ac 3c 4e e7 dd bc db b6 13 be 6b 06 7b be
       0.021035314 -0.027087834 -0.14425223 -0.24514167
000060 5a 3c e9 3d be 5f d9 3d db a4 11 3e ca 77 85 be
       0.11388464 0.106139645 0.14223044 -0.26067954
000070 fe b5 22 3e ed 8e 81 3e 31 bc 68 be 58 f7 45 3d
       0.15889737 0.25304356 -0.2272804 0.04833159
000080 c2 fe 41 be ce ee de bd 01 e0 3e bd b9 8a 1d bd
       -0.18944839 -0.10885392 -0.046600346 -0.038462374
000090 86 d7 24 3e 8b d7 fe 3d 20 cd 2b 3e 4f 25 71 bc
       0.1609784 0.12443455 0.16777468 -0.014718368
0000a0 62 69 54 3e a9 63 5a 3e 90 da 61 be 32 96 74 3d
       0.20743325 0.2132708 -0.22056031 0.05971355
0000b0 c6 b1 78 be e1 7f 57 3e 7d 3a 84 be 1e f7 54 3e
       -0.24286565 0.21044876 -0.25825873 0.20797393
0000c0 21 54 da 3d be 99 9e 3c 62 cc 42 be e8 ea 5e bd
       0.106605776 0.01936042 -0.19023278 -0.054423243
0000d0 11 08 c5 bc 48 6e 7a be 61 94 93 bc 95 35 bb bd
       -0.024051698 -0.24456131 -0.018015089 -0.09141079
0000e0 0c 7f 40 be 60 a8 77 bb 28 ec 5a be 72 60 9f 3c
       -0.18798465 -0.0037789568 -0.21379149 0.019455168
0000f0 c3 01 79 3e dc 92 f0 3d 03 55 4f 3c 2c 08 5a be
       0.24317078 0.11746761 0.012654546 -0.2129218
000100 9c 6f 1e 3d 28 13 99 3d 87 64 6d 3c 6e 12 77 be
       0.038680658 0.07474357 0.0144893 -0.24128124
000110 dd f7 79 be 68 fe 0b 3e 79 95 f0 3d 2d 3f 83 be
       -0.24410959 0.13671267 0.1174726 -0.25634137
000120 11 b5 2f bd dd fe 38 3d 5b 41 17 3d 63 79 4e be
       -0.042897288 0.04516493 0.036927562 -0.20163493
000130 6c 1c 25 be f7 ed af bd d6 4c 7d 3e ed 5d 9b 3d
       -0.16124123 -0.0859031 0.24736342 0.07586274
000140 73 7a db bd 21 53 5b be 36 2e 49 be 23 7c 83 be
       -0.10716715 -0.2141843 -0.19646534 -0.25680646
000150 97 d3 18 bd 0f 6f 56 3e f5 65 03 be e1 ec 43 3e
       -0.037311163 0.20940803 -0.12831862 0.19133331
000160 7e 5c 61 bd 5b dc 68 bd e6 ca d2 3c 94 ba fd 3d
       -0.055019848 -0.056850772 0.025731515 0.123891026
000170 74 b0 96 3d 01 41 1c 3e c2 bb 2a 3e d2 5d 84 3d
       0.073578745 0.15259172 0.16673186 0.06463207
000180 a3 54 53 3e 0b 2c 58 3e 8b 1b 0d be ab 6d 9d be
       0.20637755 0.21110551 -0.13780038 -0.30747733
000190 29 55 24 bd cc ee a8 bc 69 9d 9f 3d 13 95 bc 3c
       -0.040120278 -0.02062168 0.077936955 0.023020303
0001a0 9a 50 a3 3d d1 64 51 3e 32 07 f7 3d e0 81 19 be
       0.07974358 0.20448615 0.12061919 -0.1499095
0001b0 1b a6 09 be 43 cb 85 3d 7c 2d 29 be 57 3a 50 bd
       -0.1344227 0.0653291 -0.16521257 -0.050836887
0001c0 47 30 92 be ba 45 9d bb 59 9c 5a 3e 89 5d 71 be
       -0.28552458 -0.004799572 0.21348704 -0.23570837
0001d0 35 d9 9c bd 84 2b ae 3d f6 f0 8e 3d 78 dc 6a bc
       -0.076586165 0.08504394 0.069795534 -0.01433479
0001e0 9e dc 7c 3e ba 1d 82 be 26 07 61 3d b2 0b 39 3e
       0.24693534 -0.25413305 0.054938458 0.18070868
0001f0 ef 12 f9 bc ce a8 01 3e 64 ee 1e 3e 88 22 4d 3e
       -0.030404536 0.1266205 0.15520626 0.20032704
000200 ea 00 e6 bd 27 d0 17 be f7 07 06 bc c3 61 1b bc
       -0.11230643 -0.14825498 -0.00818061 -0.009483757
000210 d7 51 48 bc a8 2a 03 be be 45 b8 3d b4 fc 2b 3e
       -0.012226543 -0.12809241 0.08997677 0.16795617
000220 c0 92 28 bd 89 51 75 3e bd d6 d5 3d 14 dc ce 3c
       -0.041155577 0.23956884 0.10441349 0.025251426
000230 ea b9 18 be 1d 3b 18 be 13 35 8c 3d e1 12 6f 3e
       -0.1491467 -0.148663 0.068460606 0.23347045
000240 a7 83 8b 3e b1 cc 16 be f1 ba ef 3d 65 26 1d be
       0.2724888 -0.14726521 0.11705578 -0.15346678
000250 4c 49 be 3d 64 45 5e 3e 5c 0a 57 3e 05 63 4e bd
       0.09291324 0.21706158 0.21000046 -0.0503874
000260 60 fb 88 3e e9 89 1e 3e 8e d5 41 3e fb 9e 9b 3d
       0.26754284 0.15482296 0.18929121 0.075986825
000270 f6 15 59 3e ae f3 45 3e d0 ea 8e 3e a7 69 85 3d
       0.21199784 0.19331238 0.27913523 0.06514292
000280 e8 1c 80 be 62 4b 20 3e 4c e3 73 3e 8b 88 47 be
       -0.25022054 0.15653756 0.23817176 -0.19485681
000290 92 f2 91 bd 26 78 84 be c4 bb 06 3e 09 b8 33 be
       -0.07126345 -0.25872916 0.13157564 -0.17550673
0002a0 0a 2c 9d 3d 69 99 84 3e 49 fb 49 3e 0f d6 2f 3e
       0.076744154 0.25898293 0.19724764 0.171715
0002b0 4e 3f 75 3e 7a bd df 3d 2d 01 64 be 64 56 af bc
       0.2394993 0.10924812 -0.22266074 -0.021403499
0002c0 74 32 22 3e 94 09 97 3d 1f 25 e1 bd 5e 40 8a bb
       0.15839559 0.07374874 -0.109934084 -0.004219099
0002d0 ca 5b 0b 3e a7 2b 02 be 16 06 f9 bd e5 9f 94 3d
       0.13609233 -0.12711965 -0.12159364 0.0725706
0002e0 a2 10 2b be c4 03 9b 3d a0 2a 69 be 99 cc 5e be
       -0.16705564 0.075690776 -0.22770166 -0.21757735
0002f0 fb 4d 5a be 8e 7c 08 3e 54 75 84 be 8e cb 29 3e
       -0.2131881 0.13328764 -0.25870764 0.16581556
000300 59 76 82 be 8a 23 37 be a8 ce 4c be 88 ca 83 be
       -0.25480917 -0.17884651 -0.20000708 -0.25740457
000310 f0 68 60 be 66 db bf bd a7 4b e7 bd f9 39 8e 3e
       -0.2191503 -0.09368019 -0.112937264 0.27778605
000320 f9 fd 86 bd 08 ae 1d be a0 3a 28 3d ae da 65 be
       -0.0659141 -0.15398419 0.041071534 -0.22446701
000330 7f 28 62 3e d7 39 61 3e f8 05 df 3d cb ad 3e be
       0.2208576 0.2199472 0.1088981 -0.18620984
000340 00 ab 93 bd b6 61 61 be 34 21 43 be 11 fe 26 3e
       -0.0721035 -0.2200993 -0.19055635 0.16307856
000350 59 18 88 3e d4 8b 80 3e cf 1d 2c 3e 89 dd 36 bd
       0.26581076 0.2510668 0.16808246 -0.044644866
000360 9c 02 41 be 93 58 f1 3d b6 de ae 3b d7 b0 0c 3e
       -0.18848652 0.11784472 0.005336608 0.13739334
000370 b7 ba 81 3e 1c 16 4c 3e 1c f1 15 3d 13 00 92 be
       0.25337765 0.19930309 0.036606893 -0.28515682
000380 1e b0 83 bd a5 2a 7e be 1e c9 41 bd 57 b7 78 be
       -0.06430076 -0.24820955 -0.04731094 -0.24288689
000390 e3 4e 5e 3e 88 91 e8 bd b8 8d 7d 3e db 9e f0 3d
       0.2170978 -0.11355883 0.24761093 0.11749049
0003a0 10 8e e8 3d d3 34 63 be c9 e0 fa bd 7e db 40 3e
       0.11355221 -0.2218812 -0.122499056 0.1883373
0003b0 15 ce a4 3d a4 35 c2 bd d0 f0 07 bd 36 a4 1c 3e
       0.080471195 -0.094828874 -0.03318864 0.15297017
0003c0 fa 88 04 3b 40 d2 eb 3d 23 18 c5 bd c4 7d db bd
       0.0020223246 0.115147114 -0.09623744 -0.10717347
0003d0 ac 94 93 bd 3b 5d 97 bc 2f e1 be bc 1b d1 2d 3e
       -0.07206091 -0.018477073 -0.023300735 0.16974299
0003e0 a1 01 7e be b8 c9 5d be ee 18 bd 3d f1 57 67 3e
       -0.24805309 -0.21658981 0.092332706 0.2259214
0003f0 9f 0c 8a be 29 d0 73 be b4 89 b2 3d 6c 99 76 3e
       -0.26962754 -0.23809876 0.08717671 0.24081963

net.0.bias f4 [256]
000000 73 e1 19 be 75 ff 11 3d 1e 5a 7c 3d 7a 45 58 3e
       -0.15027408 0.035644013 0.06160938 0.21120253
000010 9c 88 16 be 9a 9e 81 bd b2 4d 03 be e6 dc 18 bd
       -0.1470055 -0.06329079 -0.12822607 -0.03732004
000020 24 73 7b 3d 4b 35 bb bd 10 0c 55 be 6e ae d9 39
       0.061389104 -0.09141024 -0.20805383 0.00041519426
000030 ca 02 4b bd 13 17 3e 3b 8f 10 74 bd b8 f0 89 bd
       -0.049563207 0.0029005453 -0.059586104 -0.067353666
000040 9e db 60 3e 94 aa 73 bc 99 3a 15 3e 99 eb 47 3e
       0.21958777 -0.014872212 0.14573134 0.19523467
000050 12 71 8d 3d 41 e6 55 bd 64 02 60 3d 91 c1 62 be
       0.06906332 -0.05222154 0.05468978 -0.22144152
000060 4f 1a 8f be a1 05 0f be 14 c3 99 3c 1c 38 a9 3d
       -0.2794976 -0.13966991 0.018769778 0.08262655
000070 48 05 76 3e bd 18 11 3e 00 46 2d 3e 0e f9 fa bc
       0.24025452 0.14169593 0.16921234 -0.030636337
000080 10 95 34 be ef 4e eb 3d 9f 83 59 be 68 72 ce 3d
       -0.17634988 0.11489665 -0.21241616 0.10080415
000090 88 89 49 be fe ff c7 3d c2 77 64 3d 59 4b 5f 3e
       -0.1968137 0.097656235 0.055778272 0.21806087
0000a0 28 74 ef bd d9 cb 77 bd 92 9f 1f be 9a 9e de bd
       -0.11692077 -0.06049714 -0.15588215 -0.108700946
0000b0 2a 5f 7b 3e 38 1a 3e 3e 0e 9a 58 bd 9d ae 50 3d
       0.24548021 0.18564689 -0.052881293 0.050947774
0000c0 1a be 4a 3d 12 c4 ee 3c a6 d9 06 3e 78 2a 93 3e
       0.0494977 0.029146228 0.13168964 0.2874334
0000d0 ab 9b 5c 3e d2 1c 1b 3e 79 d2 be bd dd a9 4c 3e
       0.21543758 0.15147713 -0.09317488 0.19986673
0000e0 f9 ed a7 bb ea da 35 3e 96 e1 59 be ff 03 46 3e
       -0.005124804 0.1775929 -0.2127746 0.19337462
0000f0 34 4a 29 3e f9 ae b2 3d 4e 9f 05 3c 0f d8 a4 3d
       0.16532212 0.0872478 0.008155657 0.080490224
000100 2d 11 ad b9 af 1e 97 bd d1 b6 58 be 8f a3 3d be
       -0.00033009928 -0.07378899 -0.21163489 -0.18519424
000110 bd 12 fa bd 92 c0 8b bd b7 7e 94 3c e0 71 c4 3d
       -0.12210605 -0.06823839 0.018126829 0.095920324
000120 05 86 12 3e 84 f7 16 3e 7c e3 7f bd bf dd ed bd
       0.14308937 0.14742857 -0.062472805 -0.1161456
000130 d2 d2 22 3e c3 b0 1b 3e 52 27 d4 bd 2e 5b 31 be
       0.15900734 0.15204148 -0.10359062 -0.17319939
000140 1a f6 3b be 3f f1 51 3e 0a 98 2d 3e d2 23 5c 3b
       -0.18355599 0.20502184 0.1695253 0.0033590687
000150 58 5b dd 3d 54 86 be bd 63 5d bc 3d cd ad d3 bd
       0.10808438 -0.09302965 0.091974996 -0.10335884
000160 84 7f 95 bd fa 9f 29 3d df d0 bf 3c 86 0e 6f be
       -0.07299712 0.04141233 0.023415027 -0.23345384
000170 89 c7 24 bc 57 32 2d 3e a1 30 5a 3e ed 9a bc 3d
       -0.0100573385 0.16913734 0.21307613 0.09209237
000180 f6 ee 11 3e 6d 47 58 3e 82 94 1a be f8 3d ba 3d
       0.14251313 0.21120997 -0.15095714 0.09093851
000190 f6 a8 f9 3d 1e d0 39 3e 3c 5a 27 3e 01 31 dc 3d
       0.1219043 0.18145797 0.16343015 0.10751534
0001a0 16 42 a3 3d 9e cd d0 3c ae 70 33 3d c1 df 90 bd
       0.07971589 0.02548867 0.04380863 -0.07073928
0001b0 75 9c f4 bb 89 0b d5 bd 08 ce 06 3e 62 84 07 3e
       -0.00746494 -0.10402591 0.13164532 0.13234094
0001c0 33 2e 25 3d 4d c3 34 be 08 2b de bd 77 55 87 3d
       0.040327262 -0.17652626 -0.10848051 0.06608098
0001d0 c3 73 30 be d5 31 16 be 52 6b 90 3e 58 7f 15 3e
       -0.1723166 -0.14667447 0.2820688 0.14599359
0001e0 a9 84 28 3e b1 8c 0d be 00 ad e8 bd 6d 96 be 3d
       0.16456856 -0.13823201 -0.11361122 0.09306035
0001f0 be 86 84 be 00 37 e5 bd 6f 3a 86 3e 72 23 73 be
       -0.2588405 -0.11192131 0.26216456 -0.2374399
000200 ac fc fb 3d e1 ce 57 be d1 b6 96 3d 97 2f c9 bd
       0.12304053 -0.21075012 0.07359088 -0.0982353
000210 90 14 32 be 1e c5 77 bd fe 9f 69 3e aa 0e 19 3e
       -0.17390656 -0.06049072 0.22814938 0.14947
000220 f7 bc 84 bd 0b b2 5c 3e 67 a9 8c bd 5d e1 28 be
       -0.06481355 0.21552293 -0.068682484 -0.1649222
000230 7c c8 8e 3e 67 a9 e5 bd 21 0c 30 be fb ed 6d be
       0.27887332 -0.112139516 -0.17192127 -0.23235314
000240 6e f1 1f 3e 1f fb 73 be ec 21 2e 3e d8 22 6a 3e
       0.15619442 -0.23826264 0.17005128 0.22864854
000250 5c 85 09 be 4a 4d 85 be 5a 3a e0 bd e2 ec 1d be
       -0.13429779 -0.2603553 -0.1094863 -0.15422395
000260 aa 77 18 bc af 12 4a 3e bb dc 9c 3c c6 71 16 bd
       -0.009305874 0.1973369 0.019148221 -0.036729597
000270 40 9b bc 3d cf 79 aa 3d 22 83 26 3d 48 7f dd bd
       0.09209299 0.083240144 0.0406524 -0.108152926
000280 fc 8a 77 3e 49 5d 1f be e1 14 04 be c8 41 29 3e
       0.24174112 -0.15562929 -0.1289859 0.16529
000290 99 97 a5 bd 1f ad 29 bb 37 37 82 be 78 c4 87 3d
       -0.080855556 -0.0025890542 -0.2543275 0.0662927
0002a0 3e 84 62 be ef 32 8d be 5b a0 2d be fc 9e 85 3e
       -0.22120759 -0.27577922 -0.16955702 0.26097858
0002b0 cf b4 98 3e 05 f5 59 3e 2f 9f dd bd a0 41 7a be
       0.29825446 0.21284874 -0.108213775 -0.24439096
0002c0 9b 03 3c 3e ee 6b b8 3d 1a 0e 3e 3d 17 b0 d3 bc
       0.1836075 0.09004961 0.046400167 -0.025840802
0002d0 eb 1f 9f 3d 04 55 00 3e 99 42 80 3e d5 29 67 3d
       0.0776976 0.12532431 0.2505081 0.05643638
0002e0 a4 29 1a 3d 8e e5 8d bd d3 7f 80 3e 22 f2 27 3e
       0.037637368 -0.0692855 0.25097522 0.1640096
0002f0 3f 84 d4 bd 2b 83 8d 3e 96 7f 55 3d 3e 48 2b 3d
       -0.103767864 0.27639136 0.05212363 0.041816942
000300 71 db 2e 3e 85 e8 a3 3d d2 84 4a 3d 27 68 fe 3d
       0.17075898 0.08003334 0.049443074 0.12422209
000310 ba 4e 05 3e 8d 85 8d 3e 0a d4 28 be 6b f4 35 be
       0.13018313 0.27640954 -0.16487136 -0.1776902
000320 dc 3f 91 3c 4b 7c 70 be 8a 03 8d bd c6 3c 88 be
       0.017730646 -0.23484914 -0.06885441 -0.26608866
000330 83 32 0e be 84 d6 29 3e 38 66 3b 3d 46 70 6d 3e
       -0.13886456 0.16585737 0.04575178 0.2318736
000340 0f d0 30 be 3f 20 36 3e 5c 85 4f be 81 2d 03 be
       -0.17266868 0.17785738 -0.20265716 -0.12810327
000350 3c 6e bb 3d 98 50 90 3e 97 90 3b 3d 6c aa 85 3c
       0.09151885 0.28186488 0.04579219 0.016316615
000360 f2 7b 2c 3e 24 38 79 3e f8 8a 29 3d 5a 0e a7 3d
       0.16844156 0.24337822 0.041392297 0.08157034
000370 ec b8 05 be 52 f1 62 be 9f 97 17 be 04 3a 3e 3e
       -0.13058823 -0.22162369 -0.14803933 0.18576819
000380 d1 9f 30 be da ae 83 be fa 2f ca 3d bc 8b 40 bb
       -0.17248465 -0.2571934 0.09872432 -0.0029380163
000390 9b 35 47 be 53 ab 27 3e 1e 9d 2c 3e 3a bb 5e 3b
       -0.19454043 0.16373949 0.1685681 0.0033986107
0003a0 00 c4 89 3d 85 3c a0 bc 1b a4 6c 3e d7 5b 64 3c
       0.06726837 -0.019560108 0.23109476 0.013937912
0003b0 ba 19 57 3d a8 7e 21 be 62 37 9c 3d 47 a0 08 be
       0.05251477 -0.15770972 0.07627751 -0.13342391
0003c0 62 20 02 be b8 cb 09 3e 1d cc 5e bc 87 a4 84 3e
       -0.12707666 0.13456619 -0.013598469 0.25906774
0003d0 87 1b 79 bd fc 18 55 be 89 d3 05 3e 25 34 0f 3e
       -0.060817268 -0.20810312 0.13068976 0.13984735
0003e0 ac eb 33 be 9f 77 07 be a6 00 23 3e 80 14 6e 3e
       -0.1757037 -0.13229226 0.15918216 0.23250008
0003f0 8d 6a 02 be 47 e6 c8 bb db 1f ac 3d f1 7b b1 bc
       -0.12735958 -0.006130967 0.084045134 -0.021665545

net.2.weight f4 [256, 256]
000000 f9 1c 83 3c 41 1d 22 3b 31 1c 29 bb db 17 68 bc
       0.016005026 0.0024736675 -0.0025804157 -0.014165844
000010 13 d0 78 3d b3 cf 5e bd b8 eb 06 3d 37 2f 96 bd
       0.06074531 -0.054397296 0.032939643 -0.07333224
000020 0f 8f bb 3c 80 16 b3 bc 7f 9e 0a 3c 2a 49 73 bc
       0.022895364 -0.021861315 0.00846064 -0.014848987
000030 e9 1e 4a 3d 08 3d 3b 3c 87 bd 13 3b 41 97 5d bd
       0.049345884 0.011428125 0.0022543387 -0.054099325
000040 e3 70 fe bc 42 33 11 3c 8a b7 c6 bb 5d ad 94 3c
       -0.031059688 0.0088623185 -0.00606436 0.018149072
000050 80 64 cb bc 60 72 0e 3c 7d b0 8f bd 02 60 d2 3c
       -0.024828196 0.008694261 -0.07016084 0.025680546
000060 d8 de 9a bd 71 bf eb 3c 73 ea 3d 3d b6 30 a9 bd
       -0.07562035 0.02877781 0.046366166 -0.08261244
000070 d6 96 79 3c bf 50 99 bd b9 13 7b 3b e1 c7 83 bc
       0.015233716 -0.07486104 0.0038311316 -0.01608652
000080 a0 05 ec 3c c8 78 1b bd 52 30 10 bd 14 af 7d bb
       0.028811276 -0.037956983 -0.03520233 -0.003870909
000090 06 07 77 bc c5 63 bf bc de 05 26 3a 6c 9c 68 bc
       -0.015077358 -0.023363004 0.0006333272 -0.01419745
0000a0 20 30 0f 3d e0 13 37 bd 3d da 6f bc 07 2b ff 3c
       0.034958005 -0.04469669 -0.014639434 0.031148447
0000b0 be c6 de bc 3f de b6 3b 1e 53 15 3d b4 32 be 3b
       -0.027194377 0.005580693 0.03645622 0.005804384
0000c0 77 ff eb 3b 36 57 03 3d 43 dc 2c 3c 52 c5 61 3c
       0.0072020846 0.032065593 0.010550561 0.013779955
0000d0 d9 48 42 3d 58 c2 19 3d d4 71 6b bc 8b 3d 5d bd
       0.047432754 0.037538856 -0.0143704 -0.05401377
0000e0 b9 ea 24 bd e7 b1 42 3d 5f a9 58 bd 56 02 ae bb
       -0.04026291 0.047532942 -0.0528959 -0.005310337
0000f0 94 a2 25 bd 6c 61 a3 3c 48 f4 79 bd 6f aa db 3c
       -0.04043825 0.019943915 -0.06102398 0.026814668
000100 78 9f 3b 3d 07 0d de 3b e6 47 3c 3d 3b ff 23 bd
       0.045806378 0.0067764553 0.045967005 -0.04003833
000110 59 c0 34 bd aa ca 13 3d 8c 52 95 bc f0 49 91 bd
       -0.04412875 0.036081947 -0.018227838 -0.070941806
000120 77 b1 1e 3d 0e 2a 41 3d ba 4f 73 bc 3b 8a 34 bd
       0.038743462 0.047159247 -0.014850551 -0.04407714
000130 96 f0 4f bc 8a 0d b4 bd a7 e1 58 3d 9a bd 7a bc
       -0.0126916375 -0.08791645 0.052949574 -0.015303994
000140 ef b6 1b bd 28 3c 43 bc 55 15 dd 3c 9a d1 91 bd
       -0.038016256 -0.011916198 0.026987711 -0.071200565
000150 57 7c 6e bd 81 f8 0e bd 67 96 55 3d e3 3a 29 bd
       -0.05822405 -0.03490496 0.052145388 -0.041315924
000160 8e 06 fa bc d3 ca 87 bc 5e cb a7 3c 1b 10 13 bc
       -0.030520704 -0.016576206 0.020482715 -0.008976008
000170 6b e7 6c bd 58 ef 7d bc e7 57 64 bd ae 24 31 bd
       -0.057837885 -0.0154989585 -0.055747893 -0.04324787
000180 cc 64 6a bd bd c2 1a bc 2f 1a 70 3d 19 ed 67 bd
       -0.057225034 -0.009445843 0.05861872 -0.0566226
000190 a1 12 24 bd 5d be 8a bd ec 3f 9b 3c 7f ce 05 3d
       -0.04005683 -0.0677459 0.018951379 0.032667633
0001a0 b3 ed aa bc ca 7a 0b 3c 5d 6d 24 3c 01 79 2c 3d
       -0.020865297 0.008513162 0.01003584 0.042107586
0001b0 a8 45 73 3d a9 ec 29 3d b2 c3 6a bd 19 d4 4c 3d
       0.0593926 0.041485462 -0.057315536 0.05000696
0001c0 ca 24 4c bd 48 9e 17 bd ee 53 54 3d 49 16 88 3c
       -0.049839772 -0.037016183 0.051837854 0.016612189
0001d0 82 b2 e1 bb 3a 69 18 bd 5e 86 88 3c c9 4a 43 bd
       -0.006887735 -0.037209727 0.016665634 -0.047678743
0001e0 64 29 46 3d 90 63 72 3c 32 ad d0 3c 74 f2 ce bc
       0.048379317 0.014794245 0.025473211 -0.025262095
0001f0 d1 7d 42 3d 56 cc 17 bd bc 68 2a bc 18 d5 ac bc
       0.04748327 -0.037060104 -0.010400947 -0.021097705
000200 fb 7c 33 3d 73 2d 17 bd e0 94 3c bb e8 c3 ac bc
       0.043820363 -0.036908578 -0.002877526 -0.02108951
000210 42 81 8b 3d a1 20 21 bd 95 41 83 bd 07 9e 06 bc
       0.06811763 -0.039337758 -0.06408993 -0.008216388
000220 e5 6c 94 bd d9 6b 22 bc b2 e6 10 bd e5 57 16 bc
       -0.072473325 -0.009913408 -0.03537626 -0.009176229
000230 c4 37 d1 3c 99 fc d5 bc 8c af 71 bd 32 3c 23 3d
       0.025539286 -0.026121425 -0.059005305 0.03985233
000240 9e 8f b4 3c 1b f8 d0 3c b2 91 3e bd f7 4e 47 bc
       0.022041138 0.02550893 -0.046525665 -0.012164823
000250 db 09 38 bd 40 b2 d1 3c 07 9e 58 3d d9 a5 70 bc
       -0.044931274 0.025597692 0.05288508 -0.014687979
000260 56 4e 46 3d df 5f 7d 3d d1 72 ed 3c 63 55 51 3d
       0.04841455 0.061859008 0.028985413 0.05110682
000270 4d a7 88 3c 6c b3 35 3b ee 4e 94 bc e9 de 6b bd
       0.016681338 0.0027725352 -0.018104043 -0.05758563
000280 25 3f 00 3d 8c e4 04 bd 98 3b 77 bc e7 b4 45 3c
       0.03131022 -0.03244452 -0.015089892 0.012067056
000290 13 94 6c bd 1d 58 e7 3c 46 3c 9b 3c b7 6d d8 3c
       -0.057758402 0.028240258 0.018949639 0.026419504
0002a0 8e e3 e2 bc cc 72 48 bd 2e d3 06 bd 5b 11 e2 3c
       -0.027696397 -0.048937604 -0.03291624 0.027596166
0002b0 d7 6a 07 3d e4 46 61 bd c8 4d 29 3a 08 f2 15 bd
       0.033060875 -0.054999247 0.00064584287 -0.036607772
0002c0 5b c2 7a 3d d0 38 39 3c f4 74 25 bd 1c 3c f9 3c
       0.061220508 0.011305049 -0.04039474 0.03042417
0002d0 c4 00 89 bb a4 10 86 bd 6f 28 81 bc 27 c4 38 bd
       -0.0041809995 -0.06546143 -0.01576635 -0.04510894
0002e0 a2 15 2c 3d 34 07 91 3c f8 f8 70 3c fe c4 76 bc
       0.04201282 0.01770363 0.014707796 -0.015061615
0002f0 47 ec 7c bd 58 c1 89 bb a7 8e b4 bc ec 3d 8a bc
       -0.06174877 -0.0042039566 -0.022040678 -0.01687523
000300 93 53 d4 bc 82 b3 1e 3d 4d 20 90 3d 80 bb 30 bd
       -0.025918758 0.03874541 0.07037411 -0.043147564
000310 e2 7d 58 bc b1 3f fa 3b 5d 5a 7b bd 48 a6 61 bc
       -0.013213607 0.007636987 -0.061365474 -0.013772555
000320 5f 33 74 bd 56 12 06 bd d1 fa 4b 3d d0 4a 30 bd
       -0.059619304 -0.03273233 0.049799744 -0.043040097
000330 36 73 34 bd 71 e3 99 bd 36 e8 91 bc 0c b2 65 bd
       -0.044055186 -0.07514084 -0.017810922 -0.056078
000340 e6 e0 17 3d bd 69 b5 bb e2 1c 23 bd 09 3b 4a bd
       0.037079714 -0.0055362866 -0.039822467 -0.049372707
000350 f0 10 39 bd b2 ef 80 3c 09 e4 dd 3c 7c 77 1d bd
       -0.04518217 0.015739296 0.027086275 -0.038444027
000360 a0 d8 c7 bc 6f 67 8f bd 86 24 08 3d ce 5e 94 3c
       -0.024395287 -0.0700215 0.033237956 0.018111613
000370 74 15 1e 3d a9 ac 7f bd d2 93 5a 3d 4d c5 3b bd
       0.038594678 -0.06242052 0.05336363 -0.045842458
000380 25 90 2e 39 6d bf f9 bc 3a 64 99 3c 5f 25 2c 3b
       0.00016647631 -0.030486787 0.01872455 0.0026267392
000390 fa fc 34 bc c8 b7 44 3d d6 8b 69 bd e9 ca 92 bd
       -0.011046642 0.04802683 -0.057018124 -0.07167608
0003a0 b0 08 15 3d 98 3b ea 3c d3 9b 0e bd b1 a4 20 bd
       0.03638524 0.02859287 -0.034816574 -0.039219562
0003b0 a8 ff d7 3c 39 fb f5 3b d0 c7 73 3d db 68 11 bd
       0.026367024 0.0075067547 0.059516728 -0.03550039
0003c0 e8 12 91 bc 82 3e 2b 3d 73 90 85 bd 82 ed 14 3c
       -0.01770921 0.04180766 -0.06521692 0.009089829
0003d0 fc 08 dc 37 00 f5 bb 3c 58 15 28 bc 1b d0 cc 3c
       2.6230227e-05 0.022943974 -0.010258995 0.025001576
0003e0 82 b1 02 bd 26 23 ec 3c 03 0a 48 b9 32 47 cf bc
       -0.031907566 0.028825354 -0.00019077216 -0.025302503
0003f0 a0 b1 4b bc da 31 8e bb e0 bc 5e bd fb 33 d3 3c
       -0.012432486 -0.004339439 -0.054379344 0.025781622

net.2.bias f4 [256]
000000 d9 3b 4d bd 14 e3 c9 bc c0 7f a0 3c 67 65 46 bc
       -0.050105903 -0.024644412 0.019592166 -0.012109137
000010 1b 5f bb 3c 08 4a 1e bd a0 87 6e 3d b8 66 1e 3d
       0.022872498 -0.03864482 0.05823481 0.03867218
000020 0c 08 51 3c b5 89 f3 3c a3 57 65 3c e9 07 1e bd
       0.012758266 0.02972875 0.013997945 -0.038581762
000030 e1 f3 83 3b d3 ad d1 3b 71 ae 11 bd 42 62 42 bd
       0.0040268754 0.0063988953 -0.03556675 -0.047456987
000040 e2 ff 3e bd 3e 33 e1 3c ad 9f b6 bc f0 27 6f 3d
       -0.046630748 0.027490254 -0.022292936 0.058387697
000050 d7 56 14 3a 66 1b 7a 3d 1f e0 82 bd fd b4 ac 3c
       0.0005658692 0.061061285 -0.06390404 0.021082396
000060 c6 69 67 bd b6 ae ca 3c f1 e9 1b 3d 6c 81 19 3d
       -0.056497358 0.024741512 0.0380649 0.037476942
000070 81 94 4e 3d 2b 08 ee bc c7 61 18 bd f1 29 8b 3d
       0.050434593 -0.02905663 -0.037202623 0.06795109
000080 cc 97 bd bc 37 16 17 3d a8 9a 43 3d 6c 56 64 3d
       -0.023143671 0.03688642 0.047754914 0.05574648
000090 98 a1 a8 3c b9 c8 63 3d 63 21 3a 3d fe d8 8b bd
       0.020584866 0.055611346 0.045441996 -0.06828497
0000a0 cd 51 e2 bc b2 8b d0 3b c4 ce 44 3c 66 0e bd bb
       -0.027626896 0.006364309 0.012012187 -0.0057695387
0000b0 5c 92 eb 3c 51 5a 95 bc a6 1f 24 bd 7e ba 25 bd
       0.028756313 -0.018231543 -0.040069245 -0.040461056
0000c0 c7 4e 8d bc 4c bb 9b 3d 13 e7 1e bd d4 e6 12 bd
       -0.017249478 0.076040834 -0.03879459 -0.035864666
0000d0 5e a3 3b bd 99 f4 d8 bc 1b 3e 33 bd 0e 5b 3f bd
       -0.045810096 -0.02648382 -0.0437604 -0.046717696
0000e0 35 a7 67 3d 99 19 c2 b9 d6 55 f7 bb f9 b5 f1 3b
       0.056555945 -0.00037021635 -0.0075480742 0.007376429
0000f0 18 22 ba 3c da c7 33 bd 00 0f bf bb a1 77 eb 3c
       0.022721335 -0.043891765 -0.0058306456 0.028743567
000100 5d 45 2b 3d dc 3f 09 bd 53 3c 9f 3c 27 cb ae 3c
       0.041814197 -0.033508167 0.019437945 0.021337105
000110 0b af 15 bd 4f 1a 20 3d a4 f0 41 3d 34 bf 06 3d
       -0.036543887 0.03908759 0.047348633 0.03289719
000120 d3 82 f7 bb 4a ea 03 bd db 7d b3 3c 5f 9d 37 3d
       -0.0075534373 -0.032205857 0.021910599 0.044827815
000130 63 b4 12 3d 46 5b 08 3d c4 fc 13 bd 78 99 37 3d
       0.03581656 0.03329017 -0.036129728 0.044824094
000140 89 47 db 3b 6c 94 73 bc 3d 7d 60 3d c4 a4 28 3c
       0.0066918773 -0.0148669295 0.054806937 0.010293189
000150 14 27 81 bc 7b 18 17 3c 48 7a 44 bd f6 20 51 3d
       -0.015765704 0.009222145 -0.04796818 0.051056825
000160 c2 9e 29 bd 99 26 ee bc 5b 14 92 3d 9a c6 a3 3d
       -0.04141117 -0.02907114 0.07132789 0.079968646
000170 a6 24 49 3d 54 08 af 3c d2 20 58 3d 39 c5 ab bc
       0.049107216 0.021366276 0.052765675 -0.020968067
000180 ba 7f 3d bc 70 88 f4 bc 46 10 51 3d 29 16 d6 3b
       -0.011566097 -0.029850215 0.05104091 0.0065334034
000190 92 52 42 3d f3 fa 8a 3d 44 d4 5f 3d 92 2d 50 bc
       0.047442026 0.06786146 0.05464579 -0.012706177
0001a0 3f ac 93 3c c3 0e e8 bb 39 b1 81 3d e2 bb 3f 3d
       0.01802647 -0.007081838 0.06332631 0.04681004
0001b0 a5 4d e4 bb a5 73 de 3c e2 6e 25 3d 50 9e 71 bc
       -0.0069672638 0.027154753 0.04038895 -0.014747217
0001c0 79 fc 4b bd 2a 36 83 3d 5b ce 20 bd eb 49 fb 3c
       -0.049801324 0.06406815 -0.039259296 0.030674895
0001d0 c6 62 1d bb 13 f6 3d 3c 03 4f ec 3c 6f 01 00 bd
       -0.0024015172 0.011594313 0.02884627 -0.031251367
0001e0 9e 0f 39 bd 47 95 9d bc a1 1c 0d bd 76 fd a7 3c
       -0.04518091 -0.01923622 -0.03445113 0.020506602
0001f0 13 cf 5a bc 4d a2 cd 3c 7f 9f b2 bc 41 22 f2 bc
       -0.013355034 0.025101805 -0.02180457 -0.02955735
000200 30 8f c5 bc 52 28 30 bd 4d 62 2e bd 74 42 a8 bc
       -0.024116129 -0.043007202 -0.042574216 -0.0205395
000210 42 84 37 3d bd f2 3b bd f0 21 f8 3b 1e c2 80 bd
       0.044803865 -0.04588579 0.007572405 -0.06287025
000220 ff ca 71 bd 74 28 66 3d e4 54 ab bc 40 97 89 3b
       -0.059031483 0.056190923 -0.020914502 0.0041989386
000230 b7 8b 30 3b 38 86 29 3d 32 56 1e bc 5b 00 35 bc
       0.0026938745 0.041387767 -0.009664105 -0.011047448
000240 1e 99 92 3c 45 cf f5 bb fd 53 53 bd d4 a8 11 3a
       0.017895278 -0.007501515 -0.05159377 0.00055564684
000250 60 52 e2 3b 8e 31 74 3d 16 a3 14 bd e6 cc 82 bd
       0.0069067925 0.05961757 -0.036288343 -0.063867375
000260 29 8a 09 3d 6f 41 c8 3b 7f e3 38 3d 6f d4 8a 3c
       0.033579025 0.006111316 0.045138832 0.016947
000270 64 b2 30 bd 23 2c 08 3d ee 5b b8 bc 34 6b 22 3d
       -0.043138877 0.033245217 -0.022504773 0.039653018
000280 a9 60 3f bb db 2c 54 3c eb c1 1d 3c 91 5c 0f 3d
       -0.00292019 0.0129501475 0.009628753 0.035000388
000290 be 20 2e 3d 30 a7 57 bc a7 94 87 3c b1 fb 8c 3d
       0.042511694 -0.013162419 0.016550375 0.06883944
0002a0 6e 46 6c bd ce 66 47 3d 54 b1 e6 bc 17 6a 07 bc
       -0.057684354 0.048682027 -0.028160729 -0.00826504
0002b0 f8 60 47 bd f0 b6 35 bd 98 93 1f bc 66 bd 16 3d
       -0.04867646 -0.044363916 -0.009739779 0.03680172
0002c0 99 77 49 3d f4 a9 29 3c 43 e7 9d 3d 4a 28 41 3d
       0.049186323 0.010355461 0.07710125 0.047157563
0002d0 e5 49 73 3c 9f 4e 24 3d 3d 43 88 bc 18 a0 03 ba
       0.014849161 0.04011404 -0.016633624 -0.0005021109
0002e0 4f c1 42 3d 8e 7b 23 bd 2d ac 84 bc 24 df 85 bd
       0.047547635 -0.039912753 -0.016195381 -0.06536701
0002f0 e6 4d 1c 3b a7 63 05 3d 2f e5 4a bd 39 c6 1a 3b
       0.0023850142 0.03256574 -0.049534973 0.0023616685
000300 4e 54 bf bc 72 61 0a bd f3 c2 94 3c 6f 20 1c bd
       -0.02335563 -0.033784337 0.018159365 -0.03811687
000310 d8 7f 95 3c 95 6b 24 bd 2f 0b 75 bd 94 b1 6b 3b
       0.018249437 -0.04014166 -0.05982512 0.0035964
000320 3d 4c 27 bc 32 1b b8 3c 2a bf 2f bd 93 b7 6f bc
       -0.010211048 0.022473905 -0.042906918 -0.01463117
000330 5e f4 67 bd 15 d9 92 bc cb 22 fd 3c eb 4c 89 bc
       -0.05662953 -0.017925778 0.03090038 -0.01676031
000340 a9 3e 6b 3d a5 8e f4 bc 74 8e 87 bd 04 e8 80 bd
       0.057432804 -0.029853174 -0.06618968 -0.062942535
000350 b6 09 12 bd d5 a6 ac bc 47 3b 29 bd f8 52 f4 3c
       -0.035653792 -0.021075645 -0.041316297 0.029824719
000360 6e 02 92 3c 13 5d 71 bd d0 22 94 3b 36 39 38 bd
       0.017823424 -0.058926653 0.0045207515 -0.044976436
000370 26 b4 41 3d c1 0f 7e bd f4 62 64 bd db 67 a9 bc
       0.047290944 -0.062026743 -0.05575843 -0.020679405
000380 73 6f 5f 3d 4c 03 54 3d 12 8d b0 3b 36 94 f0 bc
       0.054549646 0.051760957 0.0053879106 -0.029367547
000390 7c 88 4d bd 15 12 fe 3b 27 66 6d bd 69 83 2b bd
       -0.05017899 0.0077536204 -0.05795875 -0.04187337
0003a0 3d 3b 23 3c ee ab 81 3d 95 0d 18 bd de 13 38 3d
       0.009962854 0.06331621 -0.037122328 0.04494082
0003b0 f2 15 74 3d f0 12 45 bd 6c 52 74 3d a8 ed 81 bd
       0.05959124 -0.048113763 0.059648916 -0.063441575
0003c0 36 66 1d bd c7 7e 6f b9 ed 36 34 3d 1f fd ca bc
       -0.038427554 -0.00022840044 0.043997694 -0.0247789
0003d0 0f 25 fe bc b6 cd a6 3c e2 ce 71 3c aa e7 e7 3c
       -0.03102353 0.020361762 0.014758797 0.028308708
0003e0 27 85 6b 3d a8 bc 60 bd 4d d5 56 3d 56 a3 e9 bc
       0.05750003 -0.054867417 0.052449513 -0.028520267
0003f0 ef 02 ea bb 11 5f e4 bc ba 81 47 bd e5 8d 6a 3c
       -0.007141463 -0.027877362 -0.0487077 0.014316057

fc_logits.weight f4 [3, 256]
000000 d0 da 81 bd a2 91 58 3d 60 30 2d 3d d6 bf e8 3c
       -0.06340563 0.05287326 0.042282462 0.028411787
000010 a2 2d 88 3c 3e 7d 54 bc a1 e2 89 3a 28 00 b2 bc
       0.016623322 -0.012969313 0.0010519811 -0.02172859
000020 fc c4 95 3d 84 18 8e 3c 62 fe 2b bd 44 41 8d bd
       0.073129624 0.017345674 -0.041990645 -0.06897214
000030 6a 99 63 bd cd 62 08 bc 2e 27 63 3d be 99 06 3d
       -0.05556623 -0.008324337 0.055457287 0.032861464
000040 77 f8 ac bc 71 1d ed bc 1b 74 ae bb 08 9a b9 3c
       -0.021114571 -0.028944703 -0.0053238994 0.022656456
000050 74 f8 88 bd 2f cb 69 3d 11 d4 d2 bc da 1d 04 3b
       -0.06688014 0.057078537 -0.025735887 0.0020159394
000060 6a ef 66 3c 61 57 a2 3c d9 f9 cf 3d 55 95 ca 3b
       0.014095167 0.019817056 0.101550765 0.0061823525
000070 ff 6a f8 bc d5 39 4d 3d 58 b4 66 3d 9c dc b2 3d
       -0.030324457 0.05010398 0.056324333 0.08733484
000080 75 d0 a1 bd 60 12 f1 3c 6b f0 80 3c b4 b9 a6 bd
       -0.07901088 0.029427707 0.01573964 -0.08140889
000090 e2 2c 9a bd 68 3c a6 bd fc b4 0e 3d 5d d3 6a bd
       -0.07528092 -0.0811699 0.03484057 -0.057330478
0000a0 b4 b8 9e bd 86 00 8e bd 8c 8e 56 3d a6 3a 4f 3d
       -0.07750073 -0.069336936 0.052382037 0.05059304
0000b0 42 2c 91 3d 15 cf ac bc 7b 95 07 bc 39 30 53 bd
       0.0708852 -0.021094838 -0.008275385 -0.05155966
0000c0 9b 33 84 3c ad 5a 06 bc 17 d4 e3 bc 2c fc 5d bd
       0.016137889 -0.00820033 -0.027811093 -0.054195568
0000d0 07 93 5e bd 61 f8 c3 bc 0f cc 03 3d ed 49 43 3d
       -0.054339435 -0.023922147 0.032177027 0.047677923
0000e0 ef a0 44 bd 78 30 92 3d 41 5c 6e 3c eb 3b 1f 3d
       -0.04800504 0.07138151 0.014548362 0.0388755
0000f0 d2 7f 21 3d 80 00 90 bc be ac 04 3d 23 6c 32 3d
       0.03942854 -0.017578363 0.032391302 0.04356016
000100 f3 01 65 3d b7 db a8 3d 1b dc 14 bc f7 07 78 39
       0.055910062 0.08245032 -0.00908568 0.0002365409
000110 56 ef e5 3c 7b 6d 9a 3d 1e 0c 93 3c 79 fa 53 3d
       0.028068226 0.07540413 0.017950114 0.05175254
000120 81 3d 98 3d a5 e8 e7 3d 4b b6 22 3d 32 e5 21 3d
       0.07433606 0.1132367 0.03972463 0.03952522
000130 bb c5 b8 3c ea 9e 5b 3d 38 9d ab bb ca a5 e6 ba
       0.022555223 0.05361835 -0.005237248 -0.0017597016
000140 b9 22 5d bd 57 2b 4a 3c a7 e2 05 3d 72 25 65 3b
       -0.053988192 0.012339435 0.032686856 0.0034964946
000150 33 e8 97 3d 9a dc 9e bd ee c8 3d 3d d6 ce 7b 3d
       0.07417335 -0.0775692 0.0463342 0.06147655
000160 f8 48 15 3d fe 03 68 bd db fb 3d bd e9 b7 b7 3a
       0.03644654 -0.056644432 -0.046382766 0.0014016601
000170 f4 fd 34 3c 19 8f 08 bd 89 64 b0 bd 08 1f 8f bc
       0.011046875 -0.033339594 -0.086129256 -0.017470852
000180 80 60 c7 bb 75 27 9d 3c c7 bc 73 bc 90 fd ba 3c
       -0.0060845017 0.019183854 -0.014876551 0.022825986
000190 5e 6d a4 3c aa 02 f8 3d 42 36 78 bb 38 09 b8 3d
       0.020071682 0.12109883 -0.0037874137 0.08986133
0001a0 4b a6 d7 3c 42 09 f9 bc 2c fd c3 3c 9a cb e5 3c
       0.026324412 -0.030399922 0.023924433 0.028051186
0001b0 b8 c7 98 bb bd 20 b1 bd 81 de a3 3d ea 29 07 3d
       -0.00466248 -0.086488225 0.080014236 0.032998957
0001c0 db 58 21 bd e6 fa ca 3d 91 e0 48 3d de 40 72 bb
       -0.03939138 0.09911136 0.04904229 -0.0036964933
0001d0 c4 1a 92 3d 47 80 09 bd 29 4b 16 3c fd 5b 80 3d
       0.071340114 -0.0335696 0.009173193 0.06267545
0001e0 b7 95 b0 ba 99 2e e0 3c dc 5d 6f bd 5d bd 15 3d
       -0.0013472353 0.02736597 -0.05843912 0.036557544
0001f0 1e 0d f5 bc 21 5f 66 bd d8 77 1a 3d ce 30 d4 bc
       -0.029913481 -0.056243066 0.03771195 -0.025902178
000200 44 eb 89 3c 80 4f da bc fe 6f 33 bd b6 29 08 3d
       0.016835816 -0.026649237 -0.043807976 0.033242904
000210 55 4e 54 3d 67 65 c9 3c 44 91 92 3c e2 e9 28 3d
       0.051832516 0.024584485 0.017891534 0.041238673
000220 74 9f 58 bd c1 a2 c9 bd ad 22 b6 3c b0 55 71 bc
       -0.05288644 -0.09845496 0.022233332 -0.014729902
000230 0e 4f 25 3d 0f 29 8d 3c 3c 96 1c 3d 0b bd a9 3d
       0.040358596 0.017231492 0.038229212 0.0828801
000240 1b 7b 14 bd 0c 1c 7b 3d 65 c8 ad 39 96 aa a0 bc
       -0.036250215 0.061306044 0.00033146437 -0.019612592
000250 d9 c9 0a 3d a0 2d 64 bd 8e 92 31 bc 86 d6 ab 3c
       0.033883903 -0.055707574 -0.010838164 0.020976316
000260 43 d5 c9 bb 39 7c 0f bd 01 0a 9e 3d 95 45 0c 3d
       -0.006159456 -0.035030577 0.07716752 0.034246046
000270 44 dd 04 bd f1 6a 4a bd 55 5f 89 3c 58 24 24 bd
       -0.032437578 -0.049418394 0.01676909 -0.040073723
000280 c5 12 69 3d f2 7a 91 bc b0 31 2f bc 47 8e c6 3d
       0.056902666 -0.01775882 -0.010692999 0.09695106
000290 e1 cb 24 bc 26 bb 50 bd 22 f4 dd 3c 32 88 28 3a
       -0.010058374 -0.05095973 0.02709395 0.0006428986
0002a0 54 a6 4e 3d 15 55 2e bd 52 cb 26 3d 5d 33 1e 3d
       0.05045159 -0.04256161 0.040721245 0.038623203
0002b0 a0 d8 25 bc 71 85 57 3d 80 6f 13 3d 37 85 95 bc
       -0.010122448 0.052617494 0.035995007 -0.018251998
0002c0 a8 cc 57 3c ae c5 17 bd 73 f8 ff 3c a9 5d 03 bd
       0.013171352 -0.037053756 0.0312464 -0.032071743
0002d0 83 ac 92 3d 85 48 82 bd 1d b0 63 bb 9c 1b fd 3c
       0.0716181 -0.06361488 -0.0034742423 0.030896954
0002e0 cf 83 53 3c ca 83 f5 bc 3a 4c cf bd f6 24 3e bc
       0.012909844 -0.029970068 -0.10121961 -0.011605492
0002f0 b8 a7 ab bb 21 1a ba 3c 75 24 b8 bc 6a b6 ec bc
       -0.0052384995 0.022717537 -0.022478322 -0.028895576
000300 ec fb 25 3d 82 05 01 3d 4a 35 f3 3b 52 c0 b5 bc
       0.040523455 0.031499393 0.007422124 -0.022186432
000310 6f 2b 8f 3c 52 ee 88 3c 1a a8 dd bd 78 6c 0f b9
       0.017476765 0.016715202 -0.108230785 -0.0001367795
000320 2d 6b 08 bc 0c 92 1d 3d a8 5e 79 bd 2f c1 de 3b
       -0.008326334 0.03846936 -0.060881287 0.0067979316
000330 91 4e 2b 3c 1b 5c 5e bd c1 42 6c 3d ea 78 15 bd
       0.010455743 -0.054287057 0.05768085 -0.036492266
000340 55 8b c6 ba ca 3f 66 bc 7d 70 06 3d 02 38 06 bd
       -0.0015147725 -0.014053294 0.03282212 -0.032768257
000350 45 d7 ff 3c ea 68 ba bd 0a 0a fc bc d2 94 34 3d
       0.031230578 -0.09102042 -0.030766506 0.04408724
000360 3d bc 16 3d 04 99 2c bb 45 38 0a bc 42 57 17 3e
       0.03680061 -0.0026336322 -0.008436267 0.1477938
000370 f7 82 bb bd fe 51 07 bd 2f ce 9a bc 55 e5 92 bc
       -0.09155839 -0.03303718 -0.018897144 -0.01793162
000380 fb c0 db bc 36 e3 e3 bc 94 20 cc 3c af 2a ae bb
       -0.026825419 -0.027818304 0.024917878 -0.005315147
000390 7c 7e ff bc 21 5a 91 3c 0c 5b e3 3c 90 be 02 3d
       -0.031188242 0.017743172 0.027753375 0.031920016
0003a0 07 98 0a 3d 63 24 6c 3d 3e 2b 63 bd ca 49 b8 3c
       0.03383639 0.05765189 -0.05546116 0.022496123
0003b0 6f c6 2b 3d 39 2e 18 bd e6 fa 74 bd 19 65 71 bd
       0.041937288 -0.037153456 -0.059809588 -0.058934305
0003c0 04 f3 44 bc dc 3f 0f bd ae 14 87 3d b1 cd 0f 3c
       -0.01202083 -0.03497301 0.06595741 0.008777068
0003d0 fe 4d 8a bd 4c 56 49 3d d5 da 74 3d c1 89 ae 3d
       -0.06753157 0.049154565 0.059779007 0.08522368
0003e0 7b dc ac 3c 3b de be 3c de 1b d7 3c 2c 74 46 bd
       0.021101227 0.023299327 0.026258405 -0.048450634
0003f0 d1 97 a4 bd c4 36 2b 3d f4 de 3f 3d 85 37 25 3d
       -0.08036769 0.041800275 0.046843484 0.04033615

fc_logits.bias f4 [3]
000000 03 d1 34 bd bb 79 91 bc 96 3f c9 3c
       -0.04414464 -0.01775824 0.024566453
