PPO/trex_ppo_models/actor_ep900.pkl (torch, 284400 bytes, 6 tensors)

net.0.weight f4 [256, 14]
000000 88 e2 80 be cd 16 a8 bd 9b 1a f2 bd 01 65 c1 3c
       -0.2517283 -0.08207474 -0.11821481 0.023607733
000010 ca 7d 01 be d2 11 23 3e 2b 61 9f 3d c0 20 67 bd
       -0.12645641 0.15924767 0.07782205 -0.056427717
000020 ba 20 94 be b7 c9 88 3e 11 b0 19 bd 89 ea 82 bd
       -0.28931218 0.26716396 -0.037521426 -0.0639239
000030 20 25 d0 3d 79 04 57 3c 9d b0 44 3d a0 02 2e be
       0.10163331 0.013123625 0.048019994 -0.16993189
000040 59 6f cb bc 12 15 5b bc dc da 45 3e 3c b8 f1 bd
       -0.024833368 -0.013371723 0.1932177 -0.11802718
000050 a8 6d 31 3d 65 b2 2a bd cd b5 12 be bf 60 8e be
       0.043317467 -0.041674037 -0.14327164 -0.27808186
000060 30 e2 06 3e d3 2d fd 3d ed 56 2f 3e 59 0a 7a be
       0.13172221 0.12362256 0.17123003 -0.2441801
000070 e8 43 0d 3e 29 27 97 3e 16 34 0b be ae 3a 0b 3e
       0.13795435 0.29522064 -0.13594088 0.13596603
000080 95 e0 26 be 64 c7 a5 bd e1 e2 0e bc 29 36 c7 bd
       -0.16296609 -0.08094671 -0.008721084 -0.09727127
000090 42 a7 74 3e 14 71 bb 3d 25 59 5d 3e 5f 5d 11 3d
       0.23891929 0.09152427 0.21616037 0.035489436
0000a0 d7 b4 65 3e ad 51 67 3e 1f 64 4e be dd 79 6e 3c
       0.22432266 0.2258975 -0.2015538 0.014555422
0000b0 14 d2 ec be 7a 4f 64 3e 6f af 91 be c5 1f 5e 3e
       -0.46254027 0.22295943 -0.28454158 0.21691807
0000c0 db 3e f6 3d 48 f7 89 bd 16 51 2a be 6b 74 5b bd
       0.120237075 -0.06736618 -0.16632494 -0.05357782
0000d0 6b 0a ea bb 8e b3 6d be 10 93 2c 3d f6 c3 d0 bd
       -0.007142355 -0.23213026 0.042132437 -0.101936266
0000e0 09 f3 18 be 0a 18 56 3d b9 ec 68 be 45 35 b8 bc
       -0.1493646 0.05226902 -0.22746553 -0.022486338
0000f0 c0 18 5c 3e ce d4 59 3d 0a ca 84 bd cc 92 2e be
       0.21493816 0.053181462 -0.064838484 -0.17048186
000100 1d 3e 06 bd d4 a1 96 3c 67 17 6d bd 22 a3 9e be
       -0.03277408 0.018387713 -0.057883646 -0.30983835
000110 69 97 87 be 31 dd 9c 3d 2c 75 b1 3d 04 59 97 be
       -0.26482704 0.076593764 0.08664927 -0.295601
000120 2f 43 30 bd 1e 5b 13 3e fe f9 f2 3d fa 47 23 be
       -0.04303282 0.14390227 0.118640885 -0.15945426
000130 ce 52 0d be f5 11 30 be 39 c0 a3 3e 75 8b 87 3c
       -0.13801119 -0.1719435 0.31982592 0.01654599
000140 31 56 cd bd 97 05 38 be 3a 24 07 be 0f ee 96 be
       -0.10026205 -0.17970882 -0.13197413 -0.294785
000150 3b 73 cb bd ca f6 61 3e 72 eb 84 bd 7f 5f 27 3e
       -0.09934088 0.22066799 -0.0649022 0.16345023
000160 c3 ab b5 bd 6b b2 17 bd fc 1d 24 3d 88 4f 1a 3e
       -0.088706516 -0.037035387 0.040067658 0.15069401
000170 cf ac 92 3d cd 20 ed 3d 80 2b 40 3e 2c 1f a9 3d
       0.07161867 0.11578522 0.18766594 0.08257899
000180 93 0c 70 3e af c5 7e 3e b8 11 43 be 61 e7 8a be
       0.23442297 0.24880098 -0.19049728 -0.27129653
000190 85 28 ef bd 45 01 16 bd f9 97 db 3d db 90 56 3d
       -0.1167765 -0.036622304 0.10722346 0.05238424
0001a0 8b ea b5 3d 54 41 46 3e 14 6c f2 3d 14 f3 e5 bd
       0.08882626 0.19360858 0.118370205 -0.11228004
0001b0 b3 12 0e be d3 53 82 3d fe bd 16 be f3 17 91 bd
       -0.1387432 0.063636445 -0.14720914 -0.07084646
0001c0 58 66 af be 0a db 6e bd 6c 13 58 3e 3b 0c ae be
       -0.3425777 -0.05831436 0.21101159 -0.33993706
0001d0 9e 47 2e be 24 3a a0 3d 29 ba fe 3c ff 27 a4 3d
       -0.17019507 0.078235894 0.031094627 0.08015441
0001e0 f8 c5 2a 3e 84 c8 90 be 93 19 a9 3c 99 dc 15 3e
       0.16677082 -0.2827798 0.020642078 0.14634933
0001f0 4f ca 27 bc cd 41 c7 3d cf fc 80 3e 84 2f 5a 3e
       -0.010241105 0.097293474 0.25192878 0.21307188
000200 09 25 c1 bd 59 4e 18 3d 4a 77 eb 3c ae cc 41 bc
       -0.09430892 0.037184093 0.028743405 -0.011828585
000210 77 f4 3c bc b4 da 89 be 2b d7 3b 3e f5 c0 ec 3d
       -0.011532894 -0.2692467 0.18343799 0.11560241
000220 8b 74 dd bc 01 15 6d 3e 68 77 24 3e 90 79 6c bd
       -0.027033111 0.23152544 0.16061175 -0.05773312
000230 74 2e 51 be 41 72 8a be 50 05 c3 3d a4 7a 9a 3e
       -0.20427877 -0.27040294 0.09522498 0.30171692
000240 1b 1c 5c 3e cb 36 5c be ef da 5f 3d 0e 5a 8e be
       0.21495096 -0.21505277 0.05465215 -0.2780308
000250 20 37 a0 3d bc 1c 57 3e 89 0f 04 3e 96 e1 f5 bd
       0.07823014 0.21007055 0.12896551 -0.12005918
000260 47 2a 28 3e 39 f7 89 bc 1a ab 0a 3e 1c 2c ca 3d
       0.16422378 -0.016841518 0.13541833 0.098716944
000270 d3 8c 8a 3e 46 c8 90 3e 11 12 a6 3e ad 45 a1 3d
       0.27060565 0.28277797 0.3243566 0.07874618
000280 0c d3 67 be 07 37 0c 3e 47 46 9c 3e fc 50 34 be
       -0.22639102 0.13692866 0.30522367 -0.17609018
000290 7e 88 b7 bc 6f cf 53 be 66 f4 2f 3e c3 a0 41 be
       -0.022403952 -0.20684598 0.17183074 -0.18908982
0002a0 50 ef f0 3d 7b a4 8e 3e c6 f7 99 3e cc b2 48 3e
       0.11764395 0.27859864 0.3007185 0.19599456
0002b0 aa 74 6d 3e 12 7e f1 3d 2f ac 5b be cb 8b 45 bc
       0.23189035 0.11791624 -0.21452402 -0.012057255
0002c0 94 3f 2d 3e ed 07 f3 3d c8 a1 a9 bd 0e ed 7b bc
       0.16918784 0.11866746 -0.082828104 -0.015376342
0002d0 72 7d 4b 3e 99 87 06 be 16 06 f9 bd e5 9f 94 3d
       0.19872072 -0.13137664 -0.12159364 0.0725706
0002e0 a2 10 2b be c4 03 9b 3d a0 2a 69 be 99 cc 5e be
       -0.16705564 0.075690776 -0.22770166 -0.21757735
0002f0 fb 4d 5a be 8e 7c 08 3e 54 75 84 be 8e cb 29 3e
       -0.2131881 0.13328764 -0.25870764 0.16581556
000300 59 76 82 be 8a 23 37 be a8 ce 4c be 88 ca 83 be
       -0.25480917 -0.17884651 -0.20000708 -0.25740457
000310 ee 2f 59 be 2c 3b dc bd 12 2c 6d bd 41 0c 9b 3e
       -0.2120969 -0.10753474 -0.057903357 0.30282786
000320 27 1e ba bd 31 7c 1d be ab f2 3c 3d 1c 2a aa be
       -0.09087782 -0.15379407 0.046129864 -0.33235252
000330 3d 31 6e 3e ce 34 8c 3e e2 7d 39 3d 3d c9 58 be
       0.2326097 0.27384037 0.045286067 -0.21170516
000340 18 77 76 bd 12 f1 91 be 62 6c 60 be 8b 66 2a 3e
       -0.06017217 -0.28504235 -0.21916345 0.1664068
000350 ed a2 b6 3e 3b 08 5a 3e 21 96 fd 3d 63 07 22 bd
       0.35671178 0.21292202 0.123821504 -0.039557826
000360 39 bb 4f be 3a db 06 3e 92 db 0b bd ad b7 4c 3d
       -0.20286264 0.13169566 -0.034144945 0.049979854
000370 93 9d 82 3e 1d 1a 37 3e 49 9b ea 3d 5d ff 8b be
       0.25510845 0.17881055 0.114553995 -0.27343264
000380 e8 40 64 bd 16 d9 90 be 2b cb 0a be 08 fa 98 be
       -0.055725962 -0.28290623 -0.13554065 -0.2987826
000390 63 51 48 3e b2 94 04 be b6 c1 64 3e 2c 42 bc 3d
       0.19562297 -0.12947348 0.2233952 0.09192309
0003a0 e0 43 89 3d e1 a8 81 be b7 0a 1d be fa cb 24 3e
       0.06702399 -0.25324157 -0.15336119 0.16093436
0003b0 ce 52 81 3d 61 df 0a be 7c 19 b3 bc df 95 03 3e
       0.06314622 -0.13561775 -0.021862738 0.1285014
0003c0 7f e7 3b bc 68 b8 b8 3d 17 aa b2 bd ff 84 02 be
       -0.011468767 0.09019548 -0.08723848 -0.12746046
0003d0 f3 00 c5 bd 16 c6 1a bd 6b 8d 50 bd 04 c2 12 3e
       -0.09619322 -0.037786566 -0.050916117 0.14331824
0003e0 55 5b 8a be 97 ba 77 be ee 18 bd 3d 6a 87 52 3e
       -0.27022806 -0.24192272 0.092332706 0.20559469
0003f0 61 94 a4 be d1 5c 04 be 18 ea 70 3d 44 f1 5a 3e
       -0.32144454 -0.12926032 0.058817 0.21381098

net.0.bias f4 [256]
000000 b6 fe 39 be 0a ce 49 3d 77 64 d7 3d 6f e7 64 3e
       -0.18163571 0.04926876 0.10517209 0.2235391
000010 e9 48 59 be db 61 0e bd ee 33 e9 bd fa 82 d6 bc
       -0.2121922 -0.03476129 -0.11386858 -0.026185501
000020 85 5a a9 3c 0b a5 c2 bd dc ea 8a be 95 7e 06 3d
       0.020673046 -0.09504136 -0.27132308 0.03283556
000030 bf 7b 2b bd 13 17 3e 3b c9 fb 8b bd fe 87 b1 bd
       -0.04186606 0.0029005453 -0.068351336 -0.086685166
000040 35 5b 47 3e ef 91 26 bd 2f a4 11 3e bf c7 40 3e
       0.19468386 -0.040666517 0.14222787 0.18826197
000050 38 fd f0 3d 71 f3 b2 bc 47 73 fe 3c 34 f9 42 be
       0.11767048 -0.021844598 0.031060828 -0.19040376
000060 83 2a 82 be 5c 54 0a be 5c ef 4f 3c 91 a3 ad 3d
       -0.2542306 -0.13508743 0.012691345 0.084784634
000070 d4 fd 5b 3e 32 cd 27 3e e5 88 0d 3e 34 40 58 bc
       0.21483546 0.1638687 0.13821752 -0.013198901
000080 85 ad 69 be c2 3e ce 3d 9f 83 59 be 5c 26 cb 3d
       -0.22820099 0.10070564 -0.21241616 0.09919426
000090 08 f3 50 be 81 57 6a 3d 45 ff d1 bc 83 04 06 3e
       -0.20405209 0.057212356 -0.025634417 0.13087659
0000a0 a3 df 05 be cb 70 42 bd 26 33 72 be 14 93 35 be
       -0.13073592 -0.04747085 -0.23652324 -0.17731887
0000b0 dc a7 71 3e 60 45 b9 3d 67 35 b6 bd 15 ce 2c 3e
       0.2359919 0.09046435 -0.088969044 0.16875489
0000c0 d7 39 9e 3d 7c 90 ec 3d 4f be 62 3e c6 31 9e 3e
       0.07725876 0.11550996 0.2214291 0.3089735
0000d0 1a ca 03 3e d9 08 9a 3d 18 d5 80 bd be 49 3f 3e
       0.12870064 0.07521219 -0.062906444 0.18680474
0000e0 21 25 11 bd b3 57 20 3e ba 42 49 be ac 97 5f 3e
       -0.0354358 0.15658455 -0.1965436 0.21835202
0000f0 e6 65 3d 3e 98 1f 0b 3e 2a 2a 10 3d 2e a3 63 3d
       0.18495902 0.13586271 0.03519646 0.055575542
000100 5c 30 28 bd c3 c1 b3 bd d8 92 72 be 34 74 d9 bd
       -0.041061744 -0.087771915 -0.23688829 -0.10617867
000110 78 02 f3 bd 85 48 99 bd 3a 6e 23 bd a2 2f fb 3d
       -0.11865705 -0.07484535 -0.039900042 0.122649446
000120 27 a4 0a 3e 94 11 a7 3d 4c 9a e7 bd 68 38 15 be
       0.13539182 0.0815765 -0.11308727 -0.14572299
000130 96 11 39 3e 5d 96 18 3e 2c 19 12 be e0 5e 31 be
       0.18073115 0.14901109 -0.14267415 -0.17321348
000140 38 19 ea bd 60 98 0f 3e 69 60 ab 3d 0e 09 8e 3d
       -0.11430591 0.1402297 0.08367998 0.06935321
000150 c7 5d 06 3e fe 08 d6 bd 5d bb 5d 3d 19 ad 62 bd
       0.1312171 -0.10450934 0.05413376 -0.05534086
000160 4a 1a 8d bd 44 6a c1 3d cc 7e 26 3c dd a2 8b be
       -0.0688978 0.09444097 0.010162067 -0.27272692
000170 f2 3d b1 bd dd 66 62 3e 0d 66 44 3e 5b 8e 1f 3e
       -0.08654393 0.22109552 0.19179554 0.15581648
000180 d3 00 26 3e d3 fc 49 3e 2b c1 3a be ed 72 85 3b
       0.16211252 0.19725351 -0.1823775 0.004072538
000190 53 cf cd 3d aa 3b 85 3d c8 0b c5 3c 92 73 33 3e
       0.100493096 0.06505521 0.02405347 0.17524555
0001a0 d0 a2 a3 3d 25 28 e8 3c 3a a7 96 bc 4a 95 13 be
       0.079900384 0.028339455 -0.018390287 -0.14412418
0001b0 bb 37 69 3d bb 8e 1a be b3 62 92 3d 4e 84 01 3e
       0.056937914 -0.1509351 0.07147732 0.12648126
0001c0 be 58 d0 3c c8 6b 65 be 08 2b de bd d5 ae 1f 3e
       0.02543294 -0.22404397 -0.10848051 0.15594037
0001d0 f8 3b 7e bd 33 49 c8 bd 78 f7 9b 3e 15 10 58 3e
       -0.06206891 -0.09779587 0.3046224 0.21099885
0001e0 9e 1f 35 3e b1 8c 0d be 37 55 bb bd c0 0e bd 3d
       0.17687842 -0.13823201 -0.09147113 0.09231329
0001f0 b8 88 78 be 17 da fd bd 1a e3 4d 3e 72 23 73 be
       -0.24270904 -0.12395113 0.20106164 -0.2374399
000200 55 fc ea 3d 93 36 57 be 15 13 04 3e 5e 23 c5 bd
       0.1147391 -0.21016912 0.12897904 -0.096258864
000210 8f 9b 4b be a3 bc ce bd de 85 39 3e ee e1 0d 3e
       -0.1988356 -0.10094573 0.18117473 0.13855717
000220 2d 8c 81 bd 39 5d 25 3e b9 42 e9 bd 5a c1 62 be
       -0.063255645 0.16148843 -0.113896795 -0.2214407
000230 bd d7 a7 3e 8e e9 42 be 21 0c 30 be 1b 00 49 be
       0.32781783 -0.19034407 -0.17192127 -0.19628946
000240 ba 9d 22 3e 15 b9 63 be c7 59 0d 3e bd a0 5f 3e
       0.1588048 -0.22238572 0.13803779 0.2183866
000250 79 59 e7 bd fa 12 1f be 61 2c 55 be 2a 02 46 be
       -0.112963624 -0.15534583 -0.2081771 -0.19336763
000260 e7 fe b1 bc 88 18 83 3e 22 82 5c 3c e3 35 01 3a
       -0.021727992 0.25604653 0.01345876 0.0004928989
000270 9f b2 e4 3d 45 ee 62 3d 31 02 7d 3d ab fa e0 bd
       0.11166882 0.055403013 0.061769668 -0.10985311
000280 4c e6 5e 3e 88 3f fa bd 22 66 90 bd e3 12 5b 3e
       0.21767539 -0.12219149 -0.0705073 0.21393923
000290 0a 67 e8 bd b4 3f 84 bd 63 0e 8f be 4d 55 2e 3d
       -0.11347778 -0.06457463 -0.27940664 0.042561818
0002a0 61 af f5 bd 06 58 a3 be a3 07 c0 bd 2b 7a 2b 3e
       -0.119963415 -0.31903094 -0.093764566 0.16745822
0002b0 11 90 90 3e 00 21 71 3e 39 36 04 be a0 41 7a be
       0.28234914 0.23547745 -0.1291131 -0.24439096
0002c0 af 92 45 3e 56 77 58 3d 4a b4 86 3d 41 6b d3 3c
       0.19294237 0.052848183 0.06577356 0.025807979
0002d0 77 d4 ee bc f7 2c 38 3e e7 7f 0f 3e 4f ad 3f 3d
       -0.029154046 0.17985903 0.14013635 0.04679614
0002e0 93 d4 a6 3c 6f 70 9c bd 47 e6 92 3e 4d 30 3b 3e
       0.020365035 -0.076386325 0.28691313 0.18280144
0002f0 2f 8f 10 be bc ed 81 3e 0f e7 87 bc f1 fb e3 bc
       -0.1411712 0.2537669 -0.01658967 -0.027830096
000300 62 0f 28 3e cd 47 12 3d 39 91 94 bb e4 16 96 3d
       0.16412118 0.035713006 -0.0045339135 0.07328585
000310 1d e4 16 3e f2 b1 81 3e 26 f6 4f be 6b f4 35 be
       0.14735456 0.25331074 -0.20308742 -0.1776902
000320 34 1c 1c bc 8d f7 6a be 9b d0 bc bd c6 3c 88 be
       -0.0095282085 -0.22945996 -0.09219476 -0.26608866
000330 4b 92 03 be eb 79 2f 3e 2a 23 8c bc c5 99 37 3e
       -0.12848775 0.17136352 -0.017106611 0.17929752
000340 d2 6b 10 be f7 04 38 3e d4 2d 1f be df 59 1c be
       -0.1410363 0.17970644 -0.15544826 -0.15268658
000350 c3 cc 9d 3d ca e4 8f 3e ea ba 9a 3c 77 14 ac bc
       0.07705071 0.2810424 0.018887956 -0.021005852
000360 7f 11 1a 3e 19 bb 41 3e f8 8a 29 3d 25 42 13 3e
       0.15045737 0.18919028 0.041392297 0.14380701
000370 8d 94 3e bd be 0c 93 be 9c 0b 01 be 90 ce 4d 3e
       -0.046528388 -0.2872066 -0.12602085 0.20098329
000380 d1 9f 30 be 55 28 77 be ff 6b b7 3d b5 c7 07 3d
       -0.17248465 -0.24136479 0.089561455 0.03314944
000390 5b 1d 51 be 4d c9 2c 3e c0 9e a0 3d 1c c6 bb bc
       -0.20421354 0.16873665 0.07842779 -0.022921614
0003a0 94 82 75 3d 0e 29 85 bc 88 4f 2a 3e c6 77 7a 3d
       0.059938982 -0.016254928 0.16631901 0.06114938
0003b0 3f 53 ac 3d 23 de 01 be 67 26 54 3d 54 be 10 be
       0.084143154 -0.12682395 0.051794436 -0.14135104
0003c0 62 20 02 be 80 89 0f 3e fa 87 75 bd 7c 7e 9f 3e
       -0.12707666 0.14017296 -0.05994413 0.31151187
0003d0 45 90 a5 bd d8 06 38 be 4e f0 0c 3e 88 18 18 3e
       -0.08084158 -0.1797136 0.13763544 0.14853108
0003e0 cf 8a 55 be b1 08 3b be 48 18 bb 3d ee d4 5f 3e
       -0.20853733 -0.18265034 0.09135491 0.2185857
0003f0 f5 de e5 bd d2 58 56 bc 9d 4a 10 3e 9a 64 a9 3c
       -0.11224166 -0.0130827 0.14090963 0.020677853

net.2.weight f4 [256, 256]
000000 65 e1 94 3c 22 11 26 bd 3d 06 05 3c f2 92 5c bc
       0.018173883 -0.040543683 0.008119163 -0.013462769
000010 1b 29 83 3d b3 cf 5e bd 8d 1f 2f 3d 79 ae 12 be
       0.064043246 -0.054397296 0.0427547 -0.14324369
000020 14 5c 40 3b 9d 8e 9e bb c8 c9 12 bb 70 f5 24 3d
       0.0029351758 -0.004838778 -0.0022398103 0.04027313
000030 1b 09 82 3d 08 3d 3b 3c 97 6d 64 bd 78 fe 4a bd
       0.06349393 0.011428125 -0.055768576 -0.049559087
000040 ad 1c 48 bd 42 33 11 3c af 17 64 bc 7f fb 27 3b
       -0.048855472 0.0088623185 -0.013921662 0.002563208
000050 3d ea c4 bc 16 eb 46 bd fd 4d a1 bd 68 ab b0 3c
       -0.024037475 -0.04856404 -0.07876203 0.021566108
000060 bd 20 d9 bd cd 10 a3 3c 8a de 2c 3d fa 53 cb bd
       -0.106019475 0.019905472 0.042204417 -0.09928127
000070 93 50 44 bd 17 4b c2 bd 4e 8c e1 bb df f3 f7 bc
       -0.047928404 -0.094869785 -0.0068831807 -0.030267654
000080 99 b2 32 bc 33 93 26 bd 52 30 10 bd ee 59 f7 bc
       -0.010906839 -0.040667724 -0.03520233 -0.030194249
000090 a5 47 0c 3c 3c 36 d0 bc c7 83 03 3c e1 f7 89 bc
       0.008562003 -0.025416486 0.008027024 -0.01684183
0000a0 6d b7 06 3d b6 6b 4d bd 41 05 c5 bc 10 87 ba 3c
       0.032889772 -0.05015155 -0.024050357 0.022769481
0000b0 32 91 69 bd ad 36 e0 bb 44 4b 14 3d 93 9c 7a bd
       -0.057023235 -0.0068424554 0.03620459 -0.061184477
0000c0 99 11 5a bc 0b 8b 82 3c 44 c2 44 bc 38 25 31 bd
       -0.01330986 0.015935441 -0.012009207 -0.043248385
0000d0 ca 43 04 3d e7 3f 00 3d b0 95 fe bc 8d 9d 8f bd
       0.03229121 0.031310942 -0.031077236 -0.07012472
0000e0 b9 ea 24 bd f6 78 47 3d 7b be 39 bd e7 5d 38 bc
       -0.04026291 0.04869934 -0.045347672 -0.011252857
0000f0 94 a2 25 bd 6c 61 a3 3c 24 88 66 bd 6f aa db 3c
       -0.04043825 0.019943915 -0.056282178 0.026814668
000100 a5 6d 49 3d 15 1a ef 3b 3d 80 27 3d 6e 6c 2c bd
       0.04917683 0.0072968104 0.040893782 -0.042095594
000110 5b 00 a9 bd 84 91 85 3c ea ab a9 bb 7e fb 84 bd
       -0.08252021 0.016304739 -0.0051779645 -0.06493281
000120 7d e1 07 3d 1d 08 61 3d 6e bf 92 bc 1a cb 95 bd
       0.033174027 0.054939378 -0.017913546 -0.07314129
000130 12 48 c7 bb c0 8d 19 be c7 36 32 3d 9a bd 7a bc
       -0.0060815895 -0.1499548 0.04350927 -0.015303994
000140 fc e6 0e bd 42 f4 aa b7 e0 90 38 bc b5 36 67 bd
       -0.034888253 -2.037932e-05 -0.01126501 -0.056448657
000150 52 64 73 bd 24 d6 7e bd 90 3b 70 3d 22 2f e9 bc
       -0.059421845 -0.06221594 0.058650553 -0.028464857
000160 86 75 22 bd f3 35 74 bd 6a 05 0b 3d 8c 3b 9c bc
       -0.03966286 -0.059621762 0.03394071 -0.019071363
000170 f3 3e 52 bd 58 ef 7d bc d0 5c 8e bd f2 1c c4 bd
       -0.051329564 -0.0154989585 -0.06951296 -0.095758334
000180 45 eb 7c bd e3 1c cb bc 79 ba 97 3d f8 c7 c6 bd
       -0.061747808 -0.024794048 0.07408614 -0.0970611
000190 dc 05 05 bd 0d cf 91 bd de 09 10 bc 47 e4 35 3d
       -0.03247629 -0.0711957 -0.008791415 0.044407155
0001a0 e6 df 8b 3c fb de 7c bc 7d bc 11 3b 01 79 2c 3d
       0.017074537 -0.015434022 0.0022237592 0.042107586
0001b0 a8 45 73 3d d0 fe d8 3c 7e 1b 56 bd 48 c6 a5 3c
       0.0593926 0.026488692 -0.052272312 0.02023615
0001c0 68 be 86 bd 03 8c 90 bc ee 53 54 3d 5f 75 99 3a
       -0.06579286 -0.017644888 0.051837854 0.0011707953
0001d0 ad 65 f0 3b 09 0a c3 3b fb 8c 16 3a 4c f5 6b bd
       0.0073363394 0.005952124 0.00057430536 -0.05760698
0001e0 64 29 46 3d 90 63 72 3c 17 4b 38 3d 88 9a d3 bc
       0.048379317 0.014794245 0.044993486 -0.025830522
0001f0 33 65 48 3d b5 bf ad bc d1 b8 22 bd 18 d5 ac bc
       0.048924636 -0.021209577 -0.039727036 -0.021097705
000200 00 de 0a 3d 2c 27 84 bd 6c bf 52 bd 30 8a 06 bb
       0.033903122 -0.06452784 -0.051452085 -0.0020529144
000210 8f e0 87 3d e1 be 80 bd a3 9a 87 bd 40 91 bf bc
       0.06634628 -0.06286407 -0.066212915 -0.02338469
000220 d8 cb bc bd b1 ca 90 bd a0 bf e4 bc 68 25 a5 bc
       -0.092185676 -0.0706991 -0.027923405 -0.020159438
000230 7d f3 3a 3d 2e c4 00 3c 8c af 71 bd 01 1f e6 3c
       0.045642365 0.007859273 -0.059005305 0.028090956
000240 4f 3f ad bc 9b be 33 3d 78 26 4c bd 5f 66 fb bc
       -0.021148352 0.043882947 -0.049841374 -0.030688463
000250 56 bc 91 bd 95 51 3a 3d 9f 3c 11 3d 43 89 c2 bc
       -0.07116 0.04548796 0.035458203 -0.023747092
000260 73 82 d3 3a dc fa a7 3d a9 a2 81 3d 96 42 9e 3d
       0.0016136899 0.082021445 0.06329853 0.07727544
000270 2f 70 af bb ae ff 92 bc f6 f1 90 bd 17 21 8e bd
       -0.0053539495 -0.017944183 -0.070774004 -0.06939905
000280 ba cb e2 3c cd b0 a0 bd e4 db 48 bd 7a b9 ae 3b
       0.027685035 -0.07846222 -0.04903783 0.005332169
000290 9d 81 95 bd a7 a0 d8 3c b8 08 c8 38 fd 6c e0 3a
       -0.073001124 0.026443793 9.538367e-05 0.0017122325
0002a0 e1 0d 2a bd 42 6d 58 bc 22 79 d8 bb a0 b4 d2 3c
       -0.041517142 -0.013209643 -0.006606237 0.025720894
0002b0 54 4b c4 3c 6e 60 6b bd 91 0d e6 bc 08 f2 15 bd
       0.0239617 -0.05746501 -0.02808264 -0.036607772
0002c0 71 fd dc 3c 0e 25 c4 3b d6 93 6f bd c7 8e 85 bc
       0.026976319 0.0059858626 -0.058490597 -0.016303433
0002d0 d0 c8 26 bc 80 e8 b3 bd 84 2d 9e bc 95 38 47 bd
       -0.010179713 -0.0878458 -0.019308813 -0.048637945
0002e0 a2 69 48 3d d5 58 1d 3d 8c 54 07 3c 69 c3 07 bd
       0.048928864 0.038414795 0.008259904 -0.033145342
0002f0 47 ec 7c bd e7 67 a5 3c 9b 5b 27 bd 3a 60 b4 bd
       -0.06174877 0.020191146 -0.040858846 -0.08807416
000300 09 20 78 bd 90 be 0a 3d 6a 3c 84 3d 23 99 51 bd
       -0.060577426 0.03387314 0.064568356 -0.051171433
000310 33 41 5a bc 46 fd df 3c 31 18 ab bd 48 a6 61 bc
       -0.013321209 0.02734245 -0.083542235 -0.013772555
000320 23 fc 77 bd 35 fd fc ba c6 35 23 3d d0 4a 30 bd
       -0.06054319 -0.0019301536 0.039846204 -0.043040097
000330 52 ad 87 bd dd 0d c8 bd 81 13 01 bd d2 47 bd bd
       -0.06624855 -0.09768269 -0.03151274 -0.09242214
000340 97 b6 be 3a b5 e5 5e bd 9c 57 ac bd 8f 7d bc bd
       0.0014550266 -0.054418284 -0.08415148 -0.09203636
000350 d9 9c 35 bd 4a 4e 46 bc db 97 2f 3d be 49 44 bd
       -0.044339035 -0.0121036265 0.04286943 -0.04792189
000360 0b c9 e3 bb 15 28 e2 bd 86 24 08 3d 84 6f 95 3c
       -0.0069514564 -0.11042801 0.033237956 0.018241651
000370 b5 d3 44 3d c7 e9 cd bd 2a 96 91 3d 1a b6 a7 bd
       0.048053462 -0.10054355 0.0710872 -0.0818903
000380 25 90 2e 39 49 2d fc bc 02 3c 83 bc f1 6a b6 3a
       0.00016647631 -0.030783312 -0.016019825 0.0013917369
000390 36 da b4 bc 9d 23 b8 3c 26 87 b4 bd 69 05 ea bd
       -0.022076707 0.02247792 -0.0881484 -0.11426813
0003a0 28 77 0e 3d 84 74 45 3b ec 07 00 bd 54 54 e3 bc
       0.034781605 0.0030129263 -0.031257555 -0.027750172
0003b0 80 43 84 3b bf 6c 08 3c c6 45 55 3a 33 f0 fb bd
       0.004036367 0.008326708 0.0008135702 -0.12301674
0003c0 e8 12 91 bc 0a 7c 76 3d cd 7a 02 be 56 0d 9e bd
       -0.01770921 0.060176887 -0.12742157 -0.077173874
0003d0 fc 08 dc 37 c6 0c 48 bb 29 be e3 bc d8 0d 37 3b
       2.6230227e-05 -0.0030525192 -0.027800636 0.0027931836
0003e0 09 0d 1e bd a2 58 c3 3c 2e 72 38 3b dc ab f2 bc
       -0.03858665 0.023845974 0.0028144228 -0.029622965
0003f0 90 c2 a7 bc ba ad 07 bc 82 39 82 bd 5c 06 96 3c
       -0.020478517 -0.008281166 -0.06358625 0.01831358

net.2.bias f4 [256]
000000 5e 0f 5f bd b6 d0 a5 bd d8 86 3a bc f1 bc fb bb
       -0.054458015 -0.08096449 -0.011384688 -0.0076824357
000010 24 19 a9 3c 9f cb 83 bd 92 8d b7 3d 2a 6f df bc
       0.02064187 -0.06435322 0.08962549 -0.027274687
000020 cd ff 2b bd 9c 74 f7 3c ef 4b 13 3c 0f f3 39 bd
       -0.041991998 0.03020697 0.008990272 -0.045397814
000030 ab e9 fe 3c 3e 2d 34 bb 38 1d 9e bd c1 00 a2 3b
       0.031117281 -0.0027492787 -0.07720417 0.0049439375
000040 11 38 60 bd 1c ae 80 3d ad 9f b6 bc a0 50 d8 3c
       -0.05474097 0.06283209 -0.022292936 0.026405632
000050 9e ee 5e bd 38 ba 3b 3d d4 3b b8 bd 20 e6 b5 3d
       -0.05442678 0.04583189 -0.08995786 0.088817835
000060 e9 73 83 bd ca 46 f2 bc 9a 67 10 bd 6c 81 19 3d
       -0.064185925 -0.02957477 -0.035255052 0.037476942
000070 70 6a 87 3d 86 47 1a bd 96 4c 14 bd 9a 9b 44 3d
       0.06612098 -0.037665866 -0.03620585 0.047999956
000080 c3 c5 9b bb e6 a0 c9 3c a4 61 37 3d 42 24 26 3d
       -0.0047537996 0.024612855 0.04477085 0.040561922
000090 fa 9f 8b 3b a5 b9 55 3d 78 af 7d 3c fe d8 8b bd
       0.004261014 0.052178998 0.01548373 -0.06828497
0000a0 44 7f ed bc e3 83 e9 bc d0 58 1f bc e5 9d 24 3c
       -0.028991349 -0.028505271 -0.009725764 0.010047411
0000b0 03 2f 8f 3c dc 5c 3c bd b8 1f 24 bd 78 93 48 bd
       0.017478472 -0.045986995 -0.04006931 -0.048968762
0000c0 84 86 99 bd 29 12 95 3d 36 d0 1c 3d d7 97 64 bd
       -0.0749636 0.072788544 0.038284503 -0.05580887
0000d0 b8 81 71 bd 6c ee 92 bc 79 ac 57 bd b1 3e 5c bd
       -0.0589616 -0.017935954 -0.052654717 -0.053770725
0000e0 59 63 41 3d 1c 06 7e bd 1a 68 6e bc 30 63 dc bc
       0.047213886 -0.062017545 -0.014551187 -0.026902765
0000f0 92 32 5a 3d 50 07 48 bd 25 d6 78 bc 60 0f bf bc
       0.053270884 -0.0488351 -0.015187775 -0.023322761
000100 35 14 ea bc 38 65 80 3c dc 47 5b 3d e6 40 5b 3c
       -0.028574089 0.015673265 0.053535327 0.013382172
000110 0b af 15 bd f9 fb 1a 3c 9d 97 03 bd 34 bf 06 3d
       -0.036543887 0.009459489 -0.03212701 0.03289719
000120 8e 56 68 bd dc 88 33 bd 20 bb de ba 58 5d a5 39
       -0.05672317 -0.04383169 -0.0016993023 0.000315408
000130 1c b7 5a bc f8 1b c6 3c 51 f0 95 bd 7b b8 68 3d
       -0.013349321 0.024183258 -0.07321227 0.05681656
000140 5e 6f cc 3c f8 d5 f3 bc df 2d ba 3d f8 4a be ba
       0.024955448 -0.029765114 0.090907805 -0.0014518192
000150 80 b1 e7 3c 6f 86 f2 3b 39 da 68 bd 3e a0 03 3b
       0.02828288 0.0074012796 -0.05684874 0.0020084525
000160 87 1d 64 bd 05 6c 13 bd 30 fb 34 3d d3 75 79 3d
       -0.055692222 -0.035991687 0.044184864 0.06090338
000170 93 a3 60 bc 97 2d 4a bd 03 0a d8 3d 46 ba fb bc
       -0.013710874 -0.049359884 0.105487846 -0.03072847
000180 d0 7e 2e bb 2e eb 13 bd 87 c7 c9 3c 00 f8 82 bc
       -0.002662588 -0.036112957 0.024631275 -0.015987396
000190 8c 03 1d 3d a0 1b a6 3b 44 42 61 3d 46 1b dd bc
       0.03833346 0.005069211 0.054994836 -0.026990544
0001a0 34 e2 2f bc 64 14 66 3b fc 64 2f 3d e2 bb 3f 3d
       -0.010735083 0.0035107369 0.042820916 0.04681004
0001b0 59 f8 d7 bc 7f 47 93 3d 4e 25 c3 3c 71 81 c7 bb
       -0.026363539 0.07191371 0.0238215 -0.0060884287
0001c0 db 01 64 bd bd 4e 6f 3d ae f5 a0 bd d2 28 f2 3c
       -0.055665832 0.0584247 -0.0785936 0.02956048
0001d0 8a 47 5c bd 16 b7 26 3d 13 bb 2f 3d 14 fe 8d 3b
       -0.053779162 0.040701948 0.042903017 0.004333267
0001e0 30 4c 60 bd 23 79 3f bd d8 eb 57 3b 0b 42 d8 ba
       -0.054760158 -0.046746384 0.003294697 -0.0016499175
0001f0 d6 fb 9e bc b6 a9 47 3c 9b 78 0b bd 25 cf 80 bd
       -0.019407194 0.012186458 -0.034050565 -0.0628951
000200 72 94 02 bd f9 00 56 bd 23 51 17 bd e3 bc b4 bd
       -0.03187985 -0.05224702 -0.036942612 -0.0882509
000210 42 84 37 3d bd f2 3b bd 5e 99 98 bb 5d 5d 4d bc
       0.044803865 -0.04588579 -0.0046569547 -0.012534467
000220 ff ca 71 bd 39 06 fe 3d b2 62 80 bd ed 6d 9a bb
       -0.059031483 0.12403531 -0.06268825 -0.004712811
000230 61 d6 64 3c c0 73 09 bc 32 56 1e bc 78 d4 a1 bb
       0.013967128 -0.008389413 -0.009664105 -0.0049386583
000240 ba 72 8a 3c 45 cf f5 bb 63 ba 5f bd 0a 34 0b bd
       0.016900409 -0.007501515 -0.05462111 -0.033985175
000250 a9 b0 3b 3d 62 c5 82 3d 2f 63 73 bd f3 2e a0 bd
       0.045822773 0.06385304 -0.05942076 -0.07821455
000260 8b 37 af 3d 61 fa 14 bb 24 72 22 3d c6 dd 2d bd
       0.08555516 -0.0022732245 0.039659634 -0.042447828
000270 95 b0 95 bc cd 0a e9 3d 47 b7 23 bd 70 f0 4d 3d
       -0.018272677 0.11379013 -0.03996971 0.050278127
000280 63 5c 17 3d bd 74 80 3b fb b5 2f bc 0e 59 fe 3c
       0.03695334 0.0039201663 -0.01072454 0.031048324
000290 7d 2f 11 3d 57 fe b7 3a ea ea ea 3c 1d 69 0d 3d
       0.03544568 0.0014037591 0.028676469 0.034524072
0002a0 75 6f c5 bd b1 e7 fc 3d 54 b1 e6 bc 5e 22 e9 bc
       -0.09640399 0.12348879 -0.028160729 -0.02845877
0002b0 61 40 6d bd 39 28 56 bd 61 34 10 bd b5 0a cd bb
       -0.057922725 -0.052284453 -0.035206202 -0.00625738
0002c0 6f 67 a7 3c b4 78 cb 3a a0 c0 f5 3c f2 97 39 3d
       0.020435063 0.0015523643 0.029999077 0.045310922
0002d0 e5 3b 63 bd 33 74 5a 3d b0 cb c3 bc f3 ac e0 bc
       -0.05547704 0.053333472 -0.023900837 -0.027426219
0002e0 4f c1 42 3d 05 c9 b6 bd 9a fe bd 3c ee fb 96 bd
       0.047547635 -0.0892506 0.023192693 -0.073722705
0002f0 d2 6b f7 3c a3 f2 c2 3c 79 f5 0c 3c 1f ad 21 bd
       0.03020278 0.023797339 0.008603447 -0.03947174
000300 3f 89 12 bb 72 61 0a bd 8a c9 2b bc 8b ed 1f bd
       -0.0022359637 -0.033784337 -0.010485062 -0.039044898
000310 47 03 d2 bc 95 6b 24 bd 2a 13 aa bd 25 0a 63 bb
       -0.025636328 -0.04014166 -0.083044365 -0.0034643498
000320 3d 4c 27 bc 76 31 73 3c 50 66 60 bd 35 e9 e9 bc
       -0.010211048 0.014843335 -0.054785073 -0.028553585
000330 0c 6a 87 bd d7 37 59 bd 9b 1a af bb eb 4c 89 bc
       -0.06612024 -0.05303177 -0.005343748 -0.01676031
000340 e0 4a 39 3d 9c 5f 27 bd 54 e8 99 bd 99 58 94 bd
       0.045237422 -0.040862665 -0.07515016 -0.07243461
000350 7c 98 fd bd 8d 29 9e 3b c2 e6 4e bd 49 ca 9d bc
       -0.123826 0.0048267306 -0.050513037 -0.019261496
000360 de 02 7d 3c 2e 5d d3 bd 6f 44 13 3c e7 f6 e8 bc
       0.015442578 -0.10320507 0.008988484 -0.028438045
000370 42 f2 5e 3d e6 49 86 bd f4 62 64 bd 73 3b ff bc
       0.054430254 -0.06557064 -0.05575843 -0.031156277
000380 fc 65 16 bc 02 eb cd ba 62 9b 75 bc 49 3f 85 3c
       -0.009179588 -0.0015710297 -0.014990659 0.016265528
000390 09 97 9c bc ee 20 70 bc 70 3b c8 bd 69 83 2b bd
       -0.019114988 -0.014656289 -0.09776962 -0.04187337
0003a0 b1 59 1c bd 10 3a c1 3d 95 0d 18 bd 73 49 44 3d
       -0.038171474 0.09434903 -0.037122328 0.04792161
0003b0 f5 3c 4e 3d f8 67 7e bd 51 63 38 3d ae 13 87 bd
       0.050351102 -0.06211087 0.04501659 -0.065955505
0003c0 36 66 1d bd c4 91 15 bc 17 b9 2d 3d 27 fd 09 bd
       -0.038427554 -0.0091289915 0.042412844 -0.03368869
0003d0 64 7a 74 bc b6 cd a6 3c e8 49 7d bd 1e d1 f2 3c
       -0.014921758 0.020361762 -0.06183806 0.02964073
0003e0 95 eb 25 3d 97 0c a8 bd 10 86 0f 3d 50 e5 30 bd
       0.04050787 -0.08205526 0.03503996 -0.04318744
0003f0 f6 2c cd bb 13 23 b8 bd 63 8a 31 bc 47 2b a2 3c
       -0.0062614633 -0.08991065 -0.010836217 0.019796027

fc_logits.weight f4 [3, 256]
000000 a7 96 c8 bd ea 4d 9f 3d 9c f3 a7 3b 1a ba fc 3d
       -0.0979436 0.07778533 0.005125476 0.123401836
000010 6c 96 a6 3d 03 01 e4 bd 0e 88 a2 bd fd bd a9 bc
       0.081341594 -0.111330055 -0.079361066 -0.020720476
000020 a6 a4 c0 3d 88 51 46 3d 9a c3 29 bd e4 92 87 bd
       0.09406404 0.048417598 -0.041446306 -0.06619814
000030 c4 69 57 be 89 93 8c bc 7c 38 51 3d 37 ba d1 3c
       -0.2103644 -0.017160194 0.05107926 0.02560149
000040 a9 91 60 3e 05 c5 9f bd 1b 74 ae bb 31 4f 3b bd
       0.21930565 -0.0780125 -0.0053238994 -0.04572982
000050 8d 47 12 be d3 91 9d 3d b5 8e 2f bd 05 7d 9d 3d
       -0.14285107 0.076938294 -0.042860705 0.07689861
000060 3c fe 7a 3c ea 75 07 3d 74 a5 a3 3d 55 95 ca 3b
       0.015319403 0.033071436 0.07990542 0.0061823525
000070 e5 d4 4d bd 8e 62 97 3d 32 69 07 3e 0b 9d e0 3c
       -0.05025186 0.07391845 0.13223723 0.027418634
000080 c8 68 13 be de 50 f7 3c a7 35 85 3c a8 31 b1 bd
       -0.1439544 0.030189928 0.016260935 -0.08652049
000090 bc 3e 87 bd 50 91 d0 bd 69 5a 9a 3c 5d d3 6a bd
       -0.066037625 -0.10183966 0.018841939 -0.057330478
0000a0 e7 19 4b be 75 bf 22 be f0 b5 e4 ba 78 d4 05 3d
       -0.198341 -0.15893348 -0.0017449241 0.03267333
0000b0 11 30 e3 3d 9d ed d7 bd f0 95 07 bc 4f 8d 4f bd
       0.11093152 -0.10543368 -0.008275494 -0.05067187
0000c0 8c f8 1a 3c 75 0f a6 bd 8f 8e 4b bd 9e cf 7d be
       0.009458672 -0.08108417 -0.0496965 -0.24786231
0000d0 ac 06 27 be e7 d8 d2 3c ef 7c c0 3c 1f a9 25 3d
       -0.16311139 0.025738193 0.023497073 0.04044449
0000e0 90 5d 1e bd e6 c0 b8 3d 57 ac 74 3d 23 91 d7 bb
       -0.038663447 0.090211675 0.05973467 -0.006578581
0000f0 fd 36 0f ba b3 21 83 bc 04 c8 25 3d 15 75 44 3d
       -0.0005463211 -0.01600728 0.040473953 0.04796322
000100 b4 85 d0 3d b4 8b 37 3e de e1 f1 bd 3c 13 b2 3d
       0.10181752 0.17924386 -0.11810659 0.08695075
000110 56 ef e5 3c 35 09 3a 3d 1f 34 46 3d 79 fa 53 3d
       0.028068226 0.045418937 0.04838955 0.05175254
000120 04 75 a8 3d 2d 7f 4b 3e 59 71 3f 3d e1 12 b3 3c
       0.08225444 0.19872732 0.046738956 0.021859588
000130 64 33 29 3c 0a be 37 3d d6 b2 bf bc f1 3d 13 3e
       0.010327194 0.04485897 -0.023400705 0.14379098
000140 df a1 23 bd 37 86 84 3d ca 14 8c 3d b2 fb 85 bc
       -0.039949294 0.06470912 0.06839903 -0.01635537
000150 84 f8 33 3e 51 74 13 be 39 34 5c 3d ff 2b 29 3e
       0.1757527 -0.1439984 0.05376074 0.1652069
000160 c9 98 0c 3d f5 fe 5d bd 1d 90 1e be 15 7a 0a bd
       0.034325395 -0.054198224 -0.15484662 -0.033807833
000170 8a 22 82 3c c3 64 5f 3d 9b 5a d5 bd 79 44 50 3d
       0.01588561 0.054539453 -0.10417672 0.05084655
000180 f4 2f 98 bb 6a 55 42 3e 5c 31 8f 3d bc 75 36 3b
       -0.0046443883 0.18977895 0.069918364 0.0027841171
000190 aa c0 55 3c 5e 6f 8f 3e db b3 e1 3d 70 55 86 3d
       0.013046423 0.28014654 0.11020633 0.06559265
0001a0 f9 94 6e bd 26 91 a8 bd b7 a1 0a be 9a cb e5 3c
       -0.05824754 -0.0823081 -0.13538252 0.028051186
0001b0 6d 00 11 bc 35 ff dc bd 8b 2c 26 3d c5 ea ba 3d
       -0.008850199 -0.107908644 0.040569823 0.0912681
0001c0 17 f1 1b bd 79 da 9b 3d a4 d8 2d 3d 34 75 71 bb
       -0.038071718 0.0761003 0.042442933 -0.003684354
0001d0 fa 8c 39 3e d5 f9 cb bd db fb 95 bd ae 27 cd 3d
       0.18120185 -0.09959761 -0.07323428 0.10017334
0001e0 82 4e b4 3b f2 98 1c 3d 91 1a 64 be fd 63 5d bc
       0.005502523 0.038231798 -0.2227576 -0.013512609
0001f0 19 a7 1b bd bd 5a ba bd c2 3f 91 bb d0 36 80 bd
       -0.038001154 -0.09099338 -0.0044326494 -0.06260455
000200 8d fa 88 3c 9a 1f 13 bd 3e 58 fc bc a1 8b a6 3d
       0.016721034 -0.03591881 -0.030803796 0.08132101
000210 55 4e 54 3d 67 65 c9 3c a6 64 35 3c 45 9d a7 3d
       0.051832516 0.024584485 0.01107136 0.08184294
000220 74 9f 58 bd 33 14 48 be 91 f6 36 bd 77 dc be bc
       -0.05288644 -0.19538955 -0.044668738 -0.023298485
000230 04 2f 9d 3e 20 49 c1 3d 3c 96 1c 3d 0b 05 ca 3d
       0.30699933 0.094377756 0.038229212 0.09864243
000240 ce b7 a7 bd 0c 1c 7b 3d bd 4d 77 3a ad 81 c1 bd
       -0.08189355 0.061306044 0.0009433886 -0.09448562
000250 d6 c3 d9 bc 6b 0b 1d be 3b 32 44 3d d9 30 b5 3c
       -0.02658264 -0.15336387 0.047899466 0.022118019
000260 a6 5d d9 3d 9a 66 12 bd 34 4a 50 3e fa 1f 7e b9
       0.10613565 -0.03574238 0.20340806 -0.0002423524
000270 33 ab e8 bd 52 da e7 bd 75 80 a6 bd f5 d0 19 3e
       -0.11360779 -0.11320938 -0.0812997 0.15021117
000280 31 60 53 bd f9 8e 85 bd 0d 89 ec 39 46 40 10 3e
       -0.051605407 -0.065214105 0.00045115539 0.14087018
000290 b9 33 80 bc 92 6d ab bc 95 f2 fb 3d e8 58 33 3d
       -0.015649663 -0.02092627 0.12302128 0.04378596
0002a0 20 61 ad 3d 39 c1 d1 bd 52 cb 26 3d 83 be 90 3d
       0.08465791 -0.102419324 0.040721245 0.07067587
0002b0 c6 3d 5c bb e7 20 61 3e 6f af 28 3e 6f c5 d0 bd
       -0.0033606156 0.21985207 0.16473173 -0.101939075
0002c0 02 1b aa bd 82 da 15 bd ab 8c 53 bd 30 44 ac bd
       -0.083059326 -0.03658534 -0.051647823 -0.08411443
0002d0 58 c5 3e 3d 4f cc 75 bd 92 b1 36 3b fb f2 e2 3c
       0.04657492 -0.060009297 0.0027876836 0.027703753
0002e0 cf 83 53 3c 6e 3d 1a be 6a d7 da bd 08 c9 fc ba
       0.012909844 -0.15062496 -0.10685618 -0.0019285986
0002f0 38 36 fb bd 97 6d 65 3c 9c 80 cb 3d 46 87 e5 3c
       -0.12266201 0.014003179 0.0993664 0.028018605
000300 9c e8 b1 3d 82 05 01 3d d8 0b 24 3c 60 b8 b5 bc
       0.08686945 0.031499393 0.010012589 -0.022182643
000310 02 69 16 bd 52 ee 88 3c fc ac a2 bd 11 90 11 b9
       -0.036721237 0.016715202 -0.079431504 -0.00013881947
000320 2d 6b 08 bc c3 c7 38 3d 82 fc 51 bd 96 b0 1c 3d
       -0.008326334 0.045112383 -0.0512662 0.038254343
000330 7e fc f5 3a b9 92 a2 bb 74 dd 35 3d ea 78 15 bd
       0.0018767265 -0.0049613384 0.044400647 -0.036492266
000340 ab df 2b ba 51 13 f3 3c ec 58 c3 3c f2 1a 48 bd
       -0.00065564614 0.029672297 0.023846112 -0.048853822
000350 72 a1 61 bc e5 c1 ef bd 54 d9 21 bd fe 3a c0 3d
       -0.013771402 -0.11706904 -0.0395139 0.09386252
000360 69 bb 16 3d 79 0c 35 3d 75 27 cf 3d 7c b3 19 3e
       0.036799822 0.044201348 0.10114948 0.15009874
000370 e9 84 e5 bd 13 60 11 bd 2f ce 9a bc 80 bc 8e bc
       -0.11206991 -0.035492014 -0.018897144 -0.017423868
000380 4f 18 4d bd 81 70 e5 ba 7a 7e 96 bd fd 29 d8 3c
       -0.05007201 -0.0017504842 -0.07348342 0.02638721
000390 99 4a 00 be be 47 23 3c 51 ec 19 3e 90 be 02 3d
       -0.12528457 0.009965835 0.15031554 0.031920016
0003a0 4c c4 ed 3c e2 d8 8b 3d 3e 2b 63 bd 1c 6a 85 bd
       0.029024266 0.068284765 -0.05546116 -0.065143794
0003b0 7b 61 27 3d 91 06 8a bd 66 5f 28 be a0 3f 70 bd
       0.04086445 -0.06739534 -0.16442642 -0.058654428
0003c0 04 f3 44 bc 8c cf 06 bd 6c 1f 2e 3d 62 dd 43 3b
       -0.01202083 -0.032912776 0.042510435 0.0029886593
0003d0 db a4 89 bd 4c 56 49 3d e9 3d d6 3b 00 26 0b 3e
       -0.06720897 0.049154565 0.006538142 0.13588715
0003e0 1b 51 08 bc 52 9c 80 3d 5d a4 a0 bc 1a 22 01 bd
       -0.008320118 0.06279816 -0.019609625 -0.031526662
0003f0 21 5b 0b be c1 a2 f3 3d f7 7f 4c bd af 77 4f 3d
       -0.13608982 0.11896277 -0.049926724 0.05065125

fc_logits.bias f4 [3]
000000 08 3b 6d bd aa cf 3a bc 35 e8 49 3d
       -0.057917625 -0.01140205 0.049293716
