PPO/trex_ppo_models/actor_ep700.pkl (torch, 284400 bytes, 6 tensors)

net.0.weight f4 [256, 14]
-0.24519534 -0.060470644 -0.11821481 0.015323351 -0.16095261 0.14594622 0.05923465 -0.00467287
-0.30611476 0.24451464 -0.055709135 -0.08007726 0.06596721 -0.005200384 0.028725246 -0.10469853
-0.0685567 -0.110101394 0.16066787 -0.18276376 -0.016221797 -0.055228665 -0.21118332 -0.23707817
0.08211821 0.0736298 0.11275089 -0.26555833 0.12742488 0.24513565 -0.12610087 0.13465104
-0.14403398 -0.08796369 -0.01862179 -0.08411829 0.2328661 0.093365125 0.2010053 0.028785514
0.21937358 0.22518282 -0.20991652 0.059162606 -0.41508114 0.23735718 -0.2348361 0.2518585
0.160024 -0.058623392 -0.1360252 -0.034104504 0.02616006 -0.19309483 0.062293142 -0.047191203
-0.15630534 0.05482358 -0.22746553 -0.019845994 0.22155865 0.06046122 -0.058270626 -0.17048186
-0.026569227 0.025132008 -0.05396385 -0.30340958 -0.26482704 0.082860336 0.13663149 -0.297618
-0.055993974 0.11939629 0.070111535 -0.17397712 -0.15116546 -0.120029315 0.29981428 0.002855371
-0.113151975 -0.19590536 -0.15084973 -0.30113366 -0.098580495 0.19689718 -0.093702294 0.11884586
-0.07603087 -0.04414417 0.032368965 0.16828904 0.047949493 0.12355234 0.16311178 0.074971005
0.20454139 0.26269394 -0.16236566 -0.24944364 -0.09830189 -0.014859376 0.102140054 0.06641782
0.097815946 0.22370943 0.1385665 -0.12669829 -0.11724191 0.08273355 -0.15748037 -0.06700131
-0.32338983 -0.016805558 0.21747047 -0.3222325 -0.1320336 0.11510629 0.075487435 0.0659851
0.20579447 -0.24609172 0.06213453 0.19012412 -0.0009640654 0.1325038 0.25439113 0.1576134
-0.08297783 0.008443344 0.0061833174 -0.048959974 -0.04309416 -0.25046203 0.144626 0.14089555
-0.06380301 0.20464839 0.13144495 -0.07421437 -0.15357992 -0.29982984 0.0025894062 0.24033567
0.1848981 -0.23772947 0.04127114 -0.20557508 0.039309327 0.16276132 0.1202312 -0.13788724
0.16859546 -0.0084432 0.1190727 0.052815024 0.24090576 0.24213952 0.35368094 0.06210921
-0.2560669 0.13602737 0.27431667 -0.20457852 -0.048790067 -0.23156454 0.1553236 -0.18831481
0.099645555 0.22739078 0.30227986 0.16989405 0.24151449 0.11126553 -0.22487754 0.00076505
0.15225267 0.12747063 -0.10122307 -0.019951388 0.1771803 -0.122206695 -0.12159364 0.0725706
-0.16705564 0.075690776 -0.22770166 -0.21757735 -0.2131881 0.13328764 -0.25870764 0.16581556
-0.25480917 -0.17884651 -0.20000708 -0.25740457 -0.17972489 -0.104947515 -0.13156523 0.23866841
-0.14574365 -0.18512337 0.0038748458 -0.2674795 0.17658532 0.22772142 0.03192758 -0.24609704
-0.12952094 -0.29539025 -0.2182379 0.16404717 0.31425813 0.14186762 0.12124716 -0.061272845
-0.2202607 0.14127901 -0.06592041 0.059711795 0.22674853 0.1706836 0.056801118 -0.26511115
-0.035975542 -0.26729804 -0.14489126 -0.34337524 0.17383832 -0.17426956 0.19244649 0.05362784
0.031456925 -0.22167031 -0.16721231 0.13197754 0.05258967 -0.15679267 -0.012926849 0.13872269
-0.011468767 0.0999248 -0.096896276 -0.117622524 -0.08648558 -0.027912224 -0.041010045 0.15297602
-0.2605763 -0.23226634 0.092332706 0.21489528 -0.3106592 -0.14736776 0.09139778 0.22335388
00000000: 7d14 7bbe 11b0 77bd 9b1a f2bd cb0e 7b3c
00000010: c3d0 24be ed72 153e 08a0 723d e01e 99bb
00000020: 13bb 9cbe 0c62 7a3e 432f 64bd 8cff a3bd
00000030: d119 873d fc67 aabb 3551 eb3c 2f6c d6bd
00000040: 7567 8cbd d77c e1bd 1e86 243e 6c26 3bbe
00000050: 93e3 84bc 7437 62bd 7140 58be 9fc4 72be
00000060: 982d a83d 38cb 963d f0e9 e63d 43f7 87be
00000070: ab7b 023e d704 7b3e 9620 01be f6e1 093e
00000080: a57d 13be 4f26 b4bd b98c 98bc 3646 acbd
00000090: 7374 6e3e 3736 bf3d 55d4 4d3e 99cf eb3c
000000a0: 78a3 603e 5396 663e 5bf4 56be 7d54 723d
000000b0: 8485 d4be c30d 733e e078 70be 99f3 803e
000000c0: 55dd 233e 151f 70bd 314a 0bbe 2ab1 0bbd
000000d0: 9f4d d63c a7ba 45be 1827 7f3d 904b 41bd
000000e0: 820e 20be b18e 603d b9ec 68be 1194 a2bc
000000f0: 45e0 623e 2fa6 773d 2ead 6ebd cc92 2ebe
00000100: b5a7 d9bc a4e1 cd3c 3309 5dbd 8058 9bbe
00000110: 6997 87be aeb2 a93d 20e9 0b3e 6361 98be
00000120: f059 65bd 0b86 f43d a396 8f3d 0f27 32be
00000130: 1ecb 1abe eed1 f5bd 4281 993e 2d21 3b3b
00000140: 39bc e7bd 6a9b 48be 5a78 1abe 312e 9abe
00000150: 92e4 c9bd 6a9f 493e fde6 bfbd 7565 f33d
00000160: 13b6 9bbd 84d0 34bd 5295 043d f653 2c3e
00000170: b066 443d 0209 fd3d c606 273e 668a 993d
00000180: 4c73 513e d27f 863e 2f43 26be 276e 7fbe
00000190: 8052 c9bd bd74 73bc ce2e d13d 1106 883d
000001a0: ba53 c83d 1614 653e 60e4 0d3e 32bd 01be
000001b0: 871c f0bd 3570 a93d 8942 21be fc37 89bd
000001c0: 5a93 a5be cfab 89bc 94b0 5e3e a9fb a4be
000001d0: d133 07be d9bc eb3d 2899 9a3d 3223 873d
000001e0: c9bb 523e 78ff 7bbe c780 7e3d e6af 423e
000001f0: 55b9 7cba 13af 073e 8e3f 823e 6865 213e
00000200: 48f0 a9bd f455 0a3c 6d9d ca3b 418a 48bd
00000210: 8083 30bd 8f3c 80be d718 143e ec46 103e
00000220: 27ab 82bd 598f 513e 8199 063e b4fd 97bd
00000230: 0e44 1dbe 4c83 99be 07b3 293b 8e1a 763e
00000240: ed55 3d3e 5b6f 73be ed0b 293d 4682 52be
00000250: d102 213d e7aa 263e c63b f63d 5032 0dbe
00000260: 4aa4 2c3e 5955 0abc 63dc f33d 9154 583d
00000270: 00b0 763e 6cf3 773e ab15 b53e 3a66 7e3d
00000280: 331b 83be c24a 0b3e 3c73 8c3e 087d 51be
00000290: 18d8 47bd 411f 6dbe 260d 1f3e 99d5 40be
000002a0: f812 cc3d 21d9 683e 6dc4 9a3e b5f8 2d3e
000002b0: 934f 773e 2fdf e33d 4c46 66be a38d 483a
000002c0: 20e8 1b3e a987 023e 0a4e cfbd 1871 a3bc
000002d0: c16e 353e 8147 fabd 1606 f9bd e59f 943d
000002e0: a210 2bbe c403 9b3d a02a 69be 99cc 5ebe
000002f0: fb4d 5abe 8e7c 083e 5475 84be 8ecb 293e
00000300: 5976 82be 8a23 37be a8ce 4cbe 88ca 83be
00000310: cd09 38be b9ee d6bd 09b9 06be 7e65 743e
00000320: d33d 15be fb90 3dbe 20f1 7d3b 13f3 88be
00000330: c8d2 343e ce2f 693e 7ec6 023d dd00 7cbe
00000340: 23a1 04be 643d 97be c279 5fbe fbfb 273e
00000350: 71e6 a03e bf45 113e 6e50 f83d 3cf9 7abd
00000360: 058c 61be 72ab 103e 4801 87bd 5b94 743d
00000370: c430 683e aec7 2e3e 4aa8 683d a6bc 87be
00000380: 175b 13bd 4adb 88be 605e 14be e1ce afbe
00000390: ac02 323e b873 32be b110 453e dea8 5b3d
000003a0: fad8 003d 8bfd 62be b439 2bbe 1f25 073e
000003b0: 4468 573d 428e 20be 22cb 53bc 520d 0e3e
000003c0: 7fe7 3bbc 60a5 cc3d 8e71 c6bd 14e4 f0bd
000003d0: 5a1f b1bd 2da8 e4bc 26fa 27bd bfa5 1c3e
000003e0: 426a 85be 3ad7 6dbe ee18 bd3d 820d 5c3e
000003f0: b90e 9fbe 93e7 16be c22e bb3d e1b6 643e

net.0.bias f4 [256]
-0.20005138 -0.00054474967 0.100682266 0.26436904 -0.20559539 -0.045426182 -0.11991986 -0.013749532
0.0638353 -0.122287996 -0.28955612 0.012396884 -0.04726498 0.0029005453 -0.10700499 -0.09840285
0.16494134 -0.031008733 0.14297804 0.19188604 0.1061378 -0.022130454 0.031096436 -0.19430627
-0.2610664 -0.1227426 0.0033993754 0.10937737 0.15362252 0.16248126 0.11908603 -0.014382476
-0.19996238 0.11486096 -0.21241616 0.049723472 -0.19921377 0.06838192 -0.0092571145 0.13331886
-0.14182578 -0.054662462 -0.18807895 -0.17842011 0.21865733 0.087318726 -0.04159334 0.12019933
0.08829075 0.029516874 0.23221077 0.32654127 0.16085914 0.07620666 -0.053670883 0.18330863
-0.0354358 0.13416256 -0.22078158 0.21295872 0.20669153 0.12134254 0.027544795 0.03666316
-0.06755472 -0.10378799 -0.21766105 -0.08528539 -0.108929135 -0.054234337 -0.017299928 0.10003993
0.13838339 0.11809825 -0.12642595 -0.11742827 0.11342991 0.1850761 -0.14368661 -0.17321348
-0.15462841 0.14400187 0.085623115 0.030799428 0.072143756 -0.093834266 0.045478642 -0.07007756
-0.08553085 0.09155141 -0.02027781 -0.23846072 -0.05844313 0.17324334 0.1949719 0.130105
0.08677428 0.18932703 -0.18650243 0.040147625 0.11995683 0.110514775 0.017579338 0.14715204
0.06436412 0.026332662 -0.02927325 -0.14412418 0.018022168 -0.102403715 0.06817059 0.10687292
0.014670995 -0.19043851 -0.10848051 0.14348175 -0.120255806 -0.08165327 0.2923089 0.19831458
0.18936571 -0.13823201 -0.061386313 0.097860634 -0.2745996 -0.1236804 0.22967689 -0.2374399
0.12466782 -0.22670116 0.11078047 -0.07470077 -0.21517378 -0.13581127 0.1814832 0.15975498
-0.041933652 0.16908473 -0.10512978 -0.16272593 0.31784567 -0.17339747 -0.17192127 -0.18503956
0.17276557 -0.24106912 0.15131205 0.22337176 -0.12340187 -0.22648835 -0.19950806 -0.19645974
-0.021596331 0.22720121 -0.015889179 -0.03266907 0.082424164 0.04106638 0.062044173 -0.115518145
0.22232354 -0.13745858 -0.08973001 0.21503544 -0.11668964 -0.04037522 -0.2364563 0.06643783
-0.18022743 -0.31903094 -0.16091704 0.16745822 0.31457183 0.20996717 -0.14156185 -0.24439096
0.20734982 0.024205636 0.054263346 -0.011062795 -0.026656436 0.1740252 0.14646555 0.023625495
0.029494971 -0.14543256 0.24992308 0.18377078 -0.1411712 0.24929477 0.013674789 -0.03367766
0.19250238 0.022101458 -0.0046264287 0.06598264 0.12434803 0.26438838 -0.22034338 -0.1776902
-0.032045648 -0.20586303 -0.10790773 -0.26608866 -0.15223889 0.10285486 0.027939945 0.21362007
-0.13908766 0.17854795 -0.14452858 -0.17841011 0.06358516 0.27579612 0.016980868 -0.031704772
0.14149417 0.19620727 0.041392297 0.130195 -0.055123672 -0.26464343 -0.1518917 0.19561453
-0.17248465 -0.25785476 0.09728923 -0.0054626144 -0.21003446 0.1787852 0.1300014 -0.028746702
0.02387213 -0.025689837 0.19317628 0.008211224 0.01587401 -0.121787086 0.06536221 -0.13287854
-0.12707666 0.13729809 -0.012501901 0.31320783 -0.08084158 -0.17283829 0.13390715 0.13523881
-0.16270009 -0.16153081 0.087841816 0.17946227 -0.12389019 -0.020195829 0.1327802 -0.016649812
00000000: 45da 4cbe 88cd 0eba 8132 ce3d 615b 873e
00000010: 9987 52be ce10 3abd 8b98 f5bd b845 61bc
00000020: 15bc 823d 2172 fabd b340 94be 4d1c 4b3c
00000030: ec98 41bd 1317 3e3b 6f25 dbbd 6f87 c9bd
00000040: 62e6 283e 0706 febc d668 123e c67d 443e
00000050: c65e d93d ed4a b5bc f4bd fe3c 39f8 46be
00000060: 7faa 85be 7960 fbbd 0ec8 5e3b 3e01 e03d
00000070: 394f 1d3e 7d61 263e 60e3 f33d 7aa4 6bbc
00000080: f0c2 4cbe 393c eb3d 9f83 59be d7aa 4b3d
00000090: b2fe 4bbe d20b 8c3d 27ab 17bc bd84 083e
000000a0: c73a 11be bfe5 5fbd c597 40be c3b3 36be
000000b0: b5e7 5f3e 29d4 b23d c75d 2abd 112b f63d
000000c0: c8d1 b43d 5fcd f13c a9c8 6d3e 6b30 a73e
000000d0: 42b8 243e 3d12 9c3d 00d6 5bbd 42b5 3b3e
000000e0: 2125 11bd e961 093e 9114 62be da11 5a3e
000000f0: f2a6 533e 7082 f83d 9fa5 e13c 1c2c 163d
00000100: 215a 8abd cc8e d4bd 8ae2 5ebe 1baa aebd
00000110: 3d16 dfbd d324 5ebd 94b8 8dbc bce1 cc3d
00000120: 60b4 0d3e 7fdd f13d ce75 01be 3c7e f0bd
00000130: f14d e83d 9784 3d3e 9522 13be e05e 31be
00000140: e956 1ebe 3a75 133e 2c5b af3d 154f fc3c
00000150: 1bc0 933d 2e2c c0bd d047 3a3d d384 8fbd
00000160: cc2a afbd 4e7f bb3d a61d a6bc 0c2f 74be
00000170: 1062 6fbd b466 313e b7a6 473e 3f3a 053e
00000180: b7b6 b13d f2de 413e 7efa 3ebe d671 243d
00000190: edab f53d 9255 e23d 8b02 903c 06af 163e
000001a0: 56d1 833d 98b7 d73c 74ce efbc 4a95 13be
000001b0: 3aa3 933c 0ab9 d1bd 069d 8b3d 31e0 da3d
000001c0: 9d5e 703c 5002 43be 082b debd e1ec 123e
000001d0: ad48 f6bd d439 a7bd 83a9 953e fa12 4b3e
000001e0: 16e9 413e b18c 0dbe 3770 7bbd 286b c83d
000001f0: 5298 8cbe 264c fdbd 6b30 6b3e 7223 73be
00000200: d851 ff3d 5924 68be dfe0 e23d b8fc 98bd
00000210: 8456 5cbe 1c12 0bbe bbd6 393e cf96 233e
00000220: 9fc2 2bbd 8c24 2d3e 484e d7bd a0a1 26be
00000230: abbc a23e 1b8f 31be 210c 30be 037b 3dbe
00000240: 75e9 303e d3da 76be 8cf1 1a3e 91bb 643e
00000250: 1fba fcbd 90ec 67be d74b 4cbe be2c 49be
00000260: caea b0bc 6fa7 683e 062a 82bc 01d0 05bd
00000270: 00ce a83d 3835 283d 0822 7e3d c794 ecbd
00000280: c8a8 633e f1c1 0cbe 5ec4 b7bd 4032 5c3e
00000290: fafa eebd 7d60 25bd 9a21 72be 8f10 883d
000002a0: 8a8d 38be 0658 a3be 70c7 24be 2b7a 2b3e
000002b0: 8f0f a13e a201 573e 97f5 10be a041 7abe
000002c0: 8353 543e e64a c63c 3e43 5e3d ba40 35bc
000002d0: 995e dabc a933 323e 11fb 153e 418a c13c
000002e0: 709f f13c 46ec 14be d6eb 7f3e 682e 3c3e
000002f0: 2f8f 10be 2147 7f3e 390c 603c 96f1 09bd
00000300: 581f 453e 1e0e b53c 4c99 97bb e821 873d
00000310: 2eaa fe3d ea5d 873e b2a1 61be 6bf4 35be
00000320: 4c42 03bd c2cd 52be bafe dcbd c63c 88be
00000330: 83e4 1bbe 92a5 d23d 50e2 e43c 38bf 5a3e
00000340: ff6c 0ebe 46d5 363e 4dff 13be 24b1 36be
00000350: f038 823d 2635 8d3e 761b 8b3c dddc 01bd
00000360: d9e3 103e 8fea 483e f88a 293d d751 053e
00000370: 5cc9 61bd 587f 87be 7f89 1bbe 2d4f 483e
00000380: d19f 30be 8a05 84be 933f c73d bbff b2bb
00000390: 4613 57be 7813 373e 161f 053e 347e ebbc
000003a0: 7c8f c33c 7e73 d2bc 01d0 453e 5f88 063c
000003b0: 360a 823c 826b f9bd 9fdc 853d 5011 08be
000003c0: 6220 02be df97 0c3e c6d4 4cbc c75c a03e
000003d0: 4590 a5bd 85fc 30be f51e 093e 0b7c 0a3e
000003e0: da9a 26be 5568 25be 69e6 b33d f5c4 373e
000003f0: 24ba fdbd b971 a5bc 88f7 073e 3065 88bc

net.2.weight f4 [256, 256]
0.018173883 -0.040543683 0.008119163 -0.013462769 0.064043246 -0.054397296 0.0427547 -0.14324369
0.0029351758 -0.004838778 -0.0022398103 0.04027313 0.06349393 0.011428125 -0.055768576 -0.049559087
-0.048855472 0.0088623185 -0.013921662 0.002563208 -0.024037475 -0.04856404 -0.07876203 0.021566108
-0.106019475 0.019905472 0.042204417 -0.09928127 -0.047928404 -0.094869785 -0.0068831807 -0.030267654
-0.010906839 -0.040667724 -0.03520233 -0.030194249 0.008562003 -0.025416486 0.008027024 -0.01684183
0.032889772 -0.05015155 -0.024050357 0.022769481 -0.057023235 -0.0068424554 0.03620459 -0.061184477
-0.01330986 0.015935441 -0.012009207 -0.043248385 0.03229121 0.031310942 -0.031077236 -0.07012472
-0.04026291 0.04869934 -0.045347672 -0.011252857 -0.04043825 0.019943915 -0.056282178 0.026814668
0.04917683 0.0072968104 0.040893782 -0.042095594 -0.08252021 0.016304739 -0.0051779645 -0.06493281
0.033174027 0.054939378 -0.017913546 -0.07314129 -0.0060815895 -0.1499548 0.04350927 -0.015303994
-0.034888253 -2.037932e-05 -0.01126501 -0.056448657 -0.059421845 -0.06221594 0.058650553 -0.028464857
-0.03966286 -0.059621762 0.03394071 -0.019071363 -0.051329564 -0.0154989585 -0.06951296 -0.095758334
-0.061747808 -0.024794048 0.07408614 -0.0970611 -0.03247629 -0.0711957 -0.008791415 0.044407155
0.017074537 -0.015434022 0.0022237592 0.042107586 0.0593926 0.026488692 -0.052272312 0.02023615
-0.06579286 -0.017644888 0.051837854 0.0011707953 0.0073363394 0.005952124 0.00057430536 -0.05760698
0.048379317 0.014794245 0.044993486 -0.025830522 0.048924636 -0.021209577 -0.039727036 -0.021097705
0.033903122 -0.06452784 -0.051452085 -0.0020529144 0.06634628 -0.06286407 -0.066212915 -0.02338469
-0.092185676 -0.0706991 -0.027923405 -0.020159438 0.045642365 0.007859273 -0.059005305 0.028090956
-0.021148352 0.043882947 -0.049841374 -0.030688463 -0.07116 0.04548796 0.035458203 -0.023747092
0.0016136899 0.082021445 0.06329853 0.07727544 -0.0053539495 -0.017944183 -0.070774004 -0.06939905
0.027685035 -0.07846222 -0.04903783 0.005332169 -0.073001124 0.026443793 9.538367e-05 0.0017122325
-0.041517142 -0.013209643 -0.006606237 0.025720894 0.0239617 -0.05746501 -0.02808264 -0.036607772
0.026976319 0.0059858626 -0.058490597 -0.016303433 -0.010179713 -0.0878458 -0.019308813 -0.048637945
0.048928864 0.038414795 0.008259904 -0.033145342 -0.06174877 0.020191146 -0.040858846 -0.08807416
-0.060577426 0.03387314 0.064568356 -0.051171433 -0.013321209 0.02734245 -0.083542235 -0.013772555
-0.06054319 -0.0019301536 0.039846204 -0.043040097 -0.06624855 -0.09768269 -0.03151274 -0.09242214
0.0014550266 -0.054418284 -0.08415148 -0.09203636 -0.044339035 -0.0121036265 0.04286943 -0.04792189
-0.0069514564 -0.11042801 0.033237956 0.018241651 0.048053462 -0.10054355 0.0710872 -0.0818903
0.00016647631 -0.030783312 -0.016019825 0.0013917369 -0.022076707 0.02247792 -0.0881484 -0.11426813
0.034781605 0.0030129263 -0.031257555 -0.027750172 0.004036367 0.008326708 0.0008135702 -0.12301674
-0.01770921 0.060176887 -0.12742157 -0.077173874 2.6230227e-05 -0.0030525192 -0.027800636 0.0027931836
-0.03858665 0.023845974 0.0028144228 -0.029622965 -0.020478517 -0.008281166 -0.06358625 0.01831358
00000000: 65e1 943c 2211 26bd 3d06 053c f292 5cbc
00000010: 1b29 833d b3cf 5ebd 8d1f 2f3d 79ae 12be
00000020: 145c 403b 9d8e 9ebb c8c9 12bb 70f5 243d
00000030: 1b09 823d 083d 3b3c 976d 64bd 78fe 4abd
00000040: ad1c 48bd 4233 113c af17 64bc 7ffb 273b
00000050: 3dea c4bc 16eb 46bd fd4d a1bd 68ab b03c
00000060: bd20 d9bd cd10 a33c 8ade 2c3d fa53 cbbd
00000070: 9350 44bd 174b c2bd 4e8c e1bb dff3 f7bc
00000080: 99b2 32bc 3393 26bd 5230 10bd ee59 f7bc
00000090: a547 0c3c 3c36 d0bc c783 033c e1f7 89bc
000000a0: 6db7 063d b66b 4dbd 4105 c5bc 1087 ba3c
000000b0: 3291 69bd ad36 e0bb 444b 143d 939c 7abd
000000c0: 9911 5abc 0b8b 823c 44c2 44bc 3825 31bd
000000d0: ca43 043d e73f 003d b095 febc 8d9d 8fbd
000000e0: b9ea 24bd f678 473d 7bbe 39bd e75d 38bc
000000f0: 94a2 25bd 6c61 a33c 2488 66bd 6faa db3c
00000100: a56d 493d 151a ef3b 3d80 273d 6e6c 2cbd
00000110: 5b00 a9bd 8491 853c eaab a9bb 7efb 84bd
00000120: 7de1 073d 1d08 613d 6ebf 92bc 1acb 95bd
00000130: 1248 c7bb c08d 19be c736 323d 9abd 7abc
00000140: fce6 0ebd 42f4 aab7 e090 38bc b536 67bd
00000150: 5264 73bd 24d6 7ebd 903b 703d 222f e9bc
00000160: 8675 22bd f335 74bd 6a05 0b3d 8c3b 9cbc
00000170: f33e 52bd 58ef 7dbc d05c 8ebd f21c c4bd
00000180: 45eb 7cbd e31c cbbc 79ba 973d f8c7 c6bd
00000190: dc05 05bd 0dcf 91bd de09 10bc 47e4 353d
000001a0: e6df 8b3c fbde 7cbc 7dbc 113b 0179 2c3d
000001b0: a845 733d d0fe d83c 7e1b 56bd 48c6 a53c
000001c0: 68be 86bd 038c 90bc ee53 543d 5f75 993a
000001d0: ad65 f03b 090a c33b fb8c 163a 4cf5 6bbd
000001e0: 6429 463d 9063 723c 174b 383d 889a d3bc
000001f0: 3365 483d b5bf adbc d1b8 22bd 18d5 acbc
00000200: 00de 0a3d 2c27 84bd 6cbf 52bd 308a 06bb
00000210: 8fe0 873d e1be 80bd a39a 87bd 4091 bfbc
00000220: d8cb bcbd b1ca 90bd a0bf e4bc 6825 a5bc
00000230: 7df3 3a3d 2ec4 003c 8caf 71bd 011f e63c
00000240: 4f3f adbc 9bbe 333d 7826 4cbd 5f66 fbbc
00000250: 56bc 91bd 9551 3a3d 9f3c 113d 4389 c2bc
00000260: 7382 d33a dcfa a73d a9a2 813d 9642 9e3d
00000270: 2f70 afbb aeff 92bc f6f1 90bd 1721 8ebd
00000280: bacb e23c cdb0 a0bd e4db 48bd 7ab9 ae3b
00000290: 9d81 95bd a7a0 d83c b808 c838 fd6c e03a
000002a0: e10d 2abd 426d 58bc 2279 d8bb a0b4 d23c
000002b0: 544b c43c 6e60 6bbd 910d e6bc 08f2 15bd
000002c0: 71fd dc3c 0e25 c43b d693 6fbd c78e 85bc
000002d0: d0c8 26bc 80e8 b3bd 842d 9ebc 9538 47bd
000002e0: a269 483d d558 1d3d 8c54 073c 69c3 07bd
000002f0: 47ec 7cbd e767 a53c 9b5b 27bd 3a60 b4bd
00000300: 0920 78bd 90be 0a3d 6a3c 843d 2399 51bd
00000310: 3341 5abc 46fd df3c 3118 abbd 48a6 61bc
00000320: 23fc 77bd 35fd fcba c635 233d d04a 30bd
00000330: 52ad 87bd dd0d c8bd 8113 01bd d247 bdbd
00000340: 97b6 be3a b5e5 5ebd 9c57 acbd 8f7d bcbd
00000350: d99c 35bd 4a4e 46bc db97 2f3d be49 44bd
00000360: 0bc9 e3bb 1528 e2bd 8624 083d 846f 953c
00000370: b5d3 443d c7e9 cdbd 2a96 913d 1ab6 a7bd
00000380: 2590 2e39 492d fcbc 023c 83bc f16a b63a
00000390: 36da b4bc 9d23 b83c 2687 b4bd 6905 eabd
000003a0: 2877 0e3d 8474 453b ec07 00bd 5454 e3bc
000003b0: 8043 843b bf6c 083c c645 553a 33f0 fbbd
000003c0: e812 91bc 0a7c 763d cd7a 02be 560d 9ebd
000003d0: fc08 dc37 c60c 48bb 29be e3bc d80d 373b
000003e0: 090d 1ebd a258 c33c 2e72 383b dcab f2bc
000003f0: 90c2 a7bc baad 07bc 8239 82bd 5c06 963c

net.2.bias f4 [256]
-0.054458015 -0.08096449 -0.012609348 -0.05807934 0.018734971 -0.082291335 0.08608878 -0.027274687
-0.041991998 0.038396563 0.008990272 -0.045397814 0.026147403 -0.0027492787 -0.036126457 -0.004500758
-0.07007212 0.05709444 -0.022292936 0.025660884 -0.044677697 0.04889815 -0.081329875 0.038090635
-0.064185925 -0.007948379 -0.00739992 0.037476942 0.05409806 -0.02905663 -0.04650878 0.033678193
0.00066843187 0.024612855 0.04477085 0.075926974 0.016368384 0.08075131 0.06086896 -0.06828497
-0.057354823 -0.04371192 0.0052831713 0.022311617 0.021365045 -0.06266875 -0.04006931 -0.048968762
-0.0749636 0.027188642 0.022284197 -0.05998362 -0.07686595 -0.01981944 -0.052654717 -0.053770725
0.047213886 -0.062017545 -0.021208586 -0.008061277 0.039801456 -0.0488351 -0.015187775 -0.014533768
-0.0019932955 -0.011057333 0.060046364 0.00069618016 -0.036543887 0.05082269 -0.024867062 0.03289719
-0.05672317 -0.059076454 -0.030254165 0.01819547 -0.013349321 0.024183258 -0.026170822 0.049595986
0.011106951 -0.055433437 0.10015266 0.00954076 0.020820186 0.015328009 -0.04796818 -0.0302372
-0.055692222 -0.02907114 0.017610377 0.08845142 -0.013394451 -0.019715104 0.09342975 -0.064514235
0.010475329 -0.057275638 -0.00014633438 0.012874401 0.03833346 0.015944036 0.05046294 -0.014079735
-0.020164419 0.03086579 0.018239899 0.04681004 -0.026363539 0.06752194 0.02036921 -0.016806584
-0.055665832 0.08210684 -0.0785936 0.02956048 -0.06850435 0.03027889 0.03758904 -0.0069296756
-0.054760158 -0.046746384 -0.04288314 -0.005374939 -0.019407194 0.03808643 -0.034050565 -0.041042767
-0.03187985 -0.05224702 -0.03828853 -0.06563124 0.044803865 -0.04588579 0.007572405 -0.06287025
-0.059031483 0.14073907 -0.03829245 -0.004712811 -0.050373726 0.025920665 -0.009664105 -0.011334387
0.014732191 -0.007501515 -0.05462111 -0.012468591 0.0069067925 0.07273797 -0.044428147 -0.07821455
0.047291838 0.022485223 0.015083838 -0.042447828 -0.025644619 0.08175259 -0.031273525 0.03254881
0.020016978 -0.019740652 -0.0054193516 0.026237363 0.03544568 0.0061451024 0.011183532 0.034524072
-0.10665089 0.10774102 -0.028160729 -0.021394951 -0.057922725 -0.07058395 -0.04700078 -0.008056845
0.023505526 0.0015523643 0.021334594 0.050779484 -0.030560771 0.06861292 -0.023900837 -0.027426219
0.047547635 -0.049111735 0.013139115 -0.073722705 0.037646286 0.03256574 -0.011507897 -0.00596551
-0.027510103 -0.033784337 0.011269262 -0.039044898 -0.010456177 -0.04014166 -0.08086266 -0.0034643498
-0.010211048 0.014843335 -0.054785073 -0.028553585 -0.057365566 -0.036102235 0.001215642 -0.01676031
0.07138038 -0.061112177 -0.07515016 -0.07243461 -0.09488966 -0.023114203 -0.050513037 -0.019261496
0.015442578 -0.10320507 -0.031507358 -0.04538668 0.08022827 -0.06557064 -0.05575843 -0.031156277
-0.003226183 -0.0015710297 -0.068376586 -0.035933398 -0.058982395 -0.014656289 -0.08844852 -0.04187337
-0.034479734 0.062370513 -0.037122328 0.029501505 0.050351102 -0.06211087 0.0680143 -0.065955505
-0.038427554 -0.0091289915 0.041755904 -0.03368869 -0.006386814 0.020361762 -0.028757097 0.019499522
0.03677614 -0.08205526 0.018588714 -0.035595033 -0.001892865 -0.08991065 -0.027923262 0.028784813
00000000: 5e0f 5fbd b6d0 a5bd 7097 4ebc 9ae4 6dbd
00000010: 157a 993c 5c88 a8bd 504f b03d 2a6f dfbc
00000020: cdff 2bbd b745 1d3d ef4b 133c 0ff3 39bd
00000030: 1433 d63c 3e2d 34bb 56f9 13bd 187b 93bb
00000040: f981 8fbd dcdb 693d ad9f b6bc c636 d23c
00000050: f6ff 36bd 6d49 483d 4790 a6bd ed04 1c3d
00000060: e973 83bd eb39 02bc 077b f2bb 6c81 193d
00000070: ed95 5d3d 2b08 eebc fe7f 3ebd 25f2 093d
00000080: b439 2f3a e6a0 c93c a461 373d 9a7f 9b3d
00000090: fd16 863c f160 a53d bb51 793d fed8 8bbd
000000a0: e4ec 6abd 450b 33bd 741e ad3b dac6 b63c
000000b0: bf05 af3c 7958 80bd b81f 24bd 7893 48bd
000000c0: 8486 99bd b7ba de3c 598d b63c 62b1 75bd
000000d0: e56b 9dbd 615c a2bc 79ac 57bd b13e 5cbd
000000e0: 5963 413d 1c06 7ebd a1bd adbc 7213 04bc
000000f0: da06 233d 5007 48bd 25d6 78bc 0b1f 6ebc
00000100: f3a1 02bb d129 35bc 2df3 753d dc7f 363a
00000110: 0baf 15bd 742b 503d 02b6 cbbc 34bf 063d
00000120: 8e56 68bd 27fa 71bd 95d7 f7bc ab0e 953c
00000130: 1cb7 5abc f81b c63c 3164 d6bc 2925 4b3d
00000140: eef9 353c 2c0e 63bd d61c cd3d d950 1c3c
00000150: 188f aa3c 5422 7b3c 487a 44bd 01b4 f7bc
00000160: 871d 64bd 9926 eebc a343 903c 0526 b53d
00000170: 6674 5bbc 9281 a1bc 1958 bf3d 0a20 84bd
00000180: b7a0 2b3c dc99 6abd 5671 19b9 27ef 523c
00000190: 8c03 1d3d 119d 823c 3ab2 4e3d b0ae 66bc
000001a0: da2f a5bc 41da fc3c d76b 953c e2bb 3f3d
000001b0: 59f8 d7bc f148 8a3d 54dd a63c f6ad 89bc
000001c0: db01 64bd a227 a83d aef5 a0bd d228 f23c
000001d0: 024c 8cbd 6f0b f83c f7f6 193d 5512 e3bb
000001e0: 304c 60bd 2379 3fbd 3ba6 2fbd 4220 b0bb
000001f0: d6fb 9ebc 8400 1c3d 9b78 0bbd 761c 28bd
00000200: 7294 02bd f900 56bd 6fd4 1cbd ac69 86bd
00000210: 4284 373d bdf2 3bbd f021 f83b 1ec2 80bd
00000220: ffca 71bd e71d 103e 8bd8 1cbd ed6d 9abb
00000230: ae54 4ebd 9357 d43c 3256 1ebc ddb3 39bc
00000240: 4a5f 713c 45cf f5bb 63ba 5fbd 1049 4cbc
00000250: 6052 e23b a5f7 943d 4afa 35bd f32e a0bd
00000260: 16b5 413d ee32 b83c 3422 773c c6dd 2dbd
00000270: aa14 d2bc e76d a73d ab18 00bd e751 053d
00000280: a5fa a33c 26b7 a1bc d194 b1bb bdef d63c
00000290: 7d2f 113d db5c c93b 223b 373c 1d69 0d3d
000002a0: c86b dabd 53a7 dc3d 54b1 e6bc 7744 afbc
000002b0: 6140 6dbd 518e 90bd e483 40bd db00 04bc
000002c0: a98e c03c b478 cb3a e3c5 ae3c 26fe 4f3d
000002d0: 955a fabc ee84 8c3d b0cb c3bc f3ac e0bc
000002e0: 4fc1 423d 6329 49bd 7145 573c eefb 96bd
000002f0: fe32 1a3d a763 053d 9e8b 3cbc 537a c3bb
00000300: de5c e1bc 7261 0abd b6a2 383c 8bed 1fbd
00000310: 6350 2bbc 956b 24bd 539b a5bd 250a 63bb
00000320: 3d4c 27bc 7631 733c 5066 60bd 35e9 e9bc
00000330: 28f8 6abd f0df 13bd 2d56 9f3a eb4c 89bc
00000340: e02f 923d c350 7abd 54e8 99bd 9958 94bd
00000350: 8355 c2bd ff59 bdbc c2e6 4ebd 49ca 9dbc
00000360: de02 7d3c 2e5d d3bd dc0d 01bd 62e7 39bd
00000370: b84e a43d e649 86bd f462 64bd 733b ffbc
00000380: 5e6e 53bb 02eb cdba 0609 8cbd e62e 13bd
00000390: 8697 71bd ee20 70bc 7f24 b5bd 6983 2bbd
000003a0: 9f3a 0dbd 3978 7f3d 950d 18bd 24ad f13c
000003b0: f53c 4e3d f867 7ebd 154b 8b3d ae13 87bd
000003c0: 3666 1dbd c491 15bc 3d08 2b3d 27fd 09bd
000003d0: 7b48 d1bb b6cd a63c 0194 ebbc 76bd 9f3c
000003e0: 94a2 163d 970c a8bd 5c47 983c 19cc 11bd
000003f0: 031a f8ba 1323 b8bd 53bf e4bc 21ce eb3c

fc_logits.weight f4 [3, 256]
-0.0979436 0.07778533 0.010116153 0.07721265 0.07779811 -0.021797486 -0.07845573 -0.020720476
0.09406404 0.029528528 -0.041446306 -0.06619814 -0.2014909 -0.017160194 0.050919775 0.036859546
0.08190623 -0.0652544 -0.0053238994 -0.010306025 -0.14741063 0.059598263 -0.051520932 0.07698755
0.015319403 0.07497466 0.09764583 0.0061823525 -0.046168167 0.05010398 0.10446568 0.066204906
-0.18164894 0.030189928 0.016260935 -0.09098459 -0.07505216 -0.09133148 0.013656893 -0.057330478
-0.12074945 -0.09149394 0.0069719483 0.028709887 0.11211003 -0.10475154 -0.008275494 -0.05067187
0.009458672 -0.05155713 -0.035986353 -0.17554621 -0.03430365 0.031009262 0.023497073 0.04044449
-0.038663447 0.090211675 0.04384543 0.00837281 -0.002095602 -0.01600728 0.040473953 0.050467733
0.087292686 0.15473573 -0.07903311 0.054914374 0.028068226 0.047463674 0.04896307 0.05175254
0.08225444 0.15573394 0.03756369 0.015639275 0.010327194 0.04485897 -0.032778315 0.12232568
-0.058657702 0.038101103 0.08048417 -0.010701748 0.15897423 -0.07041218 0.0463342 0.1492877
0.034325395 -0.056644432 -0.071350165 -0.031319484 0.023742868 0.07226589 -0.1069298 0.042353652
-0.016948067 0.13892728 -0.0036283368 -0.0077865287 0.013046423 0.19762732 0.08854105 0.06617437
-0.071864635 -0.05969719 -0.040955383 0.028051186 -0.008850199 -0.09680046 0.043808065 0.07443926
-0.038071718 0.07432763 0.042442933 -0.003684354 0.13474835 -0.104546055 -0.060382932 0.09196954
0.005502523 0.038231798 -0.19940327 0.010235092 -0.038001154 -0.08239938 -0.0044326494 0.007956492
0.016721034 -0.03591881 -0.06604113 0.08330439 0.051832516 0.024584485 0.017891534 0.041238673
-0.05288644 -0.19526693 -0.004713712 -0.023298485 0.18495584 0.1000636 0.038229212 0.080220506
-0.06688098 0.061306044 0.0009433886 -0.052312 0.033883903 -0.116283745 0.0035705785 0.022118019
0.06901407 -0.03733053 0.17202632 -0.0002423524 -0.10536146 -0.09768985 -0.031858552 0.12056647
-0.034518115 -0.009505845 -0.0070313183 0.121816196 -0.015649663 -0.049294576 0.105325066 0.04378596
0.031937167 -0.10300843 0.040721245 0.07103593 -0.0033606156 0.16018474 0.13501798 -0.048105646
-0.023171246 -0.03658534 0.018276356 -0.05447999 0.054385148 -0.052319147 0.0027876836 0.027703753
0.012909844 -0.11878189 -0.108525455 -0.0019285986 -0.11206819 0.022717537 0.10859628 0.024378123
0.06288575 0.031499393 0.041011084 -0.022182643 0.002536039 0.016715202 -0.11255033 -0.00013881947
-0.008326334 0.045112383 -0.0512662 0.038254343 0.010640539 -0.010397118 0.050592072 -0.036492266
-0.008798173 0.025111018 0.023846112 -0.048853822 0.020949874 -0.09901813 -0.0395139 0.09386252
0.036799822 0.044201348 0.056327283 0.16623026 -0.097384326 -0.035492014 -0.018897144 -0.017423868
-0.034851715 -0.0017504842 -0.007667564 0.052124787 -0.08240497 0.009965835 0.12708761 0.031920016
0.044220895 0.054077998 -0.05546116 0.0053313 0.04086445 -0.06739534 -0.15519926 -0.058654428
-0.01202083 -0.032912776 0.059620414 0.0029886593 -0.075093016 0.049154565 0.041816924 0.1173956
0.0042917724 0.06279816 -0.003711219 -0.03302227 -0.12660028 0.11896277 -0.011328567 0.044143457
00000000: a796 c8bd ea4d 9f3d 39be 253c aa21 9e3d
00000010: 9e54 9f3d a490 b2bc 66ad a0bd fdbd a9bc
00000020: a6a4 c03d d0e5 f13c 9ac3 29bd e492 87bd
00000030: a153 4ebe 8993 8cbc 4191 503d 09fa 163d
00000040: 74be a73d 19a4 85bd 1b74 aebb 9ada 28bc
00000050: d0f2 16be 4f1d 743d 9d07 53bd a6ab 9d3d
00000060: 3cfe 7a3c 518c 993d 89fa c73d 5595 ca3b
00000070: d51a 3dbd d539 4d3d 1af2 d53d 7096 873d
00000080: 2e02 3abe de50 f73c a735 853c 2156 babd
00000090: f2b4 99bd 000c bbbd 29c1 5f3c 5dd3 6abd
000000a0: 7d4b f7bd 2d61 bbbd f174 e43b ff30 eb3c
000000b0: f299 e53d fa87 d6bd f095 07bc 4f8d 4fbd
000000c0: 8cf8 1a3c 922d 53bd 6d66 13bd 63c2 33be
000000d0: fc81 0cbd 2307 fe3c ef7c c03c 1fa9 253d
000000e0: 905d 1ebd e6c0 b83d 4497 333d 1c2e 093c
000000f0: 5e56 09bb b321 83bc 04c8 253d 41b7 4e3d
00000100: 82c6 b23d 0b73 1e3e 1cdc a1bd e5ed 603d
00000110: 56ef e53c 4569 423d 808d 483d 79fa 533d
00000120: 0475 a83d b878 1f3e 62dc 193d f01d 803c
00000130: 6433 293c 0abe 373d 8e42 06bd e385 fa3d
00000140: 0f43 70bd e70f 1c3d e2d4 a43d 6256 2fbc
00000150: 24ca 223e 4334 90bd eec8 3d3d e0de 183e
00000160: c998 0c3d fe03 68bd 0920 92bd dc48 00bd
00000170: 6780 c23c 2400 943d 03fe dabd 067b 2d3d
00000180: acd6 8abc f442 0e3e 64c9 6dbb 2326 ffbb
00000190: aac0 553c d15e 4a3e 0355 b53d 6e86 873d
000001a0: c42d 93bd 0a85 74bd d5c0 27bd 9acb e53c
000001b0: 6d00 11bc 523f c6bd 1670 333d 9c73 983d
000001c0: 17f1 1bbd 1639 983d a4d8 2d3d 3475 71bb
000001d0: 79fb 093e 3e1c d6bd 1854 77bd 875a bc3d
000001e0: 824e b43b f298 1c3d 5f30 4cbe 16b1 273c
000001f0: 19a7 1bbd 02c1 a8bd c23f 91bb f25b 023c
00000200: 8dfa 883c 9a1f 13bd 9240 87bd 7e9b aa3d
00000210: 554e 543d 6765 c93c 4491 923c e2e9 283d
00000220: 749f 58bd 0ef4 47be 7b75 9abb 77dc bebc
00000230: 1065 3d3e 25ee cc3d 3c96 1c3d a64a a43d
00000240: e5f8 88bd 0c1c 7b3d bd4d 773a 1c45 56bd
00000250: d9c9 0a3d 2c26 eebd 5e00 6a3b d930 b53c
00000260: 4057 8d3d e6e7 18bd ab27 303e fa1f 7eb9
00000270: c0c7 d7bd 9e11 c8bd 1d7e 02bd 8eeb f63d
00000280: de62 0dbd 67be 1bbc f966 e6bb c57a f93d
00000290: b933 80bc 1ce9 49bd abb4 d73d e858 333d
000002a0: 8cd0 023d 15f6 d2bd 52cb 263d 497b 913d
000002b0: c63d 5cbb 7807 243e 2742 0a3e 6d0a 45bd
000002c0: a0d1 bdbc 82da 15bd 4cb8 953c 6926 5fbd
000002d0: f6c2 5e3d 9a4c 56bd 92b1 363b fbf2 e23c
000002e0: cf83 533c eb43 f3bd 9842 debd 08c9 fcba
000002f0: 0284 e5bd 211a ba3c ba67 de3d a1b4 c73c
00000300: 3eca 803d 8205 013d 3dfb 273d 60b8 b5bc
00000310: ad33 263b 52ee 883c ca80 e6bd 1190 11b9
00000320: 2d6b 08bc c3c7 383d 82fc 51bd 96b0 1c3d
00000330: a855 2e3c ac58 2abc a239 4f3d ea78 15bd
00000340: 3626 10bc 9fb5 cd3c ec58 c33c f21a 48bd
00000350: 129f ab3c 04ca cabd 54d9 21bd fe3a c03d
00000360: 69bb 163d 790c 353d 70b7 663d 4438 2a3e
00000370: 6f71 c7bd 1360 11bd 2fce 9abc 80bc 8ebc
00000380: acc0 0ebd 8170 e5ba 3040 fbbb cd80 553d
00000390: f0c3 a8bd be47 233c 4123 023e 90be 023d
000003a0: f820 353d e480 5d3d 3e2b 63bd 30b2 ae3b
000003b0: 7b61 273d 9106 8abd 8eec 1ebe a03f 70bd
000003c0: 04f3 44bc 8ccf 06bd 8934 743d 62dd 433b
000003d0: 5eca 99bd 4c56 493d 3948 2b3d 1b6d f03d
000003e0: ffa1 8c3b 529c 803d ec37 73bb 5c42 07bd
000003f0: 81a3 01be c1a2 f33d 749b 39bc c5cf 343d

fc_logits.bias f4 [3]
-0.06643449 -0.0009843973 0.04385545
00000000: ce0e 88bd e406 81ba c6a1 333d
