PPO/trex_ppo_models/actor_ep500.pkl (torch, 284400 bytes, 6 tensors)

net.0.weight f4 [256, 14]
000000 a4 c7 8d be 3e 2d b9 bd 9b 1a f2 bd 58 9d ce 3d
       -0.27691376 -0.090418324 -0.11821481 0.10088605
000010 60 59 f3 bd 9e f7 3b 3e ac 13 c2 3d ae b6 8c 3d
       -0.11882281 0.18356177 0.09476408 0.06870781
000020 b5 63 7a be ff 1c 93 3e 45 bb 18 bd 8e e7 27 bd
       -0.24452098 0.2873306 -0.03728797 -0.040992312
000030 e1 15 bf 3d f3 66 10 3d e1 5a f7 bc 55 ca 36 bd
       0.09330345 0.03525443 -0.030194702 -0.044626553
000040 d7 aa e6 bd af d4 c6 bd 0a df 50 3e b1 1a 24 be
       -0.11263054 -0.09708535 0.20397583 -0.16025807
000050 4b 20 8b 3c 31 8e 7b bd 74 ac 3c be d3 c6 80 be
       0.016983172 -0.0614149 -0.1842516 -0.2515169
000060 dc a7 e5 3d 41 fa dc 3d 7c 4a 0b 3e d4 9e 70 be
       0.11213657 0.1078992 0.13602632 -0.23498088
000070 27 0b 17 3e 4c 17 7d 3e f4 55 e9 bd c0 96 8d 3d
       0.14750348 0.24715918 -0.113933474 0.06913519
000080 79 33 4e be fe 0e e5 bd 74 06 70 bd 13 e8 65 bd
       -0.20136823 -0.111845 -0.058599904 -0.056129526
000090 6b 93 34 3e 83 cf 88 3d cf 6b 33 3e 45 37 6c bc
       0.1763436 0.06680205 0.17521594 -0.014417474
0000a0 bd 73 5c 3e 55 4b 55 3e 8d 87 4f be f3 dd 0a 3d
       0.21528526 0.20829518 -0.20266552 0.033903074
0000b0 ec bc f1 be 5e b5 73 3e 8b 7c 7f be 9f d1 6f 3e
       -0.47214448 0.23799655 -0.24949853 0.23419808
0000c0 6f a6 08 3e 38 83 c3 bc 3e ae 1e be 01 31 b5 bc
       0.1334474 -0.02386628 -0.15496156 -0.022118093
0000d0 98 3f c2 3b 94 e8 63 be c2 4e 2a 3d 87 d3 94 bd
       0.005927991 -0.2225669 0.041579016 -0.07266908
0000e0 6f 87 2f be aa 7a 4b 3d b9 ec 68 be 55 fc b5 3c
       -0.17141508 0.04967753 -0.22746553 0.022215048
0000f0 54 fe 72 3e d4 be ad 3d 62 d4 31 bd cc 92 2e be
       0.23729831 0.08483663 -0.043415435 -0.17048186
000100 e8 3e c7 3a a9 fe 0b 3d 71 2d d7 bc af 11 92 be
       0.0015201243 0.03417841 -0.026266785 -0.28529117
000110 69 97 87 be af f5 b6 3d b9 81 1b 3e d0 25 95 be
       -0.26482704 0.08933579 0.15186204 -0.2913041
000120 f8 0a c5 bd e0 d4 6c 3d f2 1d 78 3d e1 32 40 be
       -0.09621233 0.0578202 0.060575433 -0.18769409
000130 36 5c 31 be 4e e1 cf bd db 4c 83 3e 6b d5 1b 3d
       -0.17320332 -0.10150395 0.25644574 0.038045328
000140 af 21 04 be 92 a9 62 be 57 5d 2d be bd 8c 87 be
       -0.12903474 -0.22134998 -0.16930138 -0.26474562
000150 47 df a0 bd 53 ac 39 3e e9 09 cb bd 2d e3 34 3e
       -0.07855087 0.18132143 -0.099139996 0.17664786
000160 93 ac 9c bd b0 3f 16 bd 8d 7f df 3c f9 b8 34 3e
       -0.076501034 -0.03668183 0.0272825 0.17648686
000170 76 57 8e 3d cf 45 0b 3e 70 76 2b 3e 0d 79 97 3d
       0.069502756 0.13600849 0.16744399 0.073961355
000180 a9 00 4b 3e 39 f3 71 3e b9 5f 25 be 7f 85 96 be
       0.1982447 0.23627938 -0.16149797 -0.29398724
000190 92 05 02 be e8 ef 70 bc bd df e0 3d d0 9f 84 3d
       -0.12697437 -0.014705636 0.10980175 0.06475794
0001a0 d0 05 de 3d 0e 07 54 3e 59 0b 19 3e 6f f5 12 be
       0.108409524 0.20705816 0.14945735 -0.14351438
0001b0 95 a5 e1 bd a4 e2 bb 3d 6c 80 03 be 76 4f 5c bd
       -0.110179104 0.09174088 -0.12841958 -0.053786717
0001c0 e6 b1 a6 be 84 9f c6 bb e8 56 73 3e 15 86 80 be
       -0.325576 -0.006061496 0.23763621 -0.25102296
0001d0 f1 b0 14 be 78 48 d5 3d c1 12 84 3d d6 7d a2 3d
       -0.14520623 0.10414213 0.064488895 0.079341576
0001e0 a4 dd 68 3e b5 be 60 be 45 27 41 3d ef f0 31 3e
       0.22740799 -0.21947749 0.04715659 0.17377065
0001f0 b0 53 c8 bc 27 88 af 3d ca ca 52 3e 28 52 2b 3e
       -0.024453968 0.08570891 0.2058517 0.16730559
000200 fa 3f f0 bd 47 72 a3 bd 19 b7 01 bb 40 fb dd bc
       -0.117309526 -0.07980781 -0.0019792973 -0.027097344
000210 d7 06 a2 bc 60 f4 53 be be aa eb 3d 1d 19 00 3e
       -0.019778652 -0.2069869 0.11507176 0.1250958
000220 6a c1 4b bd 91 d8 6b 3e e7 19 17 3e d0 ea 09 bc
       -0.049745 0.23031832 0.14755975 -0.0084178
000230 1b 87 1a be 27 0b 91 be ca 4c 8b bc 52 dc 80 3e
       -0.15090601 -0.2832882 -0.01700439 0.2516809
000240 01 94 54 3e 33 c9 58 be 6f 82 76 3d ed 71 36 be
       0.20759584 -0.21170501 0.060182985 -0.17816897
000250 fc f3 6a 3d 34 80 43 3e 9d fc 12 3e 75 d3 ee bd
       0.057361588 0.19091874 0.14354177 -0.11661426
000260 7e 5a 3c 3e ed 8e b3 3c 47 ed 1a 3e 4e e9 d4 3c
       0.18393895 0.021918738 0.15129577 0.025990155
000270 50 4d 3c 3e 89 b5 3b 3e bb 2d 93 3e 56 e3 fe 3c
       0.18388867 0.18330969 0.28745827 0.031114262
000280 17 d0 92 be ae ef 13 3e f7 88 65 3e 7e d0 72 be
       -0.28674385 0.144469 0.22415529 -0.23712346
000290 8d 5b b5 bd 10 6f 8f be f2 d6 2a 3e 47 f4 3c be
       -0.088553526 -0.2801442 0.16683558 -0.1845256
0002a0 61 3a 97 3d 31 dd 59 3e 0d a3 61 3e 5b 8c 1b 3e
       0.07384182 0.21275784 0.22034855 0.1519026
0002b0 ad 83 8a 3e 0d e3 ca 3d 14 43 72 be 80 26 c6 bc
       0.27053586 0.09906588 -0.23658401 -0.02418828
0002c0 09 86 0e 3e bd a9 b4 3d 6b e5 f8 bd 34 a9 95 bc
       0.13918318 0.088214375 -0.12153133 -0.018269159
0002d0 55 2d 1d 3e 7f 2b f6 bd 16 06 f9 bd e5 9f 94 3d
       0.15349324 -0.12020015 -0.12159364 0.0725706
0002e0 a2 10 2b be c4 03 9b 3d a0 2a 69 be 99 cc 5e be
       -0.16705564 0.075690776 -0.22770166 -0.21757735
0002f0 fb 4d 5a be 8e 7c 08 3e 54 75 84 be 8e cb 29 3e
       -0.2131881 0.13328764 -0.25870764 0.16581556
000300 59 76 82 be 8a 23 37 be a8 ce 4c be 88 ca 83 be
       -0.25480917 -0.17884651 -0.20000708 -0.25740457
000310 e4 a1 3f be be 7b bf bd 04 6a 07 be a4 ab 85 3e
       -0.187141 -0.09349774 -0.13224036 0.26107514
000320 ac b5 bf bd f4 27 3e be 96 c5 2a 3c 40 ed 98 be
       -0.09360823 -0.18569928 0.010423085 -0.29868507
000330 18 a0 45 3e ee 03 61 3e ff f6 47 3d 94 44 67 be
       0.19299352 0.21974155 0.04881954 -0.22584754
000340 69 60 2e be 01 bb 90 be e4 ca 5e be b9 67 0f 3e
       -0.17028965 -0.28267673 -0.21757084 0.14004411
000350 56 62 a4 3e d1 56 5e 3e 2c bf 00 3e ba af 02 bd
       0.32106274 0.21712805 0.12572926 -0.031905867
000360 5a 8f 51 be 5d a3 28 3e 74 bd c0 bc f0 79 9f 3d
       -0.2046484 0.16468568 -0.023527838 0.077869296
000370 63 c3 73 3e d5 37 41 3e 24 e1 52 3d 07 fb 8b be
       0.23805003 0.18868954 0.051484242 -0.27339956
000380 69 03 78 bd 73 2a 8c be 24 53 11 be 28 eb 94 be
       -0.060550127 -0.27376136 -0.14191872 -0.2908566
000390 d3 d4 4f 3e 9b 17 28 be 55 11 5a 3e e0 b7 53 3d
       0.2029603 -0.16415255 0.21295674 0.05168903
0003a0 9f 37 99 3d bd 21 50 be cd 92 1b be 3c a1 1e 3e
       0.07481312 -0.2032537 -0.15192719 0.15491194
0003b0 e3 86 41 3d 5c bc 15 be c3 86 21 bd 12 42 0e 3e
       0.04724778 -0.14622635 -0.03943516 0.13892391
0003c0 fa 88 04 3b df 66 df 3d f6 34 a7 bd db 9e f4 bd
       0.0020223246 0.10908293 -0.08164398 -0.11944362
0003d0 a4 3b ac bd e6 b4 0a bd 38 1f 0d bd 43 14 20 3e
       -0.08409813 -0.033863924 -0.0344536 0.15632729
0003e0 58 a9 83 be 84 64 6a be ee 18 bd 3d 8d 67 5a 3e
       -0.25715137 -0.22889906 0.092332706 0.21328564
0003f0 fa 9c 97 be 02 3e 63 be 1e 05 77 3d 1c 6c 73 3e
       -0.2961195 -0.22191623 0.060307615 0.23771709

net.0.bias f4 [256]
000000 3b e1 20 be 7c d8 0c 3d 10 33 61 3d 76 2e 72 3e
       -0.15710919 0.034386143 0.054980338 0.23650536
000010 b2 e3 42 be cd 5c 88 bd a9 e9 fa bd 7a 09 9d bb
       -0.19032171 -0.06658325 -0.122515984 -0.0047923895
000020 75 87 5d 3d 4a b5 d1 bd 6c 9b 89 be 17 73 e0 bc
       0.05408426 -0.10239656 -0.2687639 -0.02739863
000030 1a e7 75 bd 13 17 3e 3b 3f 7a c0 bd 30 f2 a2 bd
       -0.06003485 0.0029005453 -0.093983166 -0.0795635
000040 5a 88 40 3e 80 90 e2 bc 26 3c 01 3e c6 84 48 3e
       0.18802014 -0.027656794 0.12620601 0.19581899
000050 ce 25 e5 3d 60 f9 8a bc 14 c3 51 3d 6e d8 5a be
       0.11188851 -0.016964614 0.05121143 -0.21371624
000060 42 4b 93 be 85 a4 15 be f6 bc 36 3b af 43 a0 3d
       -0.28768355 -0.1461354 0.0027883626 0.078254096
000070 0b a7 41 3e 57 6f 2b 3e b7 26 01 3e 59 41 cf bc
       0.18911378 0.16741692 0.12612425 -0.025299715
000080 0d ad 64 be e3 e6 e1 3d 9f 83 59 be dc 17 91 3d
       -0.22331639 0.11030366 -0.21241616 0.07084629
000090 40 6c 64 be a3 39 c2 3d 16 3c 3c 3b d9 5f 13 3e
       -0.22306919 0.094836496 0.0028722337 0.14392032
0000a0 18 a9 fb bd fd a1 8a bd 9a d2 28 be fd ae 36 be
       -0.122881114 -0.06769178 -0.16486588 -0.1784019
0000b0 29 55 7e 3e 59 2a f8 3d ee fb 1b bd 50 94 86 3d
       0.24837174 0.12117452 -0.038082056 0.06571257
0000c0 16 c4 b2 3d eb 72 65 3d 86 64 34 3e 85 6a a7 3e
       0.08728807 0.056017797 0.17616472 0.32698455
0000d0 57 61 2d 3e fd 83 df 3d e7 5a b1 bd 93 5f 2e 3e
       0.16931663 0.10913847 -0.08659916 0.17028646
0000e0 93 16 d9 bc f4 ea 1e 3e 48 1a 6b be 56 1f 3b 3e
       -0.026500022 0.15519315 -0.22959244 0.18273672
0000f0 40 a0 3e 3e ab 77 19 3e ad c1 06 3d 13 08 cb 3c
       0.18615818 0.14987056 0.032899547 0.024784124
000100 f7 a4 9e bd 60 bf dc bd 54 03 3e be 1e f3 e9 bd
       -0.07746308 -0.107786894 -0.18555957 -0.11423324
000110 45 25 26 be 55 94 3e bd c1 7a 03 3c 81 ca ad 3d
       -0.16225155 -0.04652818 0.008024872 0.0848589
000120 ed 9b 0c 3e c5 70 99 3d 34 4d 9f bd ae c1 af bd
       0.13731356 0.07492212 -0.07778397 -0.08581863
000130 9a b1 20 3e 98 de 2f 3e 17 08 e0 bd e0 5e 31 be
       0.1569275 0.17174757 -0.10939043 -0.17321348
000140 90 55 27 be 73 8a 00 3e 1f 72 16 3e 2d 69 6c 3d
       -0.16341233 0.12552814 0.14691971 0.05771749
000150 31 0a 08 3e d8 3a dd bd 95 6e 38 3d bc 2e af bd
       0.13285138 -0.10802239 0.045027334 -0.08553836
000160 b3 48 4c bd 28 0d 8e 3d 63 ee ae bb f5 46 81 be
       -0.04987402 0.06936103 -0.0053384765 -0.25249448
000170 f1 1b 96 bd 78 78 2c 3e 5d 29 6a 3e d2 aa e7 3d
       -0.07329548 0.1684283 0.22867341 0.11311878
000180 80 84 f9 3d 63 ce 49 3e 4d 83 20 be b4 96 b4 3d
       0.121834755 0.19707637 -0.15675087 0.08817807
000190 6e 97 de 3d 1d 8c 0e 3e 61 db 0c 3d fa 7e f6 3d
       0.10868727 0.13920636 0.034388904 0.120359376
0001a0 59 db 9e 3d 6b 8a c5 bc d3 eb 9d bb 4a 95 13 be
       0.07756681 -0.024113854 -0.004819372 -0.14412418
0001b0 b7 af b0 bc 1c a3 b8 bd b1 7a a3 3d a5 ed d9 3d
       -0.021568162 -0.09015486 0.07982386 0.1064103
0001c0 8a fa a4 b9 ef dd 46 be 08 2b de bd dc 3b 08 3e
       -0.00031467184 -0.19420598 -0.10848051 0.13304085
0001d0 5f 4a 0e be d4 8f 1e be 07 2a 90 3e c7 a6 11 3e
       -0.13895558 -0.15484554 0.28157064 0.14223777
0001e0 47 95 2e 3e b1 8c 0d be 06 7f a3 bd 36 1c fe 3d
       0.17049132 -0.13823201 -0.07983212 0.124077246
0001f0 bb 98 89 be 1a 1e 18 be ac a0 6a 3e 72 23 73 be
       -0.26874337 -0.14855233 0.22912854 -0.2374399
000200 1b 0c de 3d bc 82 57 be 55 8d b6 3d a6 e1 71 bd
       0.10842153 -0.21045965 0.08913676 -0.059053086
000210 fb 41 2f be 27 37 07 be 82 d8 4c 3e de 2e 25 3e
       -0.17115013 -0.13204633 0.20004466 0.1613116
000220 1c f9 3a bd e6 a7 0b 3e 7a 17 cf bd 3b a3 0c be
       -0.045647725 0.13638267 -0.101119 -0.13734142
000230 ce 08 a2 3e c6 ec 34 be 21 0c 30 be 42 30 52 be
       0.31647342 -0.17668447 -0.17192127 -0.20526221
000240 f5 ac 3b 3e 04 7f 76 be 46 84 34 3e 33 b4 4b 3e
       0.18327697 -0.2407189 0.17628583 0.1989296
000250 bf f9 ba bd a9 7a 5f be e8 93 27 be 3d fa 20 be
       -0.091296665 -0.21824135 -0.16365016 -0.15720458
000260 16 49 93 ba ef 5c 54 3e c7 30 3f bc f4 62 d7 bc
       -0.0011236991 0.20738576 -0.011669344 -0.026292302
000270 10 91 03 3e ee 01 81 3d 5f de f1 3d 2e f7 cd bd
       0.12848306 0.06299196 0.11809992 -0.100569114
000280 8b d1 7c 3e 03 fa 0f be 45 3d e2 bd 9e 70 3d 3e
       0.2468931 -0.14060216 -0.110468425 0.18499991
000290 1f 71 cd bd 16 1f 45 bd 3b 6a 72 be 88 e4 c1 3d
       -0.10031342 -0.04812535 -0.23673336 0.09467417
0002a0 3d 5e 48 be 06 58 a3 be 2e 10 1f be 77 c8 62 3e
       -0.19567199 -0.31903094 -0.15533516 0.22146784
0002b0 27 7a 96 3e 66 5e 61 3e 36 de f1 bd a0 41 7a be
       0.2939007 0.22008666 -0.118099615 -0.24439096
0002c0 cf 2d 58 3e 70 de 8c 3d cc 9d a4 3d df b4 c6 3b
       0.21111225 0.06878364 0.0803791 0.006064042
0002d0 79 e3 30 39 0c 8f 2c 3e 0b d1 2d 3e d3 e0 97 3c
       0.00016869408 0.16851443 0.16974275 0.018539822
0002e0 93 16 92 3c 61 54 01 be b3 d9 98 3e 85 17 3f 3e
       0.01783303 -0.12629844 0.2985359 0.18661316
0002f0 e4 a4 06 be 1d b1 7b 3e 9b 6a 13 3d 57 e0 24 3b
       -0.13148838 0.24579282 0.03599034 0.002515813
000300 fa d5 47 3e 48 41 25 3d 47 45 81 3c 62 e7 bd 3d
       0.1951522 0.04034546 0.015780104 0.092726484
000310 5d bc 15 3e 25 76 8a 3e 76 ca 61 be 6b f4 35 be
       0.14622636 0.27043262 -0.22049889 -0.1776902
000320 8e ab 8d bb d4 22 81 be cf 89 f8 bd c6 3c 88 be
       -0.0043234294 -0.25221884 -0.1213566 -0.26608866
000330 d0 f1 29 be 21 c8 03 3e ab 54 36 3d dc 5d 6b 3e
       -0.1659615 0.12869312 0.04451434 0.22985023
000340 bc f8 37 be 86 a6 41 3e c9 08 3d be 42 09 17 be
       -0.17965978 0.1891118 -0.18460383 -0.14749625
000350 9b ae 8e 3d 6a 98 96 3e 04 6e ce 3c f1 13 52 bc
       0.06966897 0.29413158 0.025198944 -0.012822137
000360 50 5e 00 3e ff 6a 61 3e f8 8a 29 3d 49 bd 05 3e
       0.12535977 0.22013472 0.041392297 0.13060488
000370 5f e8 2f bd 09 dd 87 be 7e 12 10 be 9c e2 38 3e
       -0.042946216 -0.26535824 -0.14069554 0.18055195
000380 d1 9f 30 be 49 1d 6c be c7 ba d5 3d 43 dc df bb
       -0.17248465 -0.23058046 0.104360156 -0.006831677
000390 32 05 46 be f0 d9 18 3e 4c 79 1c 3e 22 0b 9e bc
       -0.1933792 0.14926887 0.15280646 -0.019292418
0003a0 ea 32 1b bc 18 fb da bc 0d cc 6a 3e d2 56 b5 3c
       -0.009472588 -0.026731059 0.22929402 0.022136126
0003b0 01 2e 1e 3d 70 96 07 be 59 a5 81 3d 2f 95 e4 bd
       0.03861809 -0.13240981 0.06330366 -0.11161267
0003c0 62 20 02 be 1c 05 0c 3e 61 e4 fb bb 28 50 9b 3e
       -0.12707666 0.13673824 -0.007687137 0.30334592
0003d0 45 90 a5 bd c6 aa 69 be 02 cd fe 3d 08 fd f5 3d
       -0.08084158 -0.22819051 0.12441446 0.120111525
0003e0 b4 73 f7 bd 87 5c 3b be 79 b7 ec 3d b5 d4 49 3e
       -0.120826155 -0.18297015 0.11558432 0.19710048
0003f0 3b e4 d5 bd a6 4f b6 bb a4 46 f0 3d 2f 0c 80 bc
       -0.10443922 -0.005563694 0.11732224 -0.01563081

net.2.weight f4 [256, 256]
000000 65 e1 94 3c 22 11 26 bd 3d 06 05 3c f2 92 5c bc
       0.018173883 -0.040543683 0.008119163 -0.013462769
000010 1b 29 83 3d b3 cf 5e bd 8d 1f 2f 3d 79 ae 12 be
       0.064043246 -0.054397296 0.0427547 -0.14324369
000020 14 5c 40 3b 9d 8e 9e bb c8 c9 12 bb 70 f5 24 3d
       0.0029351758 -0.004838778 -0.0022398103 0.04027313
000030 1b 09 82 3d 08 3d 3b 3c 97 6d 64 bd 78 fe 4a bd
       0.06349393 0.011428125 -0.055768576 -0.049559087
000040 ad 1c 48 bd 42 33 11 3c af 17 64 bc 7f fb 27 3b
       -0.048855472 0.0088623185 -0.013921662 0.002563208
000050 3d ea c4 bc 16 eb 46 bd fd 4d a1 bd 68 ab b0 3c
       -0.024037475 -0.04856404 -0.07876203 0.021566108
000060 bd 20 d9 bd cd 10 a3 3c 8a de 2c 3d fa 53 cb bd
       -0.106019475 0.019905472 0.042204417 -0.09928127
000070 93 50 44 bd 17 4b c2 bd 4e 8c e1 bb df f3 f7 bc
       -0.047928404 -0.094869785 -0.0068831807 -0.030267654
000080 99 b2 32 bc 33 93 26 bd 52 30 10 bd ee 59 f7 bc
       -0.010906839 -0.040667724 -0.03520233 -0.030194249
000090 a5 47 0c 3c 3c 36 d0 bc c7 83 03 3c e1 f7 89 bc
       0.008562003 -0.025416486 0.008027024 -0.01684183
0000a0 6d b7 06 3d b6 6b 4d bd 41 05 c5 bc 10 87 ba 3c
       0.032889772 -0.05015155 -0.024050357 0.022769481
0000b0 32 91 69 bd ad 36 e0 bb 44 4b 14 3d 93 9c 7a bd
       -0.057023235 -0.0068424554 0.03620459 -0.061184477
0000c0 99 11 5a bc 0b 8b 82 3c 44 c2 44 bc 38 25 31 bd
       -0.01330986 0.015935441 -0.012009207 -0.043248385
0000d0 ca 43 04 3d e7 3f 00 3d b0 95 fe bc 8d 9d 8f bd
       0.03229121 0.031310942 -0.031077236 -0.07012472
0000e0 b9 ea 24 bd f6 78 47 3d 7b be 39 bd e7 5d 38 bc
       -0.04026291 0.04869934 -0.045347672 -0.011252857
0000f0 94 a2 25 bd 6c 61 a3 3c 24 88 66 bd 6f aa db 3c
       -0.04043825 0.019943915 -0.056282178 0.026814668
000100 a5 6d 49 3d 15 1a ef 3b 3d 80 27 3d 6e 6c 2c bd
       0.04917683 0.0072968104 0.040893782 -0.042095594
000110 5b 00 a9 bd 84 91 85 3c ea ab a9 bb 7e fb 84 bd
       -0.08252021 0.016304739 -0.0051779645 -0.06493281
000120 7d e1 07 3d 1d 08 61 3d 6e bf 92 bc 1a cb 95 bd
       0.033174027 0.054939378 -0.017913546 -0.07314129
000130 12 48 c7 bb c0 8d 19 be c7 36 32 3d 9a bd 7a bc
       -0.0060815895 -0.1499548 0.04350927 -0.015303994
000140 fc e6 0e bd 42 f4 aa b7 e0 90 38 bc b5 36 67 bd
       -0.034888253 -2.037932e-05 -0.01126501 -0.056448657
000150 52 64 73 bd 24 d6 7e bd 90 3b 70 3d 22 2f e9 bc
       -0.059421845 -0.06221594 0.058650553 -0.028464857
000160 86 75 22 bd f3 35 74 bd 6a 05 0b 3d 8c 3b 9c bc
       -0.03966286 -0.059621762 0.03394071 -0.019071363
000170 f3 3e 52 bd 58 ef 7d bc d0 5c 8e bd f2 1c c4 bd
       -0.051329564 -0.0154989585 -0.06951296 -0.095758334
000180 45 eb 7c bd e3 1c cb bc 79 ba 97 3d f8 c7 c6 bd
       -0.061747808 -0.024794048 0.07408614 -0.0970611
000190 dc 05 05 bd 0d cf 91 bd de 09 10 bc 47 e4 35 3d
       -0.03247629 -0.0711957 -0.008791415 0.044407155
0001a0 e6 df 8b 3c fb de 7c bc 7d bc 11 3b 01 79 2c 3d
       0.017074537 -0.015434022 0.0022237592 0.042107586
0001b0 a8 45 73 3d d0 fe d8 3c 7e 1b 56 bd 48 c6 a5 3c
       0.0593926 0.026488692 -0.052272312 0.02023615
0001c0 68 be 86 bd 03 8c 90 bc ee 53 54 3d 5f 75 99 3a
       -0.06579286 -0.017644888 0.051837854 0.0011707953
0001d0 ad 65 f0 3b 09 0a c3 3b fb 8c 16 3a 4c f5 6b bd
       0.0073363394 0.005952124 0.00057430536 -0.05760698
0001e0 64 29 46 3d 90 63 72 3c 17 4b 38 3d 88 9a d3 bc
       0.048379317 0.014794245 0.044993486 -0.025830522
0001f0 33 65 48 3d b5 bf ad bc d1 b8 22 bd 18 d5 ac bc
       0.048924636 -0.021209577 -0.039727036 -0.021097705
000200 00 de 0a 3d 2c 27 84 bd 6c bf 52 bd 30 8a 06 bb
       0.033903122 -0.06452784 -0.051452085 -0.0020529144
000210 8f e0 87 3d e1 be 80 bd a3 9a 87 bd 40 91 bf bc
       0.06634628 -0.06286407 -0.066212915 -0.02338469
000220 d8 cb bc bd b1 ca 90 bd a0 bf e4 bc 68 25 a5 bc
       -0.092185676 -0.0706991 -0.027923405 -0.020159438
000230 7d f3 3a 3d 2e c4 00 3c 8c af 71 bd 01 1f e6 3c
       0.045642365 0.007859273 -0.059005305 0.028090956
000240 4f 3f ad bc 9b be 33 3d 78 26 4c bd 5f 66 fb bc
       -0.021148352 0.043882947 -0.049841374 -0.030688463
000250 56 bc 91 bd 95 51 3a 3d 9f 3c 11 3d 43 89 c2 bc
       -0.07116 0.04548796 0.035458203 -0.023747092
000260 73 82 d3 3a dc fa a7 3d a9 a2 81 3d 96 42 9e 3d
       0.0016136899 0.082021445 0.06329853 0.07727544
000270 2f 70 af bb ae ff 92 bc f6 f1 90 bd 17 21 8e bd
       -0.0053539495 -0.017944183 -0.070774004 -0.06939905
000280 ba cb e2 3c cd b0 a0 bd e4 db 48 bd 7a b9 ae 3b
       0.027685035 -0.07846222 -0.04903783 0.005332169
000290 9d 81 95 bd a7 a0 d8 3c b8 08 c8 38 fd 6c e0 3a
       -0.073001124 0.026443793 9.538367e-05 0.0017122325
0002a0 e1 0d 2a bd 42 6d 58 bc 22 79 d8 bb a0 b4 d2 3c
       -0.041517142 -0.013209643 -0.006606237 0.025720894
0002b0 54 4b c4 3c 6e 60 6b bd 91 0d e6 bc 08 f2 15 bd
       0.0239617 -0.05746501 -0.02808264 -0.036607772
0002c0 71 fd dc 3c 0e 25 c4 3b d6 93 6f bd c7 8e 85 bc
       0.026976319 0.0059858626 -0.058490597 -0.016303433
0002d0 d0 c8 26 bc 80 e8 b3 bd 84 2d 9e bc 95 38 47 bd
       -0.010179713 -0.0878458 -0.019308813 -0.048637945
0002e0 a2 69 48 3d d5 58 1d 3d 8c 54 07 3c 69 c3 07 bd
       0.048928864 0.038414795 0.008259904 -0.033145342
0002f0 47 ec 7c bd e7 67 a5 3c 9b 5b 27 bd 3a 60 b4 bd
       -0.06174877 0.020191146 -0.040858846 -0.08807416
000300 09 20 78 bd 90 be 0a 3d 6a 3c 84 3d 23 99 51 bd
       -0.060577426 0.03387314 0.064568356 -0.051171433
000310 33 41 5a bc 46 fd df 3c 31 18 ab bd 48 a6 61 bc
       -0.013321209 0.02734245 -0.083542235 -0.013772555
000320 23 fc 77 bd 35 fd fc ba c6 35 23 3d d0 4a 30 bd
       -0.06054319 -0.0019301536 0.039846204 -0.043040097
000330 52 ad 87 bd dd 0d c8 bd 81 13 01 bd d2 47 bd bd
       -0.06624855 -0.09768269 -0.03151274 -0.09242214
000340 97 b6 be 3a b5 e5 5e bd 9c 57 ac bd 8f 7d bc bd
       0.0014550266 -0.054418284 -0.08415148 -0.09203636
000350 d9 9c 35 bd 4a 4e 46 bc db 97 2f 3d be 49 44 bd
       -0.044339035 -0.0121036265 0.04286943 -0.04792189
000360 0b c9 e3 bb 15 28 e2 bd 86 24 08 3d 84 6f 95 3c
       -0.0069514564 -0.11042801 0.033237956 0.018241651
000370 b5 d3 44 3d c7 e9 cd bd 2a 96 91 3d 1a b6 a7 bd
       0.048053462 -0.10054355 0.0710872 -0.0818903
000380 25 90 2e 39 49 2d fc bc 02 3c 83 bc f1 6a b6 3a
       0.00016647631 -0.030783312 -0.016019825 0.0013917369
000390 36 da b4 bc 9d 23 b8 3c 26 87 b4 bd 69 05 ea bd
       -0.022076707 0.02247792 -0.0881484 -0.11426813
0003a0 28 77 0e 3d 84 74 45 3b ec 07 00 bd 54 54 e3 bc
       0.034781605 0.0030129263 -0.031257555 -0.027750172
0003b0 80 43 84 3b bf 6c 08 3c c6 45 55 3a 33 f0 fb bd
       0.004036367 0.008326708 0.0008135702 -0.12301674
0003c0 e8 12 91 bc 0a 7c 76 3d cd 7a 02 be 56 0d 9e bd
       -0.01770921 0.060176887 -0.12742157 -0.077173874
0003d0 fc 08 dc 37 c6 0c 48 bb 29 be e3 bc d8 0d 37 3b
       2.6230227e-05 -0.0030525192 -0.027800636 0.0027931836
0003e0 09 0d 1e bd a2 58 c3 3c 2e 72 38 3b dc ab f2 bc
       -0.03858665 0.023845974 0.0028144228 -0.029622965
0003f0 90 c2 a7 bc ba ad 07 bc 82 39 82 bd 5c 06 96 3c
       -0.020478517 -0.008281166 -0.06358625 0.01831358

net.2.bias f4 [256]
000000 5e 0f 5f bd f3 61 94 bd fb d1 ba 3c ac 7f 63 bd
       -0.054458015 -0.07245245 0.022805205 -0.05554168
000010 54 02 19 3d eb 3d 51 bd d1 04 8b 3d 48 92 b9 bc
       0.037355736 -0.05108444 0.06788028 -0.02265276
000020 d3 8d 24 bd 05 99 19 3d ef 4b 13 3c e9 07 1e bd
       -0.040174317 0.037499446 0.008990272 -0.038581762
000030 05 cc 1c bb 3e 2d 34 bb 10 29 2d bd b1 eb 2b bc
       -0.0023925316 -0.0027492787 -0.04227549 -0.010493205
000040 a5 fe 9a bd fb 33 2a 3d ad 9f b6 bc f5 02 82 3d
       -0.07568101 0.04155348 -0.022292936 0.0634822
000050 2b 9d 65 bc 74 ea 8e 3d 47 90 a6 bd f3 47 20 3d
       -0.014014523 0.06978312 -0.081329875 0.039131116
000060 bd 62 6c bd f4 96 ad bc 14 c4 b4 3b 6c 81 19 3d
       -0.05771135 -0.021190144 0.0055165384 0.037476942
000070 17 39 6c 3d 2b 08 ee bc d2 4a 91 bd 33 67 60 3d
       0.057671633 -0.02905663 -0.07094349 0.05478592
000080 f0 ff 2e bc e6 a0 c9 3c a4 61 37 3d 12 03 8a 3d
       -0.010681137 0.024612855 0.04477085 0.06738867
000090 93 93 f5 3c 33 a3 77 3d aa 5c 66 3d fe d8 8b bd
       0.029977595 0.060458373 0.056240715 -0.06828497
0000a0 b5 88 1e bd 1a 0a bc bc 3e 96 bd 3b 95 9f 0b 3c
       -0.038704593 -0.022954036 0.0057857325 0.008521934
0000b0 55 13 5e b8 0f 20 35 bd b8 1f 24 bd 78 93 48 bd
       -5.294693e-05 -0.044220027 -0.04006931 -0.048968762
0000c0 dc 10 8c bd 6a ca 0d 3d c1 dc 47 bb 94 be 83 bc
       -0.06839153 0.034616865 -0.003049657 -0.016082086
0000d0 4a 12 8b bd 02 cd e2 bc 1b 3e 33 bd 0e 5b 3f bd
       -0.06790598 -0.027685646 -0.0437604 -0.046717696
0000e0 59 63 41 3d 8f e4 2e bd 78 ee 03 bd 4a 7a 35 bb
       0.047213886 -0.04269844 -0.032209843 -0.0027691298
0000f0 9a d7 87 3c 50 07 48 bd 25 d6 78 bc 3c 8f c5 bb
       0.016582299 -0.0488351 -0.015187775 -0.0060290378
000100 d0 34 90 3c e5 6a 3f bc 53 3c 9f 3c a3 db a4 3b
       0.017603308 -0.0116832005 0.019437945 0.0050310655
000110 0b af 15 bd b6 6e 76 3d 0b be 90 3c 34 bf 06 3d
       -0.036543887 0.060164176 0.017668745 0.03289719
000120 8e 56 68 bd ae f7 a0 bd e1 69 9a bb 58 7b 4b 3d
       -0.05672317 -0.07859741 -0.004712329 0.049678177
000130 55 dc 24 bb f8 1b c6 3c 3a e8 83 bc 7c 64 0f 3d
       -0.0025155742 0.024183258 -0.016101945 0.03500794
000140 19 1c a8 3c df 39 30 3a 05 ef b0 3d 8d 28 52 3c
       0.02052121 0.00067224907 0.08639339 0.012827051
000150 7e 79 1e 3d 9f 9b 93 3c 48 7a 44 bd 1f f6 26 3d
       0.038690083 0.018018542 -0.04796818 0.040762063
000160 bd be 40 bd 99 26 ee bc 59 9f 38 3d c6 2e be 3d
       -0.047056902 -0.02907114 0.04507384 0.09286265
000170 ab c0 73 3c 90 04 4d bc ad 50 85 3d ba f8 00 bd
       0.014877479 -0.012513295 0.06509528 -0.031487204
000180 74 03 e8 3b dd e4 6c bd 1c 82 c3 3b 94 93 33 3c
       0.00708049 -0.05783545 0.005966438 0.010960478
000190 8c 03 1d 3d fa c7 f6 3c 6e 4e 2d 3d 00 a8 eb bb
       0.03833346 0.030124653 0.042311125 -0.007191658
0001a0 27 63 01 bd 2e 23 0f bc de 52 df 3c e2 bb 3f 3d
       -0.0315887 -0.008736415 0.027261194 0.04681004
0001b0 c2 e4 7a bc 0a 57 1d 3d 8b f9 1f 3d f8 c7 c7 3b
       -0.015313329 0.038413085 0.039056342 0.006096836
0001c0 db 01 64 bd 08 b3 71 3d ae f5 a0 bd d2 28 f2 3c
       -0.055665832 0.059008628 -0.0785936 0.02956048
0001d0 72 a5 cb bc c0 52 09 3c f7 77 5b bc 56 26 c0 3b
       -0.024859164 0.008381546 -0.013395301 0.005863945
0001e0 9e 0f 39 bd 2a bb 27 bd 99 a8 77 bd 78 78 a5 3c
       -0.04518091 -0.040949978 -0.06046352 0.020199046
0001f0 d6 fb 9e bc 55 03 03 3d 9b 78 0b bd 9c e5 d3 bc
       -0.019407194 0.0319856 -0.034050565 -0.025866322
000200 72 94 02 bd f9 00 56 bd d8 5e 2c bd 4e 06 9f bc
       -0.03187985 -0.05224702 -0.042082638 -0.019412186
000210 42 84 37 3d bd f2 3b bd f0 21 f8 3b 1e c2 80 bd
       0.044803865 -0.04588579 0.007572405 -0.06287025
000220 ff ca 71 bd f3 bd 02 3e 8d 51 d0 bc 40 97 89 3b
       -0.059031483 0.12767772 -0.025429511 0.0041989386
000230 b7 c3 9d 3b 2f 60 49 3d 32 56 1e bc a3 33 8d bc
       0.004814591 0.049163993 -0.009664105 -0.017236536
000240 85 64 fd 3c 45 cf f5 bb 63 ba 5f bd 10 49 4c bc
       0.03093172 -0.007501515 -0.05462111 -0.012468591
000250 60 52 e2 3b e3 b2 82 3d b1 c9 66 bd f3 2e a0 bd
       0.0069067925 0.06381776 -0.05634469 -0.07821455
000260 93 35 8b 3d 56 a9 a2 3c 35 ab bb 3c ce 29 e9 bc
       0.06797328 0.019856136 0.022908786 -0.028462317
000270 2a 5c e3 bc 85 e5 99 3d 75 74 b6 bc 63 e6 9f 3a
       -0.027753908 0.075144805 -0.022272328 0.0012199398
000280 cf 23 e1 bc 71 58 bf 3c 1f 79 9b bb 52 8a 16 3d
       -0.027482895 0.023357602 -0.0047446634 0.036753006
000290 7d 2f 11 3d e6 82 b8 3c e5 94 4c bb 1d 69 0d 3d
       0.03544568 0.022523355 -0.0031216678 0.034524072
0002a0 90 d7 d2 bd 1c 25 98 3d 54 b1 e6 bc 46 27 9a bb
       -0.102950215 0.07428953 -0.028160729 -0.004704389
0002b0 61 40 6d bd e9 e1 9b bd 62 c5 6e bd 25 77 85 3c
       -0.057922725 -0.07611448 -0.058293708 0.016292164
0002c0 89 47 31 3d b4 78 cb 3a 54 b9 1b 3d da 6a 78 3d
       0.043281112 0.0015523643 0.03801854 0.060648777
0002d0 b2 e9 87 bc f5 b9 48 3d b0 cb c3 bc f3 ac e0 bc
       -0.016590927 0.049005467 -0.023900837 -0.027426219
0002e0 4f c1 42 3d 7c 3a bd bd 22 91 b4 bb ee fb 96 bd
       0.047547635 -0.09239671 -0.0055104652 -0.073722705
0002f0 25 b8 bc bb a7 63 05 3d 98 2d 0f bd 6f 0d a4 3c
       -0.0057592564 0.03256574 -0.03495559 0.020025937
000300 38 d3 e4 3b 72 61 0a bd 39 cb a8 3c 8b ed 1f bd
       0.006983187 -0.033784337 0.020604717 -0.039044898
000310 be 47 57 bc 95 6b 24 bd 93 d5 b7 bd 25 0a 63 bb
       -0.013139663 -0.04014166 -0.08976283 -0.0034643498
000320 3d 4c 27 bc 76 31 73 3c c8 54 60 bd 3b 79 7d bc
       -0.010211048 0.014843335 -0.054768354 -0.015470798
000330 28 f8 6a bd bc 5f 91 bc ec 58 18 3c eb 4c 89 bc
       -0.057365566 -0.017745845 0.009298544 -0.01676031
000340 21 d0 8c 3d ac 9c 05 bd 74 8e 87 bd 99 58 94 bd
       0.06875635 -0.032620117 -0.06618968 -0.07243461
000350 4d 82 37 bd 98 90 73 bb c2 e6 4e bd 49 ca 9d bc
       -0.044802 -0.0037165042 -0.050513037 -0.019261496
000360 de 02 7d 3c 8b d2 a2 bd db d7 4c bc cb 33 d6 bc
       0.015442578 -0.07950314 -0.012502636 -0.026147744
000370 9d bf 72 3d e6 49 86 bd f4 62 64 bd 73 3b ff bc
       0.059264768 -0.06557064 -0.05575843 -0.031156277
000380 e0 d0 43 3b 02 eb cd ba 68 8e ea bc b3 04 e0 bc
       0.0029879138 -0.0015710297 -0.028632358 -0.02734599
000390 f3 7e 1c bd ee 20 70 bc 5b 98 1d bd 69 83 2b bd
       -0.038207006 -0.014656289 -0.038475376 -0.04187337
0003a0 9f 3a 0d bd 56 ab 5f 3d 95 0d 18 bd 99 ba c0 3c
       -0.034479734 0.054606758 -0.037122328 0.023526477
0003b0 f5 3c 4e 3d f8 67 7e bd 8e c8 8b 3d ae 13 87 bd
       0.050351102 -0.06211087 0.06825362 -0.065955505
0003c0 36 66 1d bd c4 91 15 bc 42 c6 75 3d 1f fd ca bc
       -0.038427554 -0.0091289915 0.060003527 -0.0247789
0003d0 48 42 37 bd b6 cd a6 3c ec d9 0e bc 10 48 f6 3c
       -0.044740945 0.020361762 -0.008718949 0.030063659
0003e0 a1 fe 88 3d fe 02 85 bd f7 74 5e 3d d8 08 a6 bc
       0.066891916 -0.06494711 0.054310765 -0.020267889
0003f0 be 2e 9d 3c c0 f9 8f bd 7b f9 3e bd e5 8d 6a 3c
       0.019187327 -0.07030058 -0.046624642 0.014316057

fc_logits.weight f4 [3, 256]
000000 a7 96 c8 bd 5d ad 9f 3d 72 b8 33 3d f6 9a a7 3d
       -0.0979436 0.07796738 0.043877073 0.08183853
000010 e3 a9 bb 3d 58 7e 73 bc 50 6a 6c bd 95 26 92 bc
       0.09163263 -0.014861666 -0.057718575 -0.017840663
000020 df ab dd 3d b4 46 ea 3c 9a c3 29 bd 44 41 8d bd
       0.108237974 0.028598167 -0.041446306 -0.06897214
000030 92 46 12 be 89 93 8c bc bf 95 2c 3d 02 53 61 3d
       -0.14284733 -0.017160194 0.042134997 0.055010803
000040 b1 5c 99 3c ff 07 89 bd 1b 74 ae bb d2 58 4f bb
       0.018720957 -0.06690978 -0.0053238994 -0.0031638634
000050 70 3a ef bd 77 ab b0 3d 9d 07 53 bd 48 24 56 3d
       -0.11681068 0.08626454 -0.051520932 0.052280694
000060 f5 86 66 3c 2d c5 a7 3d bb b9 b5 3d 55 95 ca 3b
       0.014070262 0.08191905 0.08873316 0.0061823525
000070 61 2b 08 bd d5 39 4d 3d 62 ee cf 3d 8c 96 ad 3d
       -0.033244494 0.05010398 0.1015289 0.0847598
000080 60 57 12 be de 50 f7 3c a7 35 85 3c 25 2d ad bd
       -0.14291143 0.030189928 0.016260935 -0.08455876
000090 8f 81 6b bd 37 1f 99 bd e2 28 c7 3c 5d d3 6a bd
       -0.057496604 -0.07476657 0.024311487 -0.057330478
0000a0 68 10 9a bd 37 bc c9 bd 9f 3f 6b 3c 18 f3 f4 3c
       -0.075226605 -0.09850352 0.01435843 0.029901072
0000b0 c6 3b da 3d dc 7d 75 bd f0 95 07 bc 4f 8d 4f bd
       0.10655932 -0.059934482 -0.008275494 -0.05067187
0000c0 9c af e6 3c d5 27 3a bd 81 86 dd bc da 7b 2a be
       0.028159909 -0.045448143 -0.027041676 -0.16648808
0000d0 35 d9 23 bd 2a 51 7c 3c 0f cc 03 3d ed 49 43 3d
       -0.040002067 0.01540021 0.032177027 0.047677923
0000e0 90 5d 1e bd c1 93 b5 3d 5f af 3e 3d 07 75 de 3c
       -0.038663447 0.088660724 0.046553966 0.027155412
0000f0 d9 e2 f1 3c b3 21 83 bc 04 c8 25 3d 2b ed 53 3d
       0.029527115 -0.01600728 0.040473953 0.051739853
000100 3a e1 a3 3d 89 cc 3c 3e 1b dc 14 bc b5 05 33 3d
       0.08001943 0.18437399 -0.00908568 0.043706615
000110 56 ef e5 3c ff d0 66 3d f7 c1 0c 3d 79 fa 53 3d
       0.028068226 0.056351658 0.034364667 0.05175254
000120 04 75 a8 3d da 03 1d 3e c3 e8 e2 3c 01 ba 62 3c
       0.08225444 0.153335 0.02769888 0.013838292
000130 f5 17 2e 3c 0a be 37 3d 27 e2 2e bd c2 e6 b6 3d
       0.010625829 0.04485897 -0.042696144 0.08930732
000140 e6 b6 32 bd 52 4e 31 3d 64 7b b5 3d bc c4 73 bc
       -0.043631457 0.043287583 0.088614255 -0.014878448
000150 d9 44 2b 3e 24 e3 6d bd ee c8 3d 3d 45 e5 29 3e
       0.16725482 -0.058077946 0.0463342 0.16591366
000160 57 51 13 3d fe 03 68 bd 67 89 81 bd 2a 64 ff bc
       0.035966244 -0.056644432 -0.063250355 -0.031175692
000170 01 a9 26 3d 40 d3 2b 3c e5 7d a4 bd df 76 6e bc
       0.04068852 0.010487378 -0.08031825 -0.014554708
000180 8b 07 dd bc 01 ec c9 3d ef f0 48 bc a8 dc 40 bb
       -0.026981136 0.09859467 -0.012264474 -0.0029428396
000190 aa c0 55 3c 44 68 26 3e 71 14 53 3d 5f 1f b3 3d
       0.013046423 0.16250712 0.051533166 0.08746218
0001a0 b2 06 fa 3b 11 83 0d bd 61 20 ac bb 9a cb e5 3c
       0.0076301927 -0.034548823 -0.0052528833 0.028051186
0001b0 84 92 6a bb 86 3f 94 bd 1b 3b 5e 3d dc 39 9e 3d
       -0.0035792897 -0.07238679 0.054255586 0.077258795
0001c0 17 f1 1b bd b3 fc 84 3d a4 d8 2d 3d 34 75 71 bb
       -0.038071718 0.06493511 0.042442933 -0.003684354
0001d0 01 f3 b0 3d 27 4e 08 bd ce 9a a3 bc 07 54 bf 3d
       0.08640099 -0.033277657 -0.019971278 0.09342199
0001e0 b7 95 b0 ba e1 c1 1a 3d 6c 0b 31 be 33 11 88 3c
       -0.0013472353 0.037782554 -0.17289513 0.016609764
0001f0 19 a7 1b bd e6 75 8a bd c2 3f 91 bb d9 33 22 3c
       -0.038001154 -0.067607686 -0.0044326494 0.009900057
000200 8d fa 88 3c 9a 1f 13 bd ac e7 93 bd f7 f0 93 3d
       0.016721034 -0.03591881 -0.07221922 0.07223695
000210 55 4e 54 3d 67 65 c9 3c 44 91 92 3c e2 e9 28 3d
       0.051832516 0.024584485 0.017891534 0.041238673
000220 74 9f 58 bd 12 87 3f be 09 da 15 bc b0 55 71 bc
       -0.05288644 -0.18703869 -0.009146222 -0.014729902
000230 76 6c 2c 3e dc dc e3 3d 3c 96 1c 3d 09 18 b1 3d
       0.1683825 0.1112611 0.038229212 0.086471625
000240 47 56 aa bd 0c 1c 7b 3d bd 4d 77 3a 1c 45 56 bd
       -0.08317237 0.061306044 0.0009433886 -0.052312
000250 d9 c9 0a 3d 0b 11 9f bd 70 a8 e2 3b d9 30 b5 3c
       0.033883903 -0.077669226 0.006917052 0.022118019
000260 d7 01 bf 3d b7 44 4d bd 48 71 c9 3d 3a d3 e1 bb
       0.09326523 -0.05011436 0.0983606 -0.0068916352
000270 47 ae a6 bd b7 42 78 bd d3 c6 f6 bc 97 56 c8 3c
       -0.081387095 -0.0606105 -0.030124104 0.024455352
000280 ee 12 ed 3c ed 85 c4 bc a0 f2 e6 bb 47 ab fe 3d
       0.02893969 -0.023989642 -0.007047966 0.12435012
000290 b9 33 80 bc 6a 41 a9 bd fb 92 a1 3d e8 58 33 3d
       -0.015649663 -0.0826443 0.078893624 0.04378596
0002a0 84 6c 93 3b 41 a2 a1 bd 52 cb 26 3d b8 d7 c2 3d
       0.00449902 -0.078922756 0.040721245 0.09513801
0002b0 c6 3d 5c bb c7 e9 74 3d c9 3e a0 3d ae 03 4d bd
       -0.0033606156 0.05979326 0.07824475 -0.050052337
0002c0 c0 7c 63 bd 82 da 15 bd f8 47 37 3d ae f0 a2 bd
       -0.055538893 -0.03658534 0.04474637 -0.07956062
0002d0 35 b8 4f 3d 21 6d 4e bd 92 b1 36 3b fb f2 e2 3c
       0.050712783 -0.050397042 0.0027876836 0.027703753
0002e0 cf 83 53 3c e3 ce 8a bd 53 7d e4 bd 08 c9 fc ba
       0.012909844 -0.06777742 -0.11156716 -0.0019285986
0002f0 bd b6 00 bd 21 1a ba 3c 8a a4 89 3d a8 7b 23 3d
       -0.031424273 0.022717537 0.067208365 0.03991285
000300 34 aa a7 3d 82 05 01 3d 86 a6 56 3d 60 b8 b5 bc
       0.081867605 0.031499393 0.052404903 -0.022182643
000310 34 70 31 39 52 ee 88 3c e8 7b e9 bd 11 90 11 b9
       0.00016921834 0.016715202 -0.11400586 -0.00013881947
000320 2d 6b 08 bc c3 c7 38 3d ba 0d 52 bd ea 52 43 3d
       -0.008326334 0.045112383 -0.051282622 0.047686495
000330 a8 55 2e 3c 33 d1 71 bc e1 26 50 3d ea 78 15 bd
       0.010640539 -0.01475935 0.050818328 -0.036492266
000340 80 19 90 bc 3c 0d 1d 3c 7d 70 06 3d f2 1a 48 bd
       -0.017590284 0.009585675 0.03282212 -0.048853822
000350 e0 81 aa 3c 6c cf b4 bd 54 d9 21 bd fe 3a c0 3d
       0.020813882 -0.08828625 -0.0395139 0.09386252
000360 69 bb 16 3d 85 aa 70 bb bf 3d 65 bc bf 7c 38 3e
       0.036799822 -0.0036722731 -0.013991772 0.18016337
000370 6c ab cb bd 13 60 11 bd 2f ce 9a bc 80 bc 8e bc
       -0.099448055 -0.035492014 -0.018897144 -0.017423868
000380 1f 1c 30 bd 81 70 e5 ba 1c f2 7c bb aa a2 64 3d
       -0.04299557 -0.0017504842 -0.0038596457 0.05581919
000390 af e8 60 bd be 47 23 3c 2e 3b ec 3d 90 be 02 3d
       -0.054909404 0.009965835 0.11534725 0.031920016
0003a0 f8 20 35 3d d4 11 60 3d 3e 2b 63 bd 5e da a1 3c
       0.044220895 0.054704502 -0.05546116 0.019757446
0003b0 7b 61 27 3d 91 06 8a bd aa 19 15 be a0 3f 70 bd
       0.04086445 -0.06739534 -0.14560571 -0.058654428
0003c0 04 f3 44 bc 8c cf 06 bd 47 d2 70 3d b1 cd 0f 3c
       -0.01202083 -0.032912776 0.058794286 0.008777068
0003d0 17 8e f7 bd 4c 56 49 3d 70 38 1c 3d fd dd ef 3d
       -0.12087648 0.049154565 0.03813976 0.11712263
0003e0 bf 6d bc 3c 43 d8 03 3d 83 f9 c1 bb 53 8f 3b bd
       0.02300155 0.032188665 -0.0059196367 -0.04579098
0003f0 6b 2f 06 be e7 fb ec 3d 96 ae 34 3d 85 37 25 3d
       -0.13104026 0.11571484 0.04411181 0.04033615

fc_logits.bias f4 [3]
000000 c2 1d 51 bd 28 ee 17 bc 32 e7 11 3d
       -0.05105377 -0.0092730895 0.035620876
