PPO/trex_ppo_models/critic_ep900.pkl (torch, 282362 bytes, 5 tensors)

net.0.weight f4 [256, 14]
000000 9b ff 62 3d b5 af 1a 3e 02 06 e6 bd 8b 23 56 bf
       0.055419546 0.1510609 -0.11231615 -0.83647984
000010 4d 7c 61 bf 25 1b 7e 3e 88 e9 47 3d f3 0d 07 3f
       -0.8808029 0.24815042 0.048806697 0.5275566
000020 1f 5f f8 be db b5 13 3e 3b 8b 65 be 64 79 82 3d
       -0.48510072 0.14424841 -0.22416393 0.0637081
000030 99 61 a6 bc cd 12 29 3e 39 87 aa bc 4c 98 ea 3b
       -0.02031021 0.16511078 -0.020816432 0.0071592685
000040 68 80 49 bd 1a 76 09 bf 1e e9 bc 3e ac 52 9e be
       -0.049194723 -0.53695834 0.36896604 -0.3092245
000050 c5 37 64 be ce e2 81 be 1b 04 88 bb 5e 5e ab 3e
       -0.222869 -0.2536835 -0.00415088 0.33470434
000060 a5 77 2a bf 50 57 37 3d f7 c4 17 be d6 b9 15 bf
       -0.66588813 0.044761002 -0.1482123 -0.5848669
000070 c4 7b 6a be 08 5d 13 bf ed 3b f0 bc c5 ee 55 3f
       -0.22898775 -0.5756383 -0.02932545 0.8356746
000080 ff f7 20 be 28 cb a6 3e 4f 9e 1c 3e 99 05 97 3e
       -0.15719603 0.3257687 0.15294765 0.29496458
000090 d1 1c 85 3e dd 89 62 3e 00 94 3b 3f 3a 90 03 3c
       0.25998548 0.22122903 0.73272705 0.008029992
0000a0 35 5e 08 3b 3c 3f e0 3e b0 6b 0a bf 48 8d dc bd
       0.0020808105 0.43798244 -0.5407057 -0.10769135
0000b0 2c 67 0e 3d fb ae b9 bf 43 29 00 bf f2 fc 27 be
       0.03476636 -1.4506525 -0.5006296 -0.16405085
0000c0 d6 4c 39 3d 9f 7a 58 3e 21 26 a2 be 98 3d 50 3e
       0.045239292 0.21140526 -0.31669715 0.20335996
0000d0 d6 5e 76 be f8 8d 23 bd 0f 31 0b bf e1 b4 ec be
       -0.24059615 -0.039930314 -0.5437173 -0.4623175
0000e0 96 62 10 bd ea bb 5d bc e0 13 40 be c5 e6 2c bf
       -0.03525027 -0.013533572 -0.18757582 -0.67539626
0000f0 34 a0 9c be c0 0c bc 3e e1 9d 96 3e 1c ad 52 3e
       -0.30590975 0.36728477 0.29417327 0.20573848
000100 e4 ba 06 be 1d 20 c8 3e 75 94 1b 3e 98 f1 70 3e
       -0.1315723 0.39087 0.1519335 0.2352966
000110 d2 5d c3 be be 92 a3 3e 54 fd 44 3c 10 1a 63 bd
       -0.38157517 0.31947893 0.012023289 -0.055444777
000120 e7 58 ce 3d 7b 99 b9 be bb b8 58 bf d5 41 8d bd
       0.100755505 -0.3624991 -0.84656876 -0.06897322
000130 4d d8 47 3e a3 78 d4 3e d2 83 9d be b6 5a 82 3d
       0.19516106 0.4149829 -0.30764633 0.06364958
000140 1f 4b 3a be 8d 87 42 3e 54 61 af be 4b 29 e3 3d
       -0.18192719 0.18997021 -0.34253943 0.110918604
000150 62 4a 1a 3e 79 98 4f bb 8d 73 76 bd f0 82 81 bf
       0.15067437 -0.0031676574 -0.06016879 -1.0118084
000160 f2 98 c4 3e b2 68 bc be 60 28 bd 3d 07 37 d2 be
       0.38397938 -0.36798626 0.092362165 -0.41057608
000170 5a e3 eb be 93 9e 89 3e b9 f8 ea be ea c0 41 3e
       -0.46071893 0.26878795 -0.45892885 0.18921247
000180 bf 8d 20 bf 0e 1f 15 be 58 72 d5 be a3 86 c2 3d
       -0.6271629 -0.14562628 -0.416888 0.09498336
000190 09 85 6d bd 04 28 4e bf 89 c6 b7 3d 24 fa 75 3d
       -0.0579882 -0.8052981 0.089734145 0.060053006
0001a0 2c c3 0c bd 61 ec c4 be 55 d4 f7 be 45 09 3b be
       -0.034365818 -0.38461593 -0.48404184 -0.18265255
0001b0 9f a5 49 3d 95 92 66 be e0 90 b7 bc 25 57 d8 3e
       0.049230214 -0.22516854 -0.022407949 0.42253986
0001c0 19 ff 26 bd b5 80 46 bd 7b c9 6b be 45 82 eb be
       -0.040770624 -0.04846259 -0.23026077 -0.45997825
0001d0 eb 21 eb bd 63 b4 9b be 96 cf 42 bc 8f 6b 19 3e
       -0.11481079 -0.30411062 -0.011890313 0.14982437
0001e0 f6 4a d1 be 32 65 4d bc 99 78 e6 3d d1 62 60 bd
       -0.40877503 -0.012536334 0.11253471 -0.05478174
0001f0 56 15 32 bd 56 b1 05 be a7 11 34 3e 40 5d 27 3e
       -0.04347738 -0.1305593 0.17584859 0.16344166
000200 8c 9a 63 3d d3 cb db bc 03 75 19 be c1 88 f8 bc
       0.05556731 -0.02683059 -0.14986043 -0.030338647
000210 8f 94 98 be 66 fb fa bc 44 b1 9d be 69 1b f0 bd
       -0.2980084 -0.030637454 -0.30799305 -0.11723978
000220 6e 0e 85 3c 71 97 04 3e 1d 49 94 bd 59 2c 8b be
       0.016242232 0.12948395 -0.07240508 -0.27182272
000230 08 1b f9 3d 27 cc 70 be 65 df ff bd 0a 2a 07 bf
       0.12163359 -0.23515378 -0.12493781 -0.5279852
000240 15 ac e0 3d 5b 3a eb bd eb c4 bc 3d d8 c0 cb bc
       0.10970322 -0.1148574 0.092172466 -0.024872229
000250 da 01 ff bd 1f c4 5a be 7e eb a7 be 55 d5 6a 3d
       -0.12451525 -0.21363877 -0.32796854 0.057332356
000260 b5 ef b2 be db a1 4e bf 7f d3 91 3d ba 6b 21 3d
       -0.34948507 -0.8071572 0.07120418 0.039409377
000270 16 0e 9d bd eb ac 8e bf 8e 3a 62 be 9d 6b e9 3c
       -0.07668702 -1.114652 -0.2209265 0.028493697
000280 d1 56 50 be 31 89 99 3e 78 f9 08 bf 57 b0 43 be
       -0.20345618 0.2998748 -0.5350566 -0.19110237
000290 8b f2 c0 be 5c 7e a1 be b8 1b 34 3e 26 b5 1b 3e
       -0.37685046 -0.31541717 0.17588699 0.15205821
0002a0 09 d1 1a be d8 16 24 be a2 5a 80 be 28 3d e9 be
       -0.15118803 -0.16024339 -0.25069147 -0.4555447
0002b0 76 c7 92 bd 4d d7 ff 3d 51 3f 1b be 9c ee 8c 3e
       -0.071669504 0.12492237 -0.15160872 0.27525795
0002c0 24 60 4e be d1 a2 bd bc f9 15 25 be 61 aa 99 be
       -0.20153862 -0.023148926 -0.16121663 -0.300128
0002d0 24 81 92 be b7 76 c9 3d 02 68 0f 3e f8 fb 3f 3c
       -0.2861415 0.09837096 0.1400452 0.011717789
0002e0 a5 e0 1d be c4 c0 16 bf 07 98 23 3e 7b c5 0b bf
       -0.15417726 -0.58887887 0.15975963 -0.54598206
0002f0 bd 07 cc bd eb 35 d6 3d 72 3e 09 be 89 68 1a 3d
       -0.099624135 0.10459503 -0.13402727 0.03769735
000300 96 37 cf be 1f 3a 2d 3e 0b c6 5c bd 35 32 20 bf
       -0.40472096 0.16916703 -0.053899806 -0.6257661
000310 cc 57 9f 3d df 69 87 bd 85 f9 32 be df d3 23 bf
       0.07780418 -0.0661199 -0.17477997 -0.63995165
000320 d6 23 1b 3d 05 99 c4 be 66 1d 92 bc 37 0c 87 bd
       0.037875973 -0.38397995 -0.017836284 -0.06594127
000330 b7 f6 09 be d4 b5 c5 3d 8e fd bb be 33 56 42 3c
       -0.1347302 0.096538216 -0.36716884 0.011861372
000340 e6 d6 a3 3e fd fc 1e be 6b 7f 7a 3d b1 b6 10 be
       0.31999892 -0.15526195 0.06115667 -0.14132191
000350 ac a0 32 3e 79 30 46 c0 83 ce a6 bd 38 89 b2 bc
       0.17444104 -3.0967085 -0.08144858 -0.021793947
000360 a5 11 03 bc 1c ec 82 3d 56 0a 29 bf 3f a7 9d 3e
       -0.007999812 0.063926905 -0.66031396 0.3079166
000370 a7 a7 8a bd 5b 28 46 3e a5 e3 48 be b7 65 ff 3e
       -0.067702584 0.19351332 -0.1961809 0.4988229
000380 48 54 2f bd f9 a3 b4 bc 58 bc 44 be 45 6b 90 be
       -0.042804986 -0.022050845 -0.19212472 -0.2820684
000390 4d 40 18 ba fa 41 26 be 1b 8e 8a be 6d 30 1f 3e
       -0.00058079214 -0.16236106 -0.27061543 0.15545817
0003a0 bf 20 e2 bb f9 c5 30 3e 27 87 db be d7 34 f9 3d
       -0.0069008763 0.1726302 -0.4287655 0.121682815
0003b0 ec e8 79 bd 8a 89 27 bf 3d 6f 24 be ba 9a 74 be
       -0.061013147 -0.6544424 -0.16058059 -0.23887148
0003c0 b2 4d 00 be cb 93 80 be ed bf f9 3d 01 a6 2f be
       -0.12529638 -0.25112757 0.1219481 -0.17153169
0003d0 41 c1 cb 3d 32 02 26 3e d7 92 a3 be 84 76 b8 3c
       0.0994897 0.16211775 -0.31947967 0.02251745
0003e0 60 01 d6 bd d7 dc af bc 72 0a 66 be d2 35 55 3e
       -0.10449481 -0.02146761 -0.22464922 0.20821312
0003f0 1c 26 34 3e d1 61 3f be df 1f 04 be 4f 48 04 bf
       0.17592663 -0.18689658 -0.12902783 -0.51672834

net.0.bias f4 [256]
000000 fe ef 57 3e c2 a2 72 3e 58 76 ca 3e e6 93 23 be
       0.21087644 0.236949 0.39543414 -0.15974388
000010 40 13 f0 3d 1d 17 3b 3e 60 32 fb 3d a8 3e 89 bd
       0.11722422 0.18270536 0.12265468 -0.06701404
000020 47 9b 5c bb a1 56 73 be 24 64 0b be ba c8 82 3c
       -0.0033661888 -0.23763515 -0.1361242 0.015964855
000030 17 8f 35 be 41 b7 51 3d 5f 5b 99 bd 0e 6c c7 bd
       -0.17730366 0.051200155 -0.07488131 -0.09737407
000040 d7 c9 30 bc e1 b8 42 be 49 a8 12 3e 84 2a a0 bd
       -0.01079031 -0.19015838 0.14322008 -0.07820609
000050 02 5e b2 3d c3 f9 a4 be 1f 32 43 be 0c 1e a0 3e
       0.08709337 -0.32221803 -0.19062088 0.31272924
000060 a6 6c d8 3d 7a 0d bf 3c 0a 43 86 be 6b f5 a0 be
       0.10567598 0.023321856 -0.26223022 -0.3143724
000070 78 3d c7 ba ee 6a 66 bb c5 c1 57 3d 28 7e 82 3e
       -0.0015200814 -0.003515895 0.052675027 0.25486875
000080 dc 2e af 3c 05 a2 bd be 79 aa 90 be 12 9b 86 3e
       0.021384649 -0.37037674 -0.2825506 0.26290184
000090 2e 50 09 3e a0 87 e0 3b 91 16 e9 3d 5d 24 50 be
       0.13409492 0.0068521053 0.11381257 -0.20326371
0000a0 a4 8e ac 3d e4 2f 53 be 45 1f 5f ba 0d 57 76 3d
       0.08425644 -0.20623738 -0.00085114344 0.06014161
0000b0 56 52 7e be 0b 30 3e 3d ef b3 87 be ca 2b ad bd
       -0.24836096 0.046432536 -0.26504466 -0.08455618
0000c0 c1 51 38 3d d7 3c 7d be bc eb 9e 3e 73 c5 dc 3c
       0.04499984 -0.2473024 0.31039226 0.02694962
0000d0 3d d4 17 3e 7f f7 9b bd b8 92 a4 bd 1c 8f a5 3d
       0.14827056 -0.076155655 -0.08035797 0.080839366
0000e0 f7 ed a2 3d 63 b3 17 be 8a 7f 7c be ab 2d 4c be
       0.079555444 -0.14814524 -0.24658027 -0.19939296
0000f0 c3 2b 1b be 67 bb 36 3d 30 e9 7d be 1f 5d 86 be
       -0.15153413 0.044612315 -0.24795985 -0.2624292
000100 55 3f 9f 3d e1 86 18 bd 3c a3 67 be ee 28 06 3e
       0.077757515 -0.037238006 -0.22620863 0.13101551
000110 16 03 19 be 37 1b 6b 3d 9d 9e 6a be 4b c2 14 3e
       -0.14942583 0.057399 -0.22912069 0.14527242
000120 df 00 51 be 53 0b eb 3d c9 f5 f1 3d 6e e2 1c 3e
       -0.20410489 0.11476769 0.11814458 0.15320751
000130 44 92 7a be e0 b8 d0 3d 06 25 28 3c c5 bf 12 be
       -0.24469858 0.10191512 0.010262733 -0.14330967
000140 4e 9b 45 be c0 6a 0a be 8a 8c d8 3b cb 4a bf 3e
       -0.19297525 -0.13517284 0.0066085504 0.3736175
000150 ea ab 92 be 72 36 04 be bd f9 7d be 0f 2f 56 be
       -0.28646785 -0.12911394 -0.24802299 -0.20916389
000160 2c 6d 4f bc 21 03 ae bd 28 28 9a 3e bd 4d 40 bd
       -0.012660306 -0.084966905 0.30108762 -0.046949137
000170 5f 33 91 3d 08 47 44 be 1b d0 91 be 82 2d 48 3e
       0.070898764 -0.19167721 -0.28479084 0.1954861
000180 ab ad 61 be fb 65 1d 3e c2 13 15 bd 21 67 33 bd
       -0.22038905 0.15370934 -0.036395796 -0.043799523
000190 16 21 09 3e 42 0d d4 3d 7f 2f 49 3e 67 c4 39 3e
       0.13391528 0.10354091 0.19647025 0.18141328
0001a0 51 b7 94 3d b7 4d 43 be a9 f6 01 3e 50 4d 58 3e
       0.07261527 -0.19072615 0.1269175 0.21123242
0001b0 ac 29 8c 3e 81 43 04 be de 81 29 3e a3 cd fe bd
       0.27375543 -0.12916376 0.16553447 -0.12441566
0001c0 1b 74 7e 3e fc e3 04 be 27 7d d5 bd 22 75 25 be
       0.24848978 -0.12977594 -0.104242615 -0.16157964
0001d0 0f f1 20 3e 00 ae ed bd 92 b8 0b 3e 8d 38 1c 3e
       0.15716957 -0.116054535 0.13644627 0.15255947
0001e0 7b f7 17 be 10 88 44 ba c1 79 ae be cd e1 78 3b
       -0.148405 -0.00074970815 -0.34077266 0.0037976385
0001f0 4a ca b7 3d b4 d0 8b 3e c2 0e f4 bd e1 e1 6a bd
       0.089741305 0.27307665 -0.11916877 -0.05734432
000200 da d8 d1 3e 07 2e 53 be 97 3e 41 3e 72 9e da 3c
       0.40985757 -0.20623027 0.18871532 0.02668688
000210 b1 39 98 3d 4a d9 9c be e0 89 06 be d6 00 24 be
       0.07432879 -0.30634528 -0.13138533 -0.16015944
000220 3b 6e a0 3d 35 e9 2a 3d 47 87 7c bd 70 82 b9 3e
       0.07833525 0.04172631 -0.061652448 0.36232328
000230 9b 38 a4 bd 02 7b b1 3d 23 5f 83 be 81 5e 6d 3e
       -0.08018609 0.0866604 -0.2565852 0.23180582
000240 4e b0 f9 bd 2a ba 02 3e e5 d4 f9 3e 74 ce 1a 3e
       -0.121918306 0.12766328 0.48795238 0.15117818
000250 d7 b6 69 be 48 cd 89 3d 38 cf 35 be 3b c4 3c be
       -0.22823654 0.067286074 -0.17754829 -0.18434231
000260 d0 c4 1d 3d 97 75 8a be 3f c0 26 bd 28 b4 75 be
       0.038517773 -0.2704284 -0.040710684 -0.23994505
000270 cd fe 62 be 4f 46 b9 bd f7 16 b8 bc 2d 9e 9b 3e
       -0.22167511 -0.090466134 -0.022471888 0.30394116
000280 f0 84 37 be 1e fc 98 be 5d d9 cc 3b a2 81 47 be
       -0.17921805 -0.2987985 0.0062514977 -0.19483045
000290 c3 40 82 3d 69 2e 41 3d c5 9d a9 bc bc 6a a9 bd
       0.063600086 0.0471634 -0.020705113 -0.08272311
0002a0 ca 44 82 be b9 53 1b be fe 36 69 be 3a ae 03 3e
       -0.25443107 -0.15168656 -0.22774884 0.12859431
0002b0 31 9b 93 be 99 f6 35 bd 2e 93 26 be 9b 30 07 3e
       -0.2882934 -0.044424627 -0.16267082 0.13202135
0002c0 5e 0a 0f 3d e0 5a 64 bd fd 3b 02 3e ba f2 b8 3e
       0.034921996 -0.055750728 0.12718196 0.36122686
0002d0 42 da 02 be 60 07 f8 bd 51 4d 72 3d b1 74 2d 3e
       -0.12778571 -0.12110782 0.059155766 0.16939045
0002e0 10 5d 00 3e 3a 1a 98 3e 6d 11 a4 3d 9e ce 0f 3e
       0.125355 0.2970751 0.08011136 0.14043662
0002f0 5b 54 e8 bd c9 aa 79 be a4 b7 c3 be e3 2b f6 3d
       -0.113442145 -0.24381556 -0.38226044 0.120200895
000300 ac a7 0f be 85 01 59 be 69 67 91 be 07 64 a3 bd
       -0.14028805 -0.21191986 -0.28399208 -0.07978063
000310 48 09 08 3e 5d f1 77 3d 3d 9b ac 3c 9a 29 8f be
       0.1328479 0.060532916 0.021070117 -0.27961427
000320 fc 03 49 bd 07 ab 42 be ed dc 9c bd be f4 c4 3d
       -0.049076065 -0.19010554 -0.07659326 0.09616993
000330 6f 9f 23 3e eb 25 58 be cd 0b 9b be d4 57 d6 3e
       0.15978788 -0.21108215 -0.3028244 0.41863883
000340 7e ed 9a be 8e 55 09 3e 1f b2 58 be fb 38 16 3e
       -0.30259317 0.13411543 -0.21161698 0.14670174
000350 c9 93 85 bd 49 e8 15 3e 15 20 71 3e 0e 00 8b 3d
       -0.065223284 0.14639391 0.23547395 0.0678712
000360 cd dc a6 be 3d 50 cf 3d 28 50 4d 3c e9 56 d0 3e
       -0.32590333 0.10122726 0.012531318 0.40691307
000370 8b 8f 86 be 50 31 1d 3d 89 59 46 3e 16 e9 39 be
       -0.2628139 0.038377106 0.19370092 -0.18155321
000380 f8 65 0f bd 52 22 bb 3d 1e 4e 4e be 75 96 55 3e
       -0.035009354 0.091374055 -0.20146987 0.20858176
000390 60 9c 4d bc 40 ae 71 bc dd fe 9b bd 21 21 dc bd
       -0.01254949 -0.014751017 -0.07616971 -0.10748506
0003a0 52 85 b3 be e5 53 74 be 31 c7 8b bc e2 c3 6f be
       -0.35062653 -0.23860128 -0.017062755 -0.23414567
0003b0 48 68 13 3e 03 47 91 be 51 43 50 3e 15 7d 15 3d
       0.14395249 -0.2837449 0.20338179 0.03649624
0003c0 80 ec 13 be b3 ad e6 3d c9 96 55 be 20 31 f2 bc
       -0.14445686 0.11263599 -0.20858301 -0.02956444
0003d0 2d 65 8d 3e 5f ca 42 be 70 6e 6d 3d bd d9 5f be
       0.27616253 -0.19022511 0.05796665 -0.21860404
0003e0 e1 da c4 3e b3 58 94 3e 34 4e 08 be 88 e6 8a 3d
       0.3844824 0.28973922 -0.13311082 0.067822516
0003f0 30 9e 80 3d f7 89 2f 3e 02 e0 31 be 63 3d 9b be
       0.06280172 0.17142473 -0.17370608 -0.30320272

net.2.weight f4 [256, 256]
000000 01 04 c7 bb 5a 17 a7 3c db 49 86 be 57 6b e3 bd
       -0.0060734753 0.020396877 -0.26228222 -0.11104458
000010 83 71 93 be 12 ee 21 3d 47 6b e1 3d b4 27 8b bd
       -0.2879754 0.039533682 0.1100679 -0.06794682
000020 0a be a8 bc 32 5c b5 bc 9b a4 22 bd cc a0 23 3d
       -0.02059843 -0.022138689 -0.03970776 0.03994827
000030 c2 c8 20 be f1 41 9f bd 89 12 c9 3c bf 15 9f be
       -0.15701583 -0.07776249 0.024544971 -0.31071278
000040 89 91 06 bd 72 bb fd 3d c6 8d 32 bd ea f6 54 bd
       -0.032853637 0.12389268 -0.043592237 -0.051993288
000050 18 36 b0 bc c6 78 8f 3d 85 fc cf bd 8d 14 a3 be
       -0.021510169 0.070054576 -0.10155586 -0.31851617
000060 9c 96 1c be 99 60 c2 3c d8 37 22 3c ba 50 05 be
       -0.15291828 0.023727702 0.0099010095 -0.13019076
000070 68 2d b3 bd 0b b0 74 be f8 63 b0 3e 40 4f 67 3d
       -0.08748895 -0.2389528 0.3445127 0.056472063
000080 72 3c db 3a 22 13 0f 3d b2 08 35 bd 17 80 80 3b
       0.0016726388 0.034930356 -0.044197746 0.0039215195
000090 08 ea cb 3d d6 bc d1 3d 68 14 71 3d e4 87 77 bd
       0.09956747 0.10241096 0.05885735 -0.06043233
0000a0 8c 35 f4 3c 90 52 ac bc c5 99 18 be da f9 2f be
       0.02981069 -0.021035463 -0.14902408 -0.17185155
0000b0 04 4c 90 ba 2a 31 af be b9 47 1b bf 8d 8d 9b bd
       -0.0011008983 -0.34217197 -0.60656315 -0.07595358
0000c0 e8 85 2c bb b0 5e 43 3d 85 1c 9f 3b 0f e2 8b be
       -0.0026324932 0.047697723 0.0048556947 -0.27320907
0000d0 a7 94 50 bd 8d 32 f8 3b 53 31 58 bd 49 45 db bd
       -0.050923016 0.0075743855 -0.052781414 -0.107065745
0000e0 10 d8 f4 bc a4 ed 84 bd 1c d4 99 bd e7 d8 82 3d
       -0.029888183 -0.06490639 -0.0751116 0.06389027
0000f0 9a 1a 95 3b 48 ea cd 3e 4b a5 50 be 74 82 37 bd
       0.0045502903 0.40217805 -0.20375554 -0.044802144
000100 a8 b1 28 bc d8 3a 4c bd 2a 63 eb 3c 39 dc d0 bd
       -0.010296263 -0.049860805 0.028733809 -0.10198254
000110 98 75 fe 3d 81 e0 88 bd 1a e0 3d 3d 78 a2 52 bd
       0.12424773 -0.06683446 0.046356298 -0.051424474
000120 09 9a 1e bd c2 1d 6b 3e ad 5e 36 bd 79 08 64 3d
       -0.038721118 0.2296057 -0.044523884 0.055672143
000130 fd eb 6b bd 7d 75 9d 3d 58 c9 bd bd b5 e0 36 be
       -0.057598103 0.07688425 -0.09266919 -0.17859156
000140 7f 0a 64 39 b8 4a 5a bd 4e 3a 33 3d 91 33 04 bd
       0.00021747685 -0.053293914 0.043756776 -0.03227574
000150 ed ce a3 bd 88 31 d6 bb 0d 8b 51 bd 86 ce af 3d
       -0.07998452 -0.0065366663 -0.051158 0.08584313
000160 81 96 dc 3d 8a ad a8 bc 9c 50 55 bd 2b 0d 55 3d
       0.10770894 -0.020590562 -0.05207883 0.05201451
000170 3a 45 a4 be d0 30 83 bc 07 c3 ca bc 2d 07 91 be
       -0.32084066 -0.016014487 -0.0247512 -0.28325787
000180 73 ef 13 3d a2 7c 57 3e 0c ba d9 bd 04 be 7a bd
       0.03611703 0.21043637 -0.10631189 -0.06121637
000190 be b1 60 bd bf 1f d6 be 0c 6c 06 3e 86 9b 3c bd
       -0.05485701 -0.41821095 0.13127154 -0.046046756
0001a0 43 e4 00 3e 4f 34 9c 3c 0d ef 78 bd 0a c5 c3 bd
       0.12587075 0.019067911 -0.06077485 -0.095590666
0001b0 ed 2d ab be 7d 36 ba 3e df ca 9d 3d fb 49 84 3e
       -0.33433476 0.36369696 0.0770471 0.25837693
0001c0 0f 82 59 3c f4 f3 26 be 42 5b 05 be 10 0f 76 be
       0.013275637 -0.16303998 -0.13023093 -0.24029183
0001d0 75 ba 98 3d fd e1 6d bd e6 ad 58 bc bc 39 ef ba
       0.07457439 -0.058076847 -0.013225054 -0.0018251459
0001e0 99 2f 07 be 53 1a e7 bd 4c 3e ad bd 34 75 e2 bc
       -0.13201751 -0.11284318 -0.08459148 -0.027643777
0001f0 db 32 70 3e 73 1d e6 bc 93 d5 6a 3b 50 6d b6 bd
       0.234569 -0.028090214 0.0035832867 -0.089075685
000200 f2 6f b9 bc 23 64 3e bc cf f0 a7 3d e3 67 da 3c
       -0.022636387 -0.011620554 0.082002275 0.026660865
000210 b9 92 52 bd bf 26 99 bd 47 c9 f1 bc d8 0a 61 bc
       -0.051409457 -0.07478093 -0.029514922 -0.0137354955
000220 38 c5 e4 bc ce 1f c5 bd 07 90 06 be 1d 4c f2 bd
       -0.027926072 -0.09625207 -0.1314088 -0.11830924
000230 f8 64 95 bd c6 e4 f5 3a 03 e1 5a be c6 af 47 bb
       -0.07294649 0.0018760196 -0.21374898 -0.003046976
000240 75 78 8d 3d 49 26 8d bd f1 cd 57 bd ae be 4c be
       0.06907741 -0.06892068 -0.052686635 -0.19994614
000250 c1 50 60 3d 4a b3 68 be 05 69 11 3d b6 26 28 3d
       0.054764513 -0.22724643 0.035500545 0.041052543
000260 2c 06 b8 bb d8 ff 79 3c be 56 a9 bc bc 20 9c bc
       -0.00561597 0.015258752 -0.020671245 -0.019058578
000270 b0 52 a6 bd d4 15 0b be 1e f3 30 3d 3d 13 9d bd
       -0.0812124 -0.13582546 0.043200605 -0.07669685
000280 2c 5d 70 3d 86 b5 05 bc d3 c6 35 bd fd dc f5 bd
       0.058682606 -0.008160954 -0.044379067 -0.12005041
000290 d0 77 27 bf 13 c5 01 be cb f7 6f bd 42 ea 83 bd
       -0.65417194 -0.12672834 -0.058585923 -0.064411655
0002a0 28 65 98 3c 4d c3 3c 3e 6d 55 0a bd 9e 7d b9 bd
       0.018602923 0.18433876 -0.033772875 -0.09057163
0002b0 8e 06 73 3d fb 5a 47 bd f0 0f 8a bc 8a ff 6a bd
       0.059332423 -0.04867075 -0.016853303 -0.057372607
0002c0 44 36 65 bc 85 23 81 be 39 00 cc bd 14 0b 46 bd
       -0.013989989 -0.25222412 -0.0996098 -0.04835041
0002d0 11 55 b8 be 81 fe a3 bd 9a 5e 61 3e 36 9d b8 bd
       -0.360024 -0.08007527 0.22008744 -0.090143606
0002e0 70 e5 87 3e 31 af 8a bb 84 f7 e6 bc 96 b1 ba 3d
       0.26542234 -0.00423231 -0.028194197 0.09115903
0002f0 0f 19 12 3d f3 c6 4e 3c a4 fc db be f8 7d bd 3d
       0.03566843 0.012620675 -0.42966187 0.09252542
000300 ad ce 39 3e ca 56 43 3d 4f 6a 14 be c3 f0 b9 bc
       0.18145247 0.04769019 -0.14493679 -0.022697812
000310 36 ae e8 bd 3b e0 7c 3d 6a d3 93 3d ca 32 ac bc
       -0.11361353 0.06173728 0.072180584 -0.021020312
000320 60 a2 cf bc c8 0c 02 bd 8a e7 37 bc fa 29 89 bb
       -0.025345981 -0.03175047 -0.011224637 -0.004185912
000330 ba 4c 74 bd 8c 1a f5 bd 9c af 2a 3d 57 7b e5 bd
       -0.059643485 -0.11967954 0.04167138 -0.11205166
000340 a0 2a 12 3c 18 df e3 bd 0a 22 6a 3d 90 f9 c4 3d
       0.008921295 -0.11126536 0.05716137 0.09617913
000350 95 31 95 3c f5 1b 3c 3e a4 df a3 3b 63 f8 81 3d
       0.01821212 0.1837004 0.0050010253 0.06346204
000360 f7 5a f9 3d a5 f6 14 be c5 6e 6e be 13 f3 2a be
       0.12175553 -0.14547212 -0.23284443 -0.16694288
000370 f4 f8 69 3d ce 1e 8c be 82 59 49 be ad 77 81 3e
       0.057122186 -0.27367252 -0.19663051 0.25286618
000380 94 83 8f bd a7 d8 c1 3d 5c 45 31 3d cf 06 37 bd
       -0.070075184 0.09465151 0.043279037 -0.044684228
000390 68 4a 1a 3c da 8e 6e bd 81 5a cd 3d 17 ef 86 bd
       0.009417154 -0.058241703 0.10027028 -0.065885715
0003a0 96 50 24 be 3a d3 59 3e 5f ac 18 bc 94 b9 45 3d
       -0.16046366 0.21271983 -0.00931844 0.048272684
0003b0 40 0f f7 bb 8a ed 76 bd c5 21 15 3c a1 32 37 be
       -0.0075396597 -0.06028513 0.00910229 -0.17890407
0003c0 da 8a 7c 3d 10 59 02 3d cb 5f b6 bd ae b2 80 bd
       0.061655857 0.031823218 -0.0890499 -0.062840804
0003d0 07 c9 f7 bb 3a bd 06 be 15 0d f9 3c a0 71 a4 bd
       -0.007561806 -0.13158122 0.030401746 -0.08029485
0003e0 87 ca ad 3e d4 81 ea bc 50 5b da be e1 8c ee bd
       0.3394358 -0.02862636 -0.4264779 -0.11647964
0003f0 97 36 57 be da 1a 74 bd 90 a2 28 3d e0 6c be 3d
       -0.21016918 -0.05959592 0.041170657 0.0929811

net.2.bias f4 [256]
000000 52 91 f7 3c 81 d2 80 bd 26 df 29 3d f0 6a 7a bc
       0.030220661 -0.062901504 0.041472577 -0.015284285
000010 74 da b4 ba 67 48 54 bb df 5d 10 3d 99 e8 ac bd
       -0.0013798014 -0.0032391788 0.035245772 -0.08442802
000020 94 33 ca 3c 0c 77 01 3c f7 4f 04 3c 8a 38 2e 3e
       0.024682797 0.007901918 0.008075706 0.17013755
000030 8c ff 54 3c 06 48 f6 bd 57 35 1c 3c f1 cb 33 be
       0.01300038 -0.12025456 0.009534202 -0.17558266
000040 66 ad 64 3e 90 30 60 bd f1 5d ac bc c9 c4 8b 3c
       0.22331771 -0.054733813 -0.021040889 0.017061608
000050 aa 46 6b bc db 39 27 3e d4 bb 3b 3d d1 59 4e 3e
       -0.014360109 0.16330664 0.045833424 0.2015145
000060 59 13 91 bc 75 3a 63 bd 5d d3 13 3c 0b 58 45 be
       -0.017709421 -0.05547567 0.009022561 -0.19271867
000070 0d 36 96 bc f3 26 1b bd 1f 80 6d bc f5 ad 12 be
       -0.01833632 -0.03787894 -0.0144958785 -0.14324172
000080 31 2c ac bd bd 91 dc bc 68 5e 10 3f 72 1e e7 3c
       -0.08406866 -0.026924962 0.5639405 0.02821276
000090 07 7c 9a 3e 43 e1 82 bd c1 41 8a bd 9d 3f e7 bd
       0.3017275 -0.063906215 -0.06750823 -0.1129143
0000a0 0f 8c 8f 3c d7 57 54 bd 7a c5 1c 3e c0 04 34 3d
       0.01752284 -0.051841583 0.15309706 0.043949842
0000b0 6c 71 d8 bd 09 d1 34 bd 43 91 2a 3d 38 af 88 3c
       -0.105685085 -0.044144664 0.04164244 0.016685113
0000c0 a1 ec 3b 3d 9a 36 91 bd d7 05 59 bd 92 b7 62 3d
       0.045879964 -0.070904925 -0.052984085 0.055350848
0000d0 7e b4 cd bc 25 13 c3 bc b9 34 4b bd 81 f9 09 bd
       -0.02511048 -0.02381284 -0.049610827 -0.03368521
0000e0 3d b1 95 3d 94 30 ab 3e 59 1f d1 bd 42 6a da bc
       0.07309196 0.334355 -0.10211057 -0.026661996
0000f0 30 19 3e 3d c0 71 a9 bd f5 af c7 bd e9 e2 c5 bd
       0.04641074 -0.08273649 -0.09750358 -0.0966242
000100 9f 0c e9 bc 5f e8 e4 3c c6 9f da 3d 9d d4 5a bd
       -0.028448401 0.027942834 0.106750056 -0.05342542
000110 ab 57 da bc 02 cc a5 bd 58 91 e9 3c d0 38 ae bd
       -0.026653131 -0.08095552 0.028511688 -0.0850693
000120 85 5b 13 3e 34 ea dd bd 6a 13 64 bb 1f 76 1a bd
       0.1439038 -0.10835686 -0.003480161 -0.037710305
000130 69 48 1f 3d de cc a4 bc 5a e6 90 3e e7 85 b9 bd
       0.038887415 -0.02011722 0.28300744 -0.09058743
000140 ab 1c 27 3e 38 d0 fb bd 54 9f 03 3d 84 24 b5 bd
       0.1631953 -0.12295574 0.03213437 -0.088448554
000150 d4 18 15 bc ea b6 e9 bc b0 36 1b 3d f7 23 26 bd
       -0.009100158 -0.028529603 0.03789395 -0.040561642
000160 42 8e 97 3c 07 23 9c bd 89 bd 0e bb d8 fa 96 bd
       0.018500451 -0.076238684 -0.0021780452 -0.073720634
000170 b9 b4 48 bd cd d1 69 bd ca c9 a0 3d 13 c7 47 3d
       -0.049000476 -0.057084847 0.07850988 0.048773836
000180 4d 47 6e bd 14 de 35 bd c5 29 1a bd bc df 94 3c
       -0.058173466 -0.044401243 -0.03763749 0.018173091
000190 34 60 7e bd bc 2b 97 bd 22 31 77 3c b0 ac 0e 3c
       -0.062103465 -0.073813885 0.015087398 0.008708164
0001a0 f5 e8 8e bd 76 92 ef 3b 5f 6d 18 3d bd cd 79 bc
       -0.06978027 0.0073111607 0.03721368 -0.015246806
0001b0 cc 89 64 bd 09 45 5c bd 15 b9 20 3f a9 92 3f bd
       -0.055795476 -0.053776775 0.6278241 -0.046770725
0001c0 5b 76 92 bd ef b3 04 be 9f b7 2e bd cb 2c bb bd
       -0.07151481 -0.12959264 -0.042655583 -0.09139403
0001d0 2d 68 21 3e f0 f9 8b 3c 34 b3 85 bd 62 be d9 3c
       0.15762396 0.017086953 -0.06528321 0.02658004
0001e0 b2 20 78 3e 9f f5 74 bd f3 40 48 bd 23 38 d0 3c
       0.24231222 -0.059804555 -0.048890065 0.025417393
0001f0 d1 51 49 bc bc 05 1f bd ee 80 94 3d b8 be e4 3c
       -0.012287573 -0.038823828 0.07251154 0.027922973
000200 41 0a a2 bd 7e 6d 4f 3c 1b c0 48 bd e7 19 d8 3c
       -0.07912112 0.012660382 -0.04901133 0.026379539
000210 db 70 11 bd 09 d1 7b bd 97 36 0d bd 7b de 5b bb
       -0.035508018 -0.06147865 -0.03447589 -0.0033549357
000220 d5 03 29 be a0 1e b2 ba ae 57 2f bd 77 66 ce 3e
       -0.16505368 -0.0013589449 -0.042808227 0.4031255
000230 a7 35 59 3d 1f 7b 08 3d 02 7d a2 bc 59 e8 b4 3b
       0.053029682 0.033320542 -0.019834999 0.005520862
000240 96 3a cc 3c 58 bf 84 bd e7 d2 09 3d fb 07 c7 3d
       0.02493028 -0.064818084 0.033648398 0.09718319
000250 ef 66 64 bd 3b d4 d8 bc 8c 08 18 bd db e3 46 bd
       -0.055762228 -0.026468387 -0.037117526 -0.048557144
000260 67 35 32 3e f2 f0 17 bc 83 2e 9a bc 60 d2 1b bd
       0.17403184 -0.009273754 -0.018821007 -0.038042426
000270 48 3a a5 bd f0 24 59 3d 3a 40 88 bd 89 92 6f bd
       -0.08067757 0.053013742 -0.06652875 -0.058489356
000280 96 8d 40 bc 56 4e 74 bc 2b 74 18 be 28 22 df 3b
       -0.011752507 -0.014911255 -0.14888065 0.0068094917
000290 ab bc 8a bd 74 c8 81 bd 2b 2a 9b bc 45 1a 56 bd
       -0.06774267 -0.063370615 -0.018941006 -0.052271146
0002a0 c0 29 0b bc 97 29 38 bd c6 3c 02 be a8 0d fc 3e
       -0.008493841 -0.04496154 -0.12718496 0.4922917
0002b0 52 c8 54 3b db 11 8d bd 81 4c 81 bd 60 85 ca 3c
       0.0032468033 -0.06888171 -0.0631342 0.024721801
0002c0 ed ae 86 bc 5b 4e 83 3e 3a b3 95 3c 0c 9b fa bc
       -0.016440833 0.25645718 0.018273938 -0.03059151
0002d0 bb 62 9e bd 8c 11 b7 bc 47 1c b5 bd 4a 47 c3 3e
       -0.07733675 -0.022347234 -0.08843284 0.38140327
0002e0 86 f3 27 bc 8c 48 77 bc c2 d6 b4 bd f4 7c 05 3d
       -0.010250932 -0.01509298 -0.08830024 0.032589868
0002f0 c6 0c 63 bd 72 4c 20 3b cf da 0f 3d 54 f8 29 bd
       -0.055432104 0.0024459627 0.03512078 -0.04149659
000300 2e f6 b1 bc e8 0e 74 3b 7b 20 94 bc e7 25 45 bd
       -0.021723833 0.003724033 -0.018081894 -0.04813185
000310 13 9f 0a bc 38 73 17 bc 6a 5f 76 bb f5 58 7a bd
       -0.008460778 -0.009243779 -0.0037593492 -0.061119992
000320 c8 74 8b bd d8 b9 5e 3c 35 f7 6b bc ee 2c 7d bd
       -0.06809384 0.013594113 -0.0144022005 -0.061810426
000330 48 57 c0 3c 58 3b 95 bb e8 65 10 be 75 3d 99 bd
       0.023479119 -0.0045541935 -0.14101374 -0.07482425
000340 6d c8 d6 bd 1e 6f 08 3f 2f 1e 24 3e d6 08 fb bb
       -0.10487447 0.5329455 0.16027139 -0.0076609654
000350 6a 20 c2 3c 4d 75 93 bb b9 50 2d bd 01 83 71 bc
       0.023697097 -0.0045000673 -0.04231331 -0.014740706
000360 3e 9a 8e bd 18 ad b3 bd 04 ea 0f 3d 7a 7f 94 3b
       -0.06963013 -0.087732494 0.035135284 0.004531798
000370 b2 9d d3 3c fc bb 5c be c2 51 0a bd c9 96 38 bd
       0.02583203 -0.21556085 -0.033769377 -0.045065675
000380 d6 b6 09 3c 28 ab ef 3d c0 dc bc bd 65 a1 8e bd
       0.008405408 0.11702567 -0.09221792 -0.06964377
000390 68 a1 e1 bb 95 93 b7 bc a5 86 3f bd 6b ec 99 bd
       -0.006885696 -0.02240924 -0.046759266 -0.07515796
0003a0 a5 cf 84 bd d0 0f 84 bd 99 84 0a bd 42 6e fa 3b
       -0.064849176 -0.064483285 -0.03381786 0.0076425383
0003b0 8c 9f 49 3c 76 6b 0c bd b8 cb e3 3c 70 6e 4d bc
       0.012306105 -0.03428217 0.027807102 -0.012538537
0003c0 4b c1 1e bd 62 2a 25 3d 82 8e ae 3c 5e 3a 46 3d
       -0.038758557 0.040323623 0.021308187 0.048395507
0003d0 18 66 fe bc 60 c0 13 be 4a 04 30 3c a0 15 9d bd
       -0.031054541 -0.14428854 0.01074321 -0.0767014
0003e0 12 50 88 bd b8 70 80 bd d5 89 07 3d 72 a5 12 3d
       -0.06655897 -0.062714994 0.03309043 0.035802312
0003f0 de f1 47 bd 55 c2 59 3d 7d aa c3 bd b9 59 1e be
       -0.048814647 0.053163845 -0.095540024 -0.15463914

net.4.weight f4 [1, 256]
000000 04 45 c9 3d f7 1b c7 3d 93 f7 d6 3d 38 38 e8 bc
       0.09827617 0.09722131 0.1049644 -0.02834712
000010 43 39 7b bc 34 91 c1 3d 60 be 11 3e e6 c8 bd bb
       -0.0153334765 0.094515234 0.14232779 -0.005791771
000020 26 31 37 3e 55 29 5b bc 3f 48 d3 3c a1 c4 4b 3f
       0.17889842 -0.013376554 0.025791286 0.79596907
000030 1b 61 0a 3e 84 c5 e5 3e 19 6b 20 bd 0f 12 fc 3d
       0.13513605 0.44877255 -0.039164636 0.12308132
000040 6b ad fd 3d 50 02 3f 3c 4b 81 aa 3c de 92 53 3d
       0.123865925 0.011658266 0.020813605 0.051653735
000050 a6 09 1c bb 65 3b 78 3e 26 f3 6d bb a7 44 43 3e
       -0.0023809462 0.24241407 -0.0036308258 0.19069158
000060 a8 83 16 bb 93 bf b3 3c 30 28 5b bb 6f 38 41 bf
       -0.0022966657 0.021941936 -0.0033440702 -0.75476736
000070 ad 94 b2 bc 72 dc 9b bd 7f 15 7c 3d bc 2d df 3d
       -0.02179941 -0.07610406 0.061543938 0.10897395
000080 16 23 32 bb e8 a8 11 be cf fc 0b 3e 8a a4 08 3e
       -0.0027181557 -0.14224589 0.13670658 0.13344017
000090 ad 24 2b 3d e0 5b c7 bc bb 26 ad bc 8e 05 88 3e
       0.041783024 -0.024335802 -0.021136632 0.26566738
0000a0 b8 4b c8 3b c4 1f 8d 3e c0 9e 97 3d 24 4f f7 b9
       0.006112542 0.27563298 0.07403326 -0.00047170476
0000b0 ee dc 05 bd de 8c 0f bb 83 20 15 3e 22 c4 64 3d
       -0.032681398 -0.0021904032 0.14563183 0.05585111
0000c0 f2 1d 15 3e 75 b9 d9 bc 10 5d 3a 3e 79 9d 82 3d
       0.14562204 -0.02657769 0.18199563 0.06377692
0000d0 aa 3b e8 3e 85 58 45 bd e5 82 b1 ba d5 99 0b bd
       0.4535802 -0.048180122 -0.0013543038 -0.034082253
0000e0 ef e2 07 3e 5d de 77 be a1 30 88 bc 2d a7 19 3e
       0.13270162 -0.24205919 -0.01662475 0.15005179
0000f0 47 e7 5d 3d fd 51 f3 3c 57 4f 16 bc 5d 46 5c 3d
       0.05417564 0.029702181 -0.0091741895 0.05377804
000100 23 5c 5a bc 0e 80 02 bc 56 56 1a be 7c 6b 1b be
       -0.013327631 -0.007965101 -0.15071997 -0.15177721
000110 b9 b6 b1 be 2c a2 9f 3c a9 6b 25 bd d3 11 c0 bc
       -0.3470972 0.01948651 -0.040385876 -0.023446
000120 77 b1 05 3f e1 74 4a 3e c4 06 39 bc 63 23 26 be
       0.52223915 0.19771148 -0.011293117 -0.16224436
000130 28 2d 1f bc 7a a7 8d 3d af 38 3e 3e ba d1 89 3e
       -0.009715356 0.06916709 0.1857631 0.2691782
000140 34 af 38 3e 8f 13 41 3d 03 83 91 3d 0c 18 eb bc
       0.18035585 0.047137793 0.071050666 -0.02869799
000150 32 10 29 3c 1f ec 10 3e 82 2b 23 3e d4 57 2d 3c
       0.010318803 0.14152573 0.15934566 0.010580022
000160 ed d5 2f 3c b4 7c 1e bc 14 5e 0f 3e ea 8c 1e bd
       0.010732156 -0.009673286 0.14000732 -0.038708605
000170 02 08 8f 3d 13 03 47 3d fe ef 00 3f bc 2d b5 3d
       0.06983949 0.048586916 0.503662 0.08846614
000180 90 fd a4 3e 88 e4 53 3c 82 9b 51 3e 0a 61 e9 3b
       0.32224703 0.012932904 0.20469478 0.0071221637
000190 0f e1 4d 3e 36 0d 77 bb 2d af 58 3d 9c e6 48 bd
       0.20105384 -0.0037697083 0.052901436 -0.04904805
0001a0 80 5b af 3b f5 e2 0a 3e 10 8d c2 3d d7 d5 94 3d
       0.005351484 0.1356314 0.09499562 0.07267349
0001b0 92 41 3e bc bd f0 3e bc e6 ff 2c 3e 57 49 c4 3d
       -0.011612313 -0.011654076 0.16894493 0.09584301
0001c0 27 02 67 bc b1 6b 0d bb 48 e8 22 3d 98 fa 93 3c
       -0.014099634 -0.0021579082 0.039772302 0.018063828
0001d0 e9 51 f2 3e 7e 40 1c 3f 74 6c 69 3b 34 41 0b 3e
       0.47328117 0.6103591 0.0035617622 0.13599092
0001e0 92 98 a3 3e 4e 5f f2 3d 2c bf 28 3e 01 e9 56 bd
       0.3195234 0.11834584 0.16479176 -0.052468304
0001f0 75 6b 8c bb 5d fd 96 bc 2b 98 9c bd 4b 10 a1 3b
       -0.004285271 -0.01843136 -0.07646211 0.0049152724
000200 3e e8 dc 3c cf 4c 6b be 1c f7 ee bb d7 08 64 bc
       0.02696621 -0.22978519 -0.0072926413 -0.013918123
000210 85 1b 4d bd 4d d4 15 3e b0 60 23 3e 21 dc 35 3f
       -0.050075073 0.14631768 0.15954852 0.71039015
000220 a3 45 c3 3d 25 fd 81 3d a2 ea 49 3d a9 ac b2 bc
       0.095347665 0.063471116 0.04929603 -0.021810846
000230 03 36 91 3e 89 d8 88 3d 4e be b5 3b a4 3c 06 3d
       0.2836152 0.06681926 0.0055463677 0.032772675
000240 4f cb f4 3d bf bd f4 3c 9e 79 17 3e 26 92 8b 3e
       0.119528405 0.029875634 0.14792487 0.2725994
000250 90 36 26 3e fc 3d 04 3d 27 61 f1 3c 98 83 a2 3d
       0.16231751 0.032285675 0.029465271 0.07935256
000260 d4 79 0e be 0f 3c e3 bc c2 ba f2 bc 24 6c 1b 3b
       -0.13913661 -0.0277386 -0.029630069 0.002371558
000270 30 50 73 bd 3b 85 b0 3d 80 39 dd bb 43 ae b2 bc
       -0.059402645 0.08619162 -0.0067512393 -0.02181161
000280 38 00 d9 3d 42 cf 72 3d 37 52 ad 3e e2 0d ec 3c
       0.10595745 0.059279688 0.33851787 0.028815214
000290 02 a3 b5 bc 4d e9 fd bd 2a fd 15 3e 45 b2 83 bc
       -0.022172455 -0.12398014 0.14647356 -0.016076216
0002a0 97 01 16 3e cc 66 b3 bc 34 00 88 3c d7 4a aa 3e
       0.14649044 -0.021899603 0.01660166 0.33260223
0002b0 99 3e b5 bc df 4e e8 3d 3f 5b df 3b ff 14 0e 3e
       -0.022124575 0.113431685 0.0068162973 0.13875197
0002c0 b2 c6 0d bd 43 27 f6 3d ff 81 61 bc f5 54 3b 3e
       -0.03461332 0.12019207 -0.013763904 0.18294127
0002d0 35 da c6 bc 47 a4 e6 3c e3 26 23 be eb 97 0f 3e
       -0.024273971 0.028154505 -0.15932803 0.14022796
0002e0 e5 6a 20 3e ec 84 5f 3d 5c b2 92 3c 08 19 c1 3d
       0.15665777 0.054570124 0.017907314 0.094286025
0002f0 14 70 9f 3b 96 74 27 bd 44 2f a1 3d 65 f3 ee bc
       0.0048656557 -0.04088267 0.07870343 -0.029168794
000300 55 df 78 3b fc ac 3c 3f 1a 99 d1 3d 8e 94 f6 3c
       0.0037974913 0.73701453 0.1023428 0.030100133
000310 53 90 ba 3d 30 d7 de 3d 72 44 4a bc 1d 96 46 bc
       0.09109559 0.108808875 -0.01234542 -0.012120751
000320 55 81 a7 3c 32 d6 ef 3d 46 9a 9d 3d f2 f2 ac 3c
       0.020447413 0.117107764 0.07695441 0.02111194
000330 d2 25 18 3e e2 1b 0d 3e 0a 87 21 be 0a 11 20 bc
       0.14858177 0.13780168 -0.1577417 -0.009769687
000340 3f 85 b5 bd 64 ba 60 3e 73 84 a3 bd c5 b1 be 3e
       -0.08863305 0.21946102 -0.07984247 0.37245002
000350 4c 88 09 bc 5f 78 52 3d 42 1b c3 3c 9d b5 58 bc
       -0.008394312 0.051384326 0.023816708 -0.013226894
000360 59 77 0f bc 18 c0 da 3c 7d f0 b7 3d 7f c0 41 3e
       -0.008756482 0.026702926 0.089814164 0.18921088
000370 39 b9 a1 3d 86 28 00 3e 7b f5 89 bd 06 03 c9 3a
       0.078966565 0.12515458 -0.06736275 0.0015335984
000380 51 56 31 bb 74 98 7b be 14 8e 05 3c 1e 4c a5 bd
       -0.0027059505 -0.24569875 0.00815155 -0.08071159
000390 0b f3 f8 3c d0 22 19 bd e4 2f a3 3b 66 41 c6 3d
       0.03038933 -0.037386715 0.0049800742 0.096804425
0003a0 bd 17 2b bb b7 67 20 bd 48 98 93 bc 88 fd 9a 3d
       -0.0026106678 -0.03916141 -0.01801695 0.075678885
0003b0 e2 a0 f9 3d 7c c1 85 3d 86 12 dc 3d ed 17 34 3e
       0.12188889 0.06531045 0.107457206 0.17587252
0003c0 db 21 19 bc 00 86 a3 3d b7 ee 06 3e 5a 49 43 3c
       -0.009346451 0.07984543 0.13177 0.011919344
0003d0 a5 b2 93 3b 40 78 68 be 96 03 9d 3c ce bf 7b bc
       0.00450738 -0.22702122 0.019166749 -0.015365554
0003e0 fa 22 a1 bc e7 3c 13 bc b6 be f2 3d 21 ba 7d 3e
       -0.019669998 -0.008986688 0.118527815 0.24778034
0003f0 0c ac 83 bb a1 bb ae 3e 20 7f 70 3c c0 1f 4c be
       -0.0040183123 0.34127524 0.014678746 -0.19933987
