PPO/trex_ppo_models/critic_ep400.pkl (torch, 282362 bytes, 5 tensors)

net.0.weight f4 [256, 14]
000000 c9 2b 5b 3e 51 59 7c 3e 31 a5 a3 3d 1c c4 19 bf
       0.21403421 0.24643447 0.07990492 -0.60064864
000010 7b ab 30 bf 9e 10 88 3e 83 5f a2 3d 75 f2 d1 3e
       -0.6901166 0.26575178 0.07928374 0.41005293
000020 b3 dd c5 be 28 96 ec 3e 9b 2b a8 be 7c 14 59 3d
       -0.38645706 0.4620831 -0.32845768 0.05299805
000030 de 03 a4 be fc 29 f2 3d 28 42 ce 3d 0a 9f e2 3d
       -0.320342 0.11824414 0.10071212 0.110654905
000040 9a 2d 36 be ed 10 72 be fe ec 6d 3e f7 dc 93 be
       -0.17790833 -0.23639269 0.23234937 -0.2887952
000050 e5 4d 87 be 5e b9 6c bd a7 12 2f 3b 08 9a 48 3e
       -0.26426616 -0.057793967 0.0026713999 0.19590008
000060 2a a2 09 bf 68 c1 9b 3c 97 77 ac bd 55 13 2c bf
       -0.5376307 0.019013122 -0.084212475 -0.67217
000070 51 c1 0e be 4b 2a 28 bf 27 a4 a4 bd 28 68 1f 3f
       -0.13940932 -0.65689534 -0.08039122 0.62268305
000080 92 3c 61 bd 81 52 98 3a 38 76 1f be 99 45 22 3e
       -0.054989405 0.0011621268 -0.1557244 0.15846862
000090 b4 5d 27 3e 4d 2e 34 be be f8 ea 3e 0b 7b 78 be
       0.16344339 -0.17595787 0.458929 -0.24265687
0000a0 9f dd 27 be 06 79 da 3e b6 58 1a bf e8 f1 0a be
       -0.16393135 0.4267046 -0.6029161 -0.13568842
0000b0 78 4d 1f 3e 57 0b 9e bf 3f f5 b4 be 1d a8 97 bd
       0.15556896 -1.2347211 -0.35343358 -0.07405112
0000c0 aa 35 2b 3e 1b cd 97 bd 2d cb 3d be 34 49 a4 3e
       0.1671969 -0.07412168 -0.18534537 0.320871
0000d0 2c f8 5c be cc 41 84 3d 8d 04 fd be 31 af be be
       -0.21579045 0.06457862 -0.49417534 -0.37243035
0000e0 69 e0 c9 bd ad e9 14 bd b5 d9 b0 bd c2 75 0b bf
       -0.09857256 -0.036355663 -0.08635274 -0.5447656
0000f0 42 01 5a be 21 b4 94 3e bb 9d 56 3e 6e 12 15 3e
       -0.21289542 0.29043677 0.20958607 0.14557812
000100 74 96 6d be 8d be b2 3e 0b ee 5d 3d a0 be c1 3d
       -0.23201925 0.34911004 0.054182094 0.09460187
000110 07 4d 41 be fb 2d 90 3e 21 ed 72 bd 43 41 1e 3e
       -0.1887704 0.2816008 -0.059308175 0.15454583
000120 25 e8 64 3e 94 b4 94 be 0d 1b 08 bf cc ea 30 bc
       0.22354181 -0.2904402 -0.53166276 -0.010798167
000130 2d 2d b8 3e 82 b9 a2 3e 20 d0 7b be ec 7a a8 3e
       0.35971966 0.31782156 -0.24591112 0.32906282
000140 c9 fb 3c be fa ff a7 3e fa 21 14 bf cf 44 ba 3e
       -0.18455423 0.32812482 -0.57864344 0.36380622
000150 67 14 89 3e 0e 4e 2e be c8 c7 04 be 96 82 25 bf
       0.26773378 -0.17021963 -0.12966835 -0.64652383
000160 b3 71 eb 3e 63 59 eb be 69 fb d2 3d 58 b9 e8 be
       0.45985183 -0.45966634 0.10301859 -0.45453906
000170 df 66 c9 be ed c3 91 3d f1 93 a1 bd 77 5b 8b 3e
       -0.39336297 0.07117448 -0.07889546 0.2721822
000180 d2 94 92 be 74 82 09 3c 62 65 2d be fe d2 18 3e
       -0.28629166 0.008392919 -0.16933206 0.14924237
000190 74 21 e7 bd 49 f8 04 be b3 68 98 3d 2a 1d 1c 3d
       -0.112856776 -0.12985338 0.07441845 0.03811375
0001a0 36 7d 4d bd ce 37 04 be 70 48 9d be ca 03 9c bd
       -0.05016824 -0.12911913 -0.30719328 -0.0761791
0001b0 46 40 ba 3d 09 98 8c be da 9d e0 ba 6d 6a 82 3e
       0.090942904 -0.27459744 -0.0017136887 0.2547182
0001c0 e7 ad 37 bc b5 80 46 bd 7b c9 6b be b2 0d fa be
       -0.011210895 -0.04846259 -0.23026077 -0.48838574
0001d0 67 d4 13 be 32 95 8c be d0 7d 90 3c 45 af 37 3e
       -0.14436494 -0.27457577 0.017638117 0.17937954
0001e0 f0 34 c2 be 18 6d 8b 3c c4 48 11 3e 1f 07 cf bc
       -0.37931013 0.017019793 0.14187914 -0.02527195
0001f0 56 15 32 bd 99 a9 d3 bd a7 11 34 3e 40 5d 27 3e
       -0.04347738 -0.103350826 0.17584859 0.16344166
000200 8c 9a 63 3d d3 cb db bc 03 75 19 be c1 88 f8 bc
       0.05556731 -0.02683059 -0.14986043 -0.030338647
000210 8f 94 98 be 66 fb fa bc 44 b1 9d be 69 1b f0 bd
       -0.2980084 -0.030637454 -0.30799305 -0.11723978
000220 6e 0e 85 3c 71 97 04 3e 1d 49 94 bd 59 2c 8b be
       0.016242232 0.12948395 -0.07240508 -0.27182272
000230 3a 0f 84 3d 94 b2 45 be 9e 8d de bd 00 3e 7a be
       0.06448217 -0.19306403 -0.10866855 -0.24437714
000240 c3 7a 2e 3e ed 26 98 bc df 42 2f 3e 8d e9 0d 3e
       0.17039017 -0.018573249 0.17115353 0.13858624
000250 ba 21 ee bc 0f 61 75 3b 6b ed b7 be 82 10 82 3d
       -0.029068816 0.0037441885 -0.35923323 0.06350805
000260 e9 77 78 be 2c ee 39 bf 7c bb 56 3e c9 85 13 3e
       -0.24264492 -0.72629046 0.20969957 0.14406504
000270 92 93 81 3d eb 14 56 bf f3 39 88 be b1 41 0b 3e
       0.06326975 -0.8362567 -0.26606712 0.13599278
000280 9e 03 cc bd a5 0b d2 3e 63 a5 c4 be fe 5f df 3c
       -0.099616274 0.4102451 -0.3840743 0.027267452
000290 a3 b4 9a be 9c f7 50 be 74 60 fa 3d f5 47 6b 3e
       -0.3021594 -0.20406955 0.12225428 0.22976668
0002a0 7b 28 ff bd 67 64 42 be a2 5a 80 be cd a7 e0 be
       -0.12458893 -0.18983613 -0.25069147 -0.43878022
0002b0 fc 90 ce bd 38 d7 1c 3e 20 4e fc bd 3e f1 9b 3e
       -0.10086247 0.15316474 -0.12319589 0.3045749
0002c0 a1 37 32 be 95 1d ce 3b 90 05 0d be 60 73 8b be
       -0.17404033 0.0062901475 -0.13771653 -0.27236462
0002d0 24 81 92 be 48 a0 00 3e eb 5e e7 3d 4b 6e 03 3d
       -0.2861415 0.12561142 0.11297401 0.032087605
0002e0 f9 74 1a be 3b d0 e5 be 69 93 41 3e 61 0c ea be
       -0.15083684 -0.4488543 0.18903889 -0.4571257
0002f0 d2 55 3f bd 2a df 45 3e da 72 2f bd 0d 22 eb 3d
       -0.046712704 0.19323412 -0.04283414 0.11481104
000300 87 42 c0 be 2a 5f 41 3e a9 61 d8 bc c3 26 20 bf
       -0.37550756 0.18883958 -0.026413755 -0.62559146
000310 cc 57 9f 3d df 69 87 bd 85 f9 32 be df d3 23 bf
       0.07780418 -0.0661199 -0.17477997 -0.63995165
000320 d6 23 1b 3d 05 99 c4 be 66 1d 92 bc 37 0c 87 bd
       0.037875973 -0.38397995 -0.017836284 -0.06594127
000330 b7 f6 09 be d4 b5 c5 3d 8e fd bb be 33 56 42 3c
       -0.1347302 0.096538216 -0.36716884 0.011861372
000340 e6 d6 a3 3e fd fc 1e be 1c 10 93 3d 01 c3 f9 bd
       0.31999892 -0.15526195 0.07180807 -0.12195397
000350 7b 15 39 3e 8c a5 88 bf 43 86 97 bd 65 fc 87 bc
       0.180746 -1.0675521 -0.07398655 -0.016599843
000360 5c 3d 07 bc 49 bb 7f 3d 28 b2 e2 be 8a 1b b9 3e
       -0.008254375 0.06243447 -0.44276547 0.36153823
000370 b3 ca 32 bd 19 87 30 3e d4 86 fb bb 72 80 b3 3e
       -0.04365034 0.17239036 -0.007675985 0.35058933
000380 c0 3e 0a bd 91 28 3d be 21 94 d8 bd 4a 0b d7 bd
       -0.03375125 -0.18472506 -0.10575128 -0.105002
000390 50 28 b2 3d 1f 2d 84 bd 2c ef 26 be 34 b7 8f 3e
       0.08699095 -0.06453919 -0.16302174 0.2806946
0003a0 79 99 19 3e 81 7e 88 3e 6b 7b c7 be 9f 48 66 3e
       0.14999951 0.26659015 -0.38961348 0.2248864
0003b0 60 2b 98 bd 7b d8 21 bf 3d 6f 24 be ba 9a 74 be
       -0.07430148 -0.6322095 -0.16058059 -0.23887148
0003c0 b2 4d 00 be cb 93 80 be ed bf f9 3d 01 a6 2f be
       -0.12529638 -0.25112757 0.1219481 -0.17153169
0003d0 41 c1 cb 3d 32 02 26 3e d7 92 a3 be 84 76 b8 3c
       0.0994897 0.16211775 -0.31947967 0.02251745
0003e0 60 01 d6 bd d7 dc af bc 72 0a 66 be d2 35 55 3e
       -0.10449481 -0.02146761 -0.22464922 0.20821312
0003f0 fa 61 67 3d 30 70 84 bc ea cf f9 3c cf 91 ac be
       0.056489922 -0.016166776 0.030494649 -0.33704993

net.0.bias f4 [256]
000000 c1 30 63 3e 13 fe 27 3e b7 3b f0 3d 1d ef 3e bd
       0.22186567 0.16405515 0.1173014 -0.046614755
000010 57 42 9d bb 90 7a a4 3e 7f 07 25 3e 3c bf a9 bd
       -0.004799168 0.32124758 0.16116141 -0.08288428
000020 f0 81 d6 3c a1 56 73 be 39 3d 80 bd 21 20 f8 3d
       0.026185006 -0.23763515 -0.06261677 0.12115503
000030 14 3a 18 be c2 f3 c3 3d 5f 5b 99 bd a9 04 ca bd
       -0.14865905 0.095679775 -0.07488131 -0.0986417
000040 2f 62 c2 3d e1 b8 42 be 15 da 9f 3e 84 2a a0 bd
       0.09491383 -0.19015838 0.3122107 -0.07820609
000050 ae 67 82 3c c3 f9 a4 be 61 1a 57 be 4e d3 60 3e
       0.015918579 -0.32221803 -0.21006157 0.21955606
000060 4d 99 16 3e 7a 0d bf 3c d6 12 70 be 6b f5 a0 be
       0.14706917 0.023321856 -0.23444685 -0.3143724
000070 7f 29 13 3d 98 34 fd 3d 8d aa e3 3d 64 a9 89 3e
       0.035928246 0.12363547 0.11116514 0.26887047
000080 6b 35 1d 3d 7c 31 ae be 79 aa 90 be f2 d2 8c 3e
       0.03838102 -0.3402213 -0.2825506 0.27504689
000090 d8 a1 da 3d 53 39 e1 3c 6b ae 00 3e f9 d2 35 be
       0.106754005 0.027493155 0.12566535 -0.17756261
0000a0 af 09 0f 3d e4 2f 53 be da 4d b3 3c 0d 57 76 3d
       0.034921344 -0.20623738 0.021887708 0.06014161
0000b0 56 52 7e be ae 61 a5 3d be 53 66 be 9e 41 91 bd
       -0.24836096 0.080752715 -0.22492883 -0.070925936
0000c0 1d 61 b1 3d 9e 64 5e be c5 26 7e 3e 73 c5 dc 3c
       0.08661101 -0.2171807 0.24819477 0.02694962
0000d0 97 84 86 3e 82 30 89 bd bf c0 a3 bd 1c 8f a5 3d
       0.26273033 -0.06698705 -0.07995748 0.080839366
0000e0 05 87 00 3b 97 13 0e bd de 6d a0 bd 56 b1 0a be
       0.0019611728 -0.03468665 -0.078334555 -0.13544211
0000f0 95 08 d1 bd 71 47 bd bd c5 e0 29 be 1f 5d 86 be
       -0.10206715 -0.09242142 -0.16589649 -0.2624292
000100 86 70 22 3d e1 86 18 bd 67 b8 12 be b2 6e 25 3e
       0.039658092 -0.037238006 -0.14328156 0.16155508
000110 16 03 19 be cf 58 52 3e 9d 9e 6a be 4b c2 14 3e
       -0.14942583 0.2054169 -0.22912069 0.14527242
000120 df 00 51 be 69 0f 11 3e 5c 72 8b 3e e6 96 0c 3e
       -0.20410489 0.14166035 0.27235687 0.13729438
000130 5c 86 5e be e0 b8 d0 3d 3f cf f6 3c c5 bf 12 be
       -0.21730942 0.10191512 0.03012812 -0.14330967
000140 4e 9b 45 be b0 5e dc bd ce 19 68 3d c8 2a c1 3e
       -0.19297525 -0.10760248 0.056665234 0.37727952
000150 ea ab 92 be 6c dc 20 3d 79 3f 71 be f5 db 3e be
       -0.28646785 0.03927271 -0.23559369 -0.18638594
000160 e3 aa e1 bd 21 03 ae bd e5 d6 08 3e 99 53 6e bd
       -0.11018922 -0.084966905 0.13363226 -0.058185194
000170 60 34 1f ba bd 8d 25 be 1b d0 91 be 16 dc 48 3e
       -0.0006073173 -0.1616735 -0.28479084 0.19615206
000180 04 9a 47 be fb 65 1d 3e 12 1e 0c be 21 67 33 bd
       -0.19492346 0.15370934 -0.13683346 -0.043799523
000190 3e 4f 95 3e 03 91 82 3d 7f 2f 49 3e cf 7d 85 3e
       0.2916202 0.06375315 0.19647025 0.26072547
0001a0 80 b1 e2 3d 35 7e 1e be 81 10 09 3e e9 41 bd 3e
       0.11069012 -0.15477832 0.13385202 0.36964348
0001b0 4d c7 59 bd 81 43 04 be de 81 29 3e 00 ae 5f be
       -0.053168584 -0.12916376 0.16553447 -0.2184372
0001c0 f8 ae 51 3e d7 3c c8 bd 7e c8 74 3d 09 c1 0f be
       0.20476902 -0.09777229 0.059761517 -0.14038481
0001d0 b7 c3 c3 3e 00 ae ed bd 90 43 21 3e 87 3d 6f 3e
       0.38235256 -0.116054535 0.1574843 0.23363315
0001e0 7b f7 17 be ac 1a c1 3d c2 aa 49 be 43 11 c2 bb
       -0.148405 0.094289154 -0.19694045 -0.005922468
0001f0 1c c9 6b 3e 39 6e b9 3e a7 1c f0 bd 8b 91 3b 3e
       0.23025936 0.36216906 -0.11724215 0.18317239
000200 fa 79 4c 3e 07 2e 53 be 72 6a c8 bd 44 dc f9 3c
       0.19968405 -0.20623027 -0.09785928 0.030500539
000210 88 1e 46 3e 02 f0 89 be e0 89 06 be 6d 57 11 be
       0.19347584 -0.26940924 -0.13138533 -0.14193507
000220 3b 6e a0 3d d9 06 26 3e 47 87 7c bd 54 bb d4 3e
       0.07833525 0.1621355 -0.061652448 0.4154917
000230 a3 a6 44 3e 02 7b b1 3d ca 0c 67 be 38 5d 27 3d
       0.19204192 0.0866604 -0.22563472 0.040860385
000240 60 5e d8 bb a4 0e 5d 3e 5d 72 21 3d d8 20 a7 bc
       -0.0066030473 0.21587616 0.039415706 -0.020401403
000250 d7 b6 69 be c0 bf ef 3d 31 68 ca bd 3b c4 3c be
       -0.22823654 0.11706495 -0.09883154 -0.18434231
000260 d3 9d 4c bc c4 c9 76 be a0 10 13 3e 28 b4 75 be
       -0.0124888 -0.24100405 0.1436181 -0.23994505
000270 cd fe 62 be 38 2e 97 bd c1 89 2f bc aa 4f 81 3e
       -0.22167511 -0.073818624 -0.010713995 0.2525609
000280 5d 0d 19 be 1e fc 98 be 5d d9 cc 3b ae 66 94 3d
       -0.14946504 -0.2987985 0.0062514977 0.07246147
000290 10 3a f0 3d b7 26 eb 3d 20 a0 8a 3c 8c 25 3c bc
       0.117298245 0.11481994 0.016922057 -0.011483561
0002a0 ca 44 82 be 9b a0 01 be fe 36 69 be bb 95 47 3e
       -0.25443107 -0.12658922 -0.22774884 0.19490711
0002b0 31 9b 93 be ea 35 38 bd f4 cd 07 be c9 80 36 3e
       -0.2882934 -0.04497329 -0.13262159 0.17822565
0002c0 a2 57 4d 3d e0 5a 64 bd 3b 3c 2c 3e ef a9 4b 3e
       0.0501324 -0.055750728 0.16819851 0.19889043
0002d0 1f 43 f8 bd af 89 bf bd 58 4d e5 3d 44 46 44 3e
       -0.12122177 -0.09352433 0.11196393 0.19167429
0002e0 ae 27 e9 3d f6 62 75 3e a4 7b bf bc 9e ce 0f 3e
       0.113845214 0.23963532 -0.023374386 0.14043662
0002f0 5b 54 e8 bd c9 aa 79 be 89 bf 66 be 0c 71 13 3e
       -0.113442145 -0.24381556 -0.22534002 0.14398593
000300 fd 11 01 be 85 01 59 be 62 eb 8b be 6f 53 98 bd
       -0.12604518 -0.21191986 -0.2732802 -0.07437789
000310 0f ea fd 3d 5d f1 77 3d 3d 9b ac 3c 9a 29 8f be
       0.12398159 0.060532916 0.021070117 -0.27961427
000320 fc 03 49 bd 07 ab 42 be ed dc 9c bd 21 50 d2 3d
       -0.049076065 -0.19010554 -0.07659326 0.102691896
000330 7f e6 8d 3e 49 e8 28 be 2f 8b 88 be 5c cf ac 3e
       0.27714917 -0.1649486 -0.2666869 0.33751953
000340 e7 11 8b be 1e 26 a0 bc 1f b2 58 be f1 6f 41 3e
       -0.27162096 -0.019549426 -0.21161698 0.18890359
000350 34 7a 00 bd 81 5a 93 3d 15 20 71 3e b0 7d 14 3e
       -0.031366542 0.071949966 0.23547395 0.14501071
000360 cd dc a6 be 8b 70 87 3e f3 a0 2a 3d 88 33 84 3e
       -0.32590333 0.2645305 0.0416574 0.25820565
000370 8b 8f 86 be 50 31 1d 3d 89 59 46 3e e8 ca db bd
       -0.2628139 0.038377106 0.19370092 -0.10732061
000380 d2 fb 07 3e 52 22 bb 3d 2a 63 38 be bb bc 56 3e
       0.13279656 0.091374055 -0.18006578 0.20970432
000390 60 9c 4d bc 40 ae 71 bc dd fe 9b bd 68 4f 1f 3c
       -0.01254949 -0.014751017 -0.07616971 0.009723522
0003a0 57 14 a1 be 35 c2 95 be 31 c7 8b bc e2 c3 6f be
       -0.3146083 -0.2924973 -0.017062755 -0.23414567
0003b0 96 3c 1f 3e 03 47 91 be 8d 67 87 3e 15 7d 15 3d
       0.15550455 -0.2837449 0.2644619 0.03649624
0003c0 80 ec 13 be 1b 76 09 3e c7 d0 52 3d e4 43 0c 3e
       -0.14445686 0.1342396 0.051468637 0.13697773
0003d0 b5 72 dd 3e 64 91 9a bc d5 9b 71 3d 8e 64 ea 3c
       0.43251577 -0.018868156 0.058986504 0.028612401
0003e0 55 f7 38 3e 3f df 26 3e 30 ed fb bd 06 67 c8 3d
       0.180631 0.16296099 -0.12301099 0.09785275
0003f0 c8 85 20 3d ad a9 59 3e 88 74 2f be 5b 96 53 be
       0.039190084 0.21256132 -0.17134297 -0.20662825

net.2.weight f4 [256, 256]
000000 01 04 c7 bb 5a 17 a7 3c 62 a0 6e be 57 6b e3 bd
       -0.0060734753 0.020396877 -0.23303369 -0.11104458
000010 83 71 93 be 12 ee 21 3d 47 6b e1 3d b4 27 8b bd
       -0.2879754 0.039533682 0.1100679 -0.06794682
000020 0a be a8 bc 32 5c b5 bc 9b a4 22 bd cc a0 23 3d
       -0.02059843 -0.022138689 -0.03970776 0.03994827
000030 c2 c8 20 be f1 41 9f bd 89 12 c9 3c bf 15 9f be
       -0.15701583 -0.07776249 0.024544971 -0.31071278
000040 89 91 06 bd 72 bb fd 3d e3 5f dc bc ea f6 54 bd
       -0.032853637 0.12389268 -0.026901191 -0.051993288
000050 02 46 a5 3b c6 78 8f 3d 85 fc cf bd 8d 14 a3 be
       0.005043746 0.070054576 -0.10155586 -0.31851617
000060 9c 96 1c be 99 60 c2 3c d8 37 22 3c ba 50 05 be
       -0.15291828 0.023727702 0.0099010095 -0.13019076
000070 68 2d b3 bd 0b b0 74 be ad 69 be 3e 40 4f 67 3d
       -0.08748895 -0.2389528 0.3719 0.056472063
000080 72 3c db 3a 22 13 0f 3d b2 08 35 bd 17 80 80 3b
       0.0016726388 0.034930356 -0.044197746 0.0039215195
000090 08 ea cb 3d d6 bc d1 3d 68 14 71 3d 5f 69 5a bd
       0.09956747 0.10241096 0.05885735 -0.053323146
0000a0 8c 35 f4 3c 90 52 ac bc 5a 50 f3 bd da f9 2f be
       0.02981069 -0.021035463 -0.1188056 -0.17185155
0000b0 04 4c 90 ba 2a 31 af be b9 47 1b bf 8d 8d 9b bd
       -0.0011008983 -0.34217197 -0.60656315 -0.07595358
0000c0 e8 85 2c bb b0 5e 43 3d 85 1c 9f 3b 0f e2 8b be
       -0.0026324932 0.047697723 0.0048556947 -0.27320907
0000d0 83 11 2f bd 1a a7 00 3d 53 31 58 bd 49 45 db bd
       -0.04274131 0.03140936 -0.052781414 -0.107065745
0000e0 e0 17 72 bb a4 ed 84 bd 1c d4 99 bd 0b a9 bc 3d
       -0.00369405 -0.06490639 -0.0751116 0.0921193
0000f0 1d 8a 09 3d 48 ea cd 3e a0 a5 31 be 74 82 37 bd
       0.03357898 0.40217805 -0.17348337 -0.044802144
000100 59 04 92 3c d8 3a 4c bd 2a 63 eb 3c 39 dc d0 bd
       0.017824339 -0.049860805 0.028733809 -0.10198254
000110 98 75 fe 3d 81 e0 88 bd 1a e0 3d 3d 78 a2 52 bd
       0.12424773 -0.06683446 0.046356298 -0.051424474
000120 09 9a 1e bd c2 1d 6b 3e 0f 24 7d bc 79 08 64 3d
       -0.038721118 0.2296057 -0.015450492 0.055672143
000130 fd eb 6b bd 7d 75 9d 3d a6 dd 81 bd b5 e0 36 be
       -0.057598103 0.07688425 -0.06341104 -0.17859156
000140 7f 0a 64 39 b8 4a 5a bd 4e 3a 33 3d d7 65 88 bb
       0.00021747685 -0.053293914 0.043756776 -0.004162531
000150 ed ce a3 bd 88 31 d6 bb 0d 8b 51 bd 86 ce af 3d
       -0.07998452 -0.0065366663 -0.051158 0.08584313
000160 81 96 dc 3d 8a ad a8 bc 9c 50 55 bd 2b 0d 55 3d
       0.10770894 -0.020590562 -0.05207883 0.05201451
000170 3a 45 a4 be d0 30 83 bc 07 c3 ca bc 2d 07 91 be
       -0.32084066 -0.016014487 -0.0247512 -0.28325787
000180 73 ef 13 3d a2 7c 57 3e 53 c0 a1 bd 04 be 7a bd
       0.03611703 0.21043637 -0.07898011 -0.06121637
000190 d5 1d 1f bd bf 1f d6 be 0c 6c 06 3e 7d fe 95 bc
       -0.03884681 -0.41821095 0.13127154 -0.018309826
0001a0 43 e4 00 3e 42 ec f9 3c b4 dc 03 bd 75 dc 89 bd
       0.12587075 0.030508164 -0.0321929 -0.06731502
0001b0 d8 cd 9b be 7d 36 ba 3e df ca 9d 3d 10 80 93 3e
       -0.30430484 0.36369696 0.0770471 0.2880864
0001c0 0f 82 59 3c 6c ee 07 be 42 5b 05 be 10 0f 76 be
       0.013275637 -0.13274544 -0.13023093 -0.24029183
0001d0 75 ba 98 3d fd e1 6d bd e6 ad 58 bc bc 39 ef ba
       0.07457439 -0.058076847 -0.013225054 -0.0018251459
0001e0 99 2f 07 be b4 ae e5 bd 4c 3e ad bd 34 75 e2 bc
       -0.13201751 -0.112149626 -0.08459148 -0.027643777
0001f0 b1 91 87 3e d3 b4 10 38 93 d5 6a 3b 50 6d b6 bd
       0.2647834 3.450068e-05 0.0035832867 -0.089075685
000200 f2 6f b9 bc 23 64 3e bc cf f0 a7 3d e3 67 da 3c
       -0.022636387 -0.011620554 0.082002275 0.026660865
000210 81 72 bd bc bf 26 99 bd 47 c9 f1 bc d8 0a 61 bc
       -0.023125889 -0.07478093 -0.029514922 -0.0137354955
000220 38 c5 e4 bc ce 1f c5 bd 07 90 06 be ad 31 b8 bd
       -0.027926072 -0.09625207 -0.1314088 -0.0899385
000230 76 c4 4a bd c6 e4 f5 3a 03 e1 5a be 8f 30 d1 3c
       -0.049503766 0.0018760196 -0.21374898 0.02553585
000240 75 78 8d 3d 49 26 8d bd f1 cd 57 bd ae be 4c be
       0.06907741 -0.06892068 -0.052686635 -0.19994614
000250 c1 50 60 3d 4a b3 68 be 05 69 11 3d b6 26 28 3d
       0.054764513 -0.22724643 0.035500545 0.041052543
000260 1d b2 1a 3b d8 ff 79 3c be 56 a9 bc bc 20 9c bc
       0.00236047 0.015258752 -0.020671245 -0.019058578
000270 b0 52 a6 bd d4 15 0b be 1e f3 30 3d c1 7c 4c bd
       -0.0812124 -0.13582546 0.043200605 -0.049923662
000280 2c 5d 70 3d 86 b5 05 bc d3 c6 35 bd 40 44 b9 bd
       0.058682606 -0.008160954 -0.044379067 -0.09046221
000290 d0 77 27 bf 13 c5 01 be cb f7 6f bd 42 ea 83 bd
       -0.65417194 -0.12672834 -0.058585923 -0.064411655
0002a0 28 65 98 3c 4d c3 3c 3e 6d 55 0a bd fd d7 78 bd
       0.018602923 0.18433876 -0.033772875 -0.060752857
0002b0 8e 06 73 3d fb 5a 47 bd f0 0f 8a bc 8a ff 6a bd
       0.059332423 -0.04867075 -0.016853303 -0.057372607
0002c0 23 02 0f 3b 85 23 81 be 39 00 cc bd 79 03 9b bc
       0.0021821342 -0.25222412 -0.0996098 -0.018922554
0002d0 11 55 b8 be 81 fe a3 bd a2 3d 80 3e 8a 7e 80 bd
       -0.360024 -0.08007527 0.25047022 -0.062741354
0002e0 be 49 97 3e 54 7c ad 3c 84 f7 e6 bc 96 b1 ba 3d
       0.29548448 0.021177448 -0.028194197 0.09115903
0002f0 0f 19 12 3d f3 c6 4e 3c a4 fc db be f8 7d bd 3d
       0.03566843 0.012620675 -0.42966187 0.09252542
000300 ad ce 39 3e ca 56 43 3d 4f 6a 14 be c3 f0 b9 bc
       0.18145247 0.04769019 -0.14493679 -0.022697812
000310 36 ae e8 bd 3b e0 7c 3d 6a d3 93 3d ca 32 ac bc
       -0.11361353 0.06173728 0.072180584 -0.021020312
000320 60 a2 cf bc c8 0c 02 bd 8a e7 37 bc fa 29 89 bb
       -0.025345981 -0.03175047 -0.011224637 -0.004185912
000330 a1 cb fa bc 8c 1a f5 bd 9c af 2a 3d f1 64 aa bd
       -0.030614676 -0.11967954 0.04167138 -0.08320034
000340 74 27 11 3d f1 08 b4 bd 0a 22 6a 3d 90 f9 c4 3d
       0.035438016 -0.08790768 0.05716137 0.09617913
000350 95 31 95 3c e6 35 5b 3e a4 df a3 3b 63 f8 81 3d
       0.01821212 0.2140728 0.0050010253 0.06346204
000360 f7 5a f9 3d c6 26 ec bd c5 6e 6e be f0 18 0e be
       0.12175553 -0.11530833 -0.23284443 -0.138767
000370 f4 f8 69 3d ce 1e 8c be 82 59 49 be 0c d8 8f 3e
       0.057122186 -0.27367252 -0.19663051 0.28094518
000380 94 83 8f bd a7 d8 c1 3d 5c 45 31 3d 62 12 82 bc
       -0.070075184 0.09465151 0.043279037 -0.015877906
000390 68 4a 1a 3c da 8e 6e bd 81 5a cd 3d 50 19 2b bd
       0.009417154 -0.058241703 0.10027028 -0.041772187
0003a0 96 50 24 be 3a d3 59 3e 5f ac 18 bc 94 b9 45 3d
       -0.16046366 0.21271983 -0.00931844 0.048272684
0003b0 40 0f f7 bb 8a ed 76 bd fc 80 15 3d a1 32 37 be
       -0.0075396597 -0.06028513 0.036499962 -0.17890407
0003c0 da 8a 7c 3d 10 59 02 3d cb 5f b6 bd ae b2 80 bd
       0.061655857 0.031823218 -0.0890499 -0.062840804
0003d0 08 01 a4 3c b1 a2 cf bd 15 0d f9 3c a0 71 a4 bd
       0.020020023 -0.10138453 0.030401746 -0.08029485
0003e0 87 ca ad 3e d4 81 ea bc 50 5b da be a9 3c b5 bd
       0.3394358 -0.02862636 -0.4264779 -0.08849461
0003f0 97 36 57 be da 1a 74 bd 90 a2 28 3d e0 6c be 3d
       -0.21016918 -0.05959592 0.041170657 0.0929811

net.2.bias f4 [256]
000000 49 be 6e 3d 12 2d 0f bd 26 df 29 3d f0 6a 7a bc
       0.05828694 -0.03495509 0.041472577 -0.015284285
000010 74 da b4 ba b0 fa c5 3c df 5d 10 3d 99 e8 ac bd
       -0.0013798014 0.024167389 0.035245772 -0.08442802
000020 94 33 ca 3c 7c 1b 1c 3d 7b f8 ea 3c 0a b2 1c 3e
       0.024682797 0.03811215 0.028682938 0.15302292
000030 8c ff 54 3c 39 69 f1 bd 89 d7 48 bd 6d 12 f7 bb
       0.01300038 -0.11787648 -0.049033675 -0.0075400383
000040 21 74 9d 3e 90 30 60 bd d4 a1 0f 3c c8 f8 ea 3d
       0.30752662 -0.054733813 0.00876661 0.114732325
000050 8f 3b 78 3c ea 7d 9a bd d4 bb 3b 3d 82 fc d3 bd
       0.015150919 -0.075435475 0.045833424 -0.103508964
000060 59 13 91 bc 75 3a 63 bd 02 6e 20 3d 58 e3 b3 bc
       -0.017709421 -0.05547567 0.03916741 -0.021958992
000070 0d 36 96 bc f3 26 1b bd 1f 80 6d bc f0 0d 05 be
       -0.01833632 -0.03787894 -0.0144958785 -0.12993598
000080 31 2c ac bd c1 ee 62 3c b2 91 8b 3e c1 63 62 3d
       -0.08406866 0.013850869 0.27259594 0.055270914
000090 94 6d 91 3e 6e f0 30 bd c1 41 8a bd ce 94 93 bd
       0.28403914 -0.04319804 -0.06750823 -0.072061166
0000a0 d0 82 19 3d 9f 92 6a 3c 0f 9b d4 3d f4 07 9a bc
       0.03747827 0.014317184 0.103811376 -0.01880262
0000b0 97 4d 53 3d 09 d1 34 bd 43 91 2a 3d 38 af 88 3c
       0.051587667 -0.044144664 0.04164244 0.016685113
0000c0 64 bf 98 3d 9a 36 91 bd 14 81 81 bd 92 b7 62 3d
       0.0745838 -0.070904925 -0.06323448 0.055350848
0000d0 f6 fd 97 b9 25 13 c3 bc 2c 7d a5 bc 81 f9 09 bd
       -0.0002899018 -0.02381284 -0.020201288 -0.03368521
0000e0 3d b1 95 3d 73 df ba 3e 93 cb 94 bd 42 6a da bc
       0.07309196 0.36498603 -0.07265391 -0.026661996
0000f0 30 19 3e 3d d4 77 4b bd f5 af c7 bd 0e 5d 85 bd
       0.04641074 -0.049674824 -0.09750358 -0.065118894
000100 fd d9 c1 b9 5f e8 e4 3c b2 3b 8e bc 5e 60 e3 bc
       -0.00036974243 0.027942834 -0.01736245 -0.027755912
000110 ab 57 da bc 79 76 67 bd 58 91 e9 3c 13 5d 66 bd
       -0.026653131 -0.05650947 0.028511688 -0.056241106
000120 a6 82 e4 3d 34 ea dd bd 6a 13 64 bb 0f 98 1a 3c
       0.11157732 -0.10835686 -0.003480161 0.009435668
000130 69 48 1f 3d 9f fc 97 3b 19 73 d8 3e 06 44 b5 bc
       0.038887415 0.004638269 0.42275313 -0.022127163
000140 c9 df 76 3e 75 1f 94 bd 54 9f 03 3d 84 24 b5 bd
       0.24108805 -0.072325625 0.03213437 -0.088448554
000150 a1 fa 90 3c ea b6 e9 bc b0 36 1b 3d 10 c2 3d bc
       0.017697634 -0.028529603 0.03789395 -0.011581913
000160 42 8e 97 3c 07 23 9c bd 89 bd 0e bb d8 fa 96 bd
       0.018500451 -0.076238684 -0.0021780452 -0.073720634
000170 ec 3d e2 bb cd d1 69 bd fd a0 d6 3d 13 c7 47 3d
       -0.0069043543 -0.057084847 0.10479925 0.048773836
000180 7f 59 08 bd 14 de 35 bd a5 49 14 bd bc df 94 3c
       -0.033288475 -0.044401243 -0.036203045 0.018173091
000190 72 25 21 bd bc 2b 97 bd 22 31 77 3c b0 ac 0e 3c
       -0.03934235 -0.073813885 0.015087398 0.008708164
0001a0 f5 e8 8e bd cd 71 c8 3d 7c 83 88 3d 1d d0 e7 bb
       -0.06978027 0.09787331 0.06665704 -0.0070743696
0001b0 cc 89 64 bd 09 45 5c bd dc 81 c7 3e a9 92 3f bd
       -0.055795476 -0.053776775 0.38966262 -0.046770725
0001c0 5b 76 92 bd 7c f1 d6 bd 9f b7 2e bd 6f b0 79 bd
       -0.07151481 -0.10495278 -0.042655583 -0.060959276
0001d0 cd f6 27 3e 9b 62 5c bd 34 b3 85 bd 62 be d9 3c
       0.16402741 -0.053804975 -0.06528321 0.02658004
0001e0 93 95 f9 3c 3b 91 59 bd f3 40 48 bd 23 38 d0 3c
       0.03046683 -0.05311702 -0.048890065 0.025417393
0001f0 d1 51 49 bc bc 05 1f bd 14 4e 57 3c b8 be e4 3c
       -0.012287573 -0.038823828 0.013141174 0.027922973
000200 41 0a a2 bd c9 d5 c8 bc eb 8d a5 bc e7 19 d8 3c
       -0.07912112 -0.024516003 -0.020209273 0.026379539
000210 db 70 11 bd 1d 45 11 bd af 04 36 bd a4 2b b7 3c
       -0.035508018 -0.035466302 -0.04443806 0.022359677
000220 8a a1 07 be a0 1e b2 ba ae 57 2f bd a4 0b 93 3e
       -0.13245216 -0.0013589449 -0.042808227 0.2871982
000230 e5 32 9f 3c 1f 7b 08 3d 02 7d a2 bc 59 e8 b4 3b
       0.019433448 0.033320542 -0.019834999 0.005520862
000240 96 3a cc 3c bf 7b 16 bd e7 d2 09 3d 9c 86 d1 3c
       0.02493028 -0.036739107 0.033648398 0.025576882
000250 52 77 54 bd 3b d4 d8 bc 8c 08 18 bd cc 80 05 bd
       -0.051871605 -0.026468387 -0.037117526 -0.032593533
000260 bb 7d 1f 3e f2 f0 17 bc 83 2e 9a bc 9b 89 29 bc
       0.15575306 -0.009273754 -0.018821007 -0.010347749
000270 48 3a a5 bd f0 24 59 3d 3a 40 88 bd b0 da f3 bc
       -0.08067757 0.053013742 -0.06652875 -0.029767364
000280 96 8d 40 bc 56 4e 74 bc cc 35 86 bd 28 22 df 3b
       -0.011752507 -0.014911255 -0.0655323 0.0068094917
000290 ab bc 8a bd 74 c8 81 bd 2b 2a 9b bc 45 1a 56 bd
       -0.06774267 -0.063370615 -0.018941006 -0.052271146
0002a0 b4 bf db 3c 7b 8c 8e bc b4 5e 6e bd 65 e3 10 3e
       0.02682481 -0.01740097 -0.058195785 0.14149244
0002b0 52 c8 54 3b b5 57 2a bd 81 4c 81 bd 60 85 ca 3c
       0.0032468033 -0.04158755 -0.0631342 0.024721801
0002c0 ed ae 86 bc e5 0d ad 3e 93 d5 e7 3c 1f 35 59 3c
       -0.016440833 0.33799663 0.028300082 0.013257294
0002d0 f2 41 41 bd 8c 11 b7 bc 47 1c b5 bd 5c 5d b1 3e
       -0.04718203 -0.022347234 -0.08843284 0.3464154
0002e0 86 f3 27 bc 82 04 b6 3c c2 d6 b4 bd ba c9 72 3d
       -0.010250932 0.022218946 -0.08830024 0.059274413
0002f0 b6 07 ce bc 72 4c 20 3b cf da 0f 3d 54 f8 29 bd
       -0.025150161 0.0024459627 0.03512078 -0.04149659
000300 bb f4 b1 bc 27 6a 72 3d 7b 20 94 bc e7 25 45 bd
       -0.021723142 0.059183266 -0.018081894 -0.04813185
000310 3d 5a e5 3c 35 31 9c 3c 6a 5f 76 bb f5 58 7a bd
       0.02799713 0.019066432 -0.0037593492 -0.061119992
000320 c8 74 8b bd ee 94 98 3c 35 f7 6b bc e8 42 01 bd
       -0.06809384 0.018625703 -0.0144022005 -0.031557947
000330 48 57 c0 3c 55 6e 9f 39 6e b9 27 bd 88 0a 37 bd
       0.023479119 0.00030409047 -0.040948324 -0.044687778
000340 c6 d7 82 bd 1f 6f cd 3e a5 9b 88 3e e3 da 8b bb
       -0.06388812 0.4012384 0.26681247 -0.0042680367
000350 6a 20 c2 3c 4d 75 93 bb d1 03 93 bc 01 83 71 bc
       0.023697097 -0.0045000673 -0.017946156 -0.014740706
000360 3e 9a 8e bd cf 2f 75 bd 67 39 94 3d 56 7e 75 3c
       -0.06963013 -0.059860047 0.07237511 0.014983734
000370 b2 9d d3 3c 77 fd 2b be c2 51 0a bd c9 96 38 bd
       0.02583203 -0.16795908 -0.033769377 -0.045065675
000380 d6 b6 09 3c 57 40 1f 3d c0 dc bc bd 9b a0 2a bd
       0.008405408 0.03887972 -0.09221792 -0.04165707
000390 68 a1 e1 bb ff e5 e6 3b 14 e9 8e bc 6b ec 99 bd
       -0.006885696 0.0070464606 -0.017445125 -0.07515796
0003a0 32 7b 1e bd d0 0f 84 bd 99 84 0a bd 42 6e fa 3b
       -0.038691707 -0.064483285 -0.03381786 0.0076425383
0003b0 8c 9f 49 3c 76 6b 0c bd a3 b5 67 3d 70 6e 4d bc
       0.012306105 -0.03428217 0.056569707 -0.012538537
0003c0 4b c1 1e bd 62 2a 25 3d 82 8e ae 3c 5e 3a 46 3d
       -0.038758557 0.040323623 0.021308187 0.048395507
0003d0 18 66 fe bc 8e fc ac bd 80 25 28 3d a0 15 9d bd
       -0.031054541 -0.084466085 0.041051388 -0.0767014
0003e0 12 50 88 bd b8 70 80 bd d5 89 07 3d 72 a5 12 3d
       -0.06655897 -0.062714994 0.03309043 0.035802312
0003f0 de f1 47 bd a0 ee eb 3c d4 0d 86 bd 0c 96 96 bd
       -0.048814647 0.028800309 -0.06545606 -0.07352838

net.4.weight f4 [1, 256]
000000 8e c3 cb 3d 6b fe ca 3d 93 f7 d6 3d 38 38 e8 bc
       0.099494085 0.099118076 0.1049644 -0.02834712
000010 43 39 7b bc 14 de c3 3d 60 be 11 3e e6 c8 bd bb
       -0.0153334765 0.095638424 0.14232779 -0.005791771
000020 26 31 37 3e 7e 5c 32 bd fc 92 bc ba c1 c7 e7 3e
       0.17889842 -0.04354524 -0.0014387066 0.45269588
000030 1b 61 0a 3e cf c8 97 3e 95 04 33 bc af 26 0d bd
       0.13513605 0.29645392 -0.010926385 -0.03446072
000040 df 6b 3c 3e 50 02 3f 3c 0d bd 11 bc c0 f6 d7 3c
       0.18400525 0.011658266 -0.008895171 0.026362777
000050 57 46 43 bc c6 da 9c 3e 26 f3 6d bb d8 fe 0e 3e
       -0.011918626 0.3063566 -0.0036308258 0.13964403
000060 a8 83 16 bb 93 bf b3 3c 71 1c 09 bd 27 13 a0 be
       -0.0022966657 0.021941936 -0.03347439 -0.31264612
000070 ad 94 b2 bc 72 dc 9b bd 7f 15 7c 3d 8e 28 df 3d
       -0.02179941 -0.07610406 0.061543938 0.10896407
000080 16 23 32 bb f5 c8 b7 bd d2 2f 06 3e d3 33 0a 3e
       -0.0027181557 -0.089738764 0.1310418 0.13496332
000090 25 f1 0d 3e 6b 4e 89 3c bb 26 ad bc 29 5d 9c 3e
       0.1386152 0.016761025 -0.021136632 0.30539826
0000a0 b5 77 a4 bc da 1c d6 3b 42 5c 64 3e d8 e6 8d 3c
       -0.020076612 0.006534201 0.22300819 0.017321989
0000b0 60 10 c8 3c de 8c 0f bb 83 20 15 3e 22 c4 64 3d
       0.02442187 -0.0021904032 0.14563183 0.05585111
0000c0 ea 1c 17 3e 75 b9 d9 bc 54 e1 7d 3c 79 9d 82 3d
       0.14757124 -0.02657769 0.015495617 0.06377692
0000d0 92 7a 81 3e 85 58 45 bd 22 33 f4 bc d5 99 0b bd
       0.25288826 -0.048180122 -0.029809538 -0.034082253
0000e0 ef e2 07 3e 67 5b 8b 3d 28 6b 39 bd 2d a7 19 3e
       0.13270162 0.06804543 -0.045268208 0.15005179
0000f0 47 e7 5d 3d a3 1d a3 bb 57 4f 16 bc df d3 bb 3d
       0.05417564 -0.004977898 -0.0091741895 0.091712706
000100 4a ab 79 bc 0e 80 02 bc 89 c0 14 bd 39 05 39 be
       -0.015238592 -0.007965101 -0.03631643 -0.18068399
000110 b9 b6 b1 be b2 be 04 bc a9 6b 25 bd 8d 09 c1 3b
       -0.3470972 -0.008102106 -0.040385876 0.005891031
000120 ec d5 bc 3e e1 74 4a 3e c4 06 39 bc ea 65 17 bd
       0.3688196 0.19771148 -0.011293117 -0.036962427
000130 28 2d 1f bc a5 22 90 3d bb f5 80 3e 5b f0 91 3a
       -0.009715356 0.07037858 0.25187477 0.0011134254
000140 95 c7 0e 3e aa d9 f6 3d 03 83 91 3d 0c 18 eb bc
       0.13943322 0.12053235 0.071050666 -0.02869799
000150 d1 af 35 3c 1f ec 10 3e 82 2b 23 3e a6 f2 63 bc
       0.011089281 0.14152573 0.15934566 -0.013912832
000160 ed d5 2f 3c b4 7c 1e bc 14 5e 0f 3e ea 8c 1e bd
       0.010732156 -0.009673286 0.14000732 -0.038708605
000170 54 0d f1 3c 13 03 47 3d f3 30 ed 3e bc 2d b5 3d
       0.0294253 0.048586916 0.46326408 0.08846614
000180 8d f0 d1 3d 88 e4 53 3c 82 9a 1c bd 0a 61 e9 3b
       0.102509595 0.012932904 -0.038233288 0.0071221637
000190 0a 3a 02 3d 36 0d 77 bb 2d af 58 3d 9c e6 48 bd
       0.03179363 -0.0037697083 0.052901436 -0.04904805
0001a0 80 5b af 3b d5 27 2a 3e c9 a8 c3 3d cb 36 95 3d
       0.005351484 0.16616757 0.095536776 0.072858416
0001b0 92 41 3e bc bd f0 3e bc ae bb 50 3e 57 49 c4 3d
       -0.011612313 -0.011654076 0.20384094 0.09584301
0001c0 27 02 67 bc 39 56 9a bc 48 e8 22 3d 39 02 4b bc
       -0.014099634 -0.018839942 0.039772302 -0.012390667
0001d0 0e 40 5e 3e 2e 94 0c 3f 74 6c 69 3b 34 41 0b 3e
       0.21704122 0.54913604 0.0035617622 0.13599092
0001e0 f3 f1 03 3b 09 29 d2 3b 2c bf 28 3e 01 e9 56 bd
       0.0020133227 0.006413583 0.16479176 -0.052468304
0001f0 75 6b 8c bb 5d fd 96 bc 01 3e a7 3b 4b 10 a1 3b
       -0.004285271 -0.01843136 0.005103827 0.0049152724
000200 3e e8 dc 3c 2f ae ea bc c1 5f 14 bd d7 08 64 bc
       0.02696621 -0.02864751 -0.03622413 -0.013918123
000210 85 1b 4d bd 70 94 b2 3b 59 fa 69 bb b4 88 36 3f
       -0.050075073 0.005449824 -0.0035702197 0.7130234
000220 fe 6a 3f 3d 25 fd 81 3d a2 ea 49 3d 9f 34 5b 3e
       0.046732895 0.063471116 0.04929603 0.21406792
000230 39 37 3c 3e 89 d8 88 3d 4e be b5 3b a4 3c 06 3d
       0.18380441 0.06681926 0.0055463677 0.032772675
000240 4f cb f4 3d ad 72 18 ba 9e 79 17 3e 12 b8 3b 3e
       0.119528405 -0.0005815428 0.14792487 0.18331936
000250 85 47 26 3e fc 3d 04 3d 27 61 f1 3c ee f4 56 3c
       0.1623822 0.032285675 0.029465271 0.013119919
000260 64 a0 47 be 0f 3c e3 bc c2 ba f2 bc 48 a1 57 bc
       -0.19494778 -0.0277386 -0.029630069 -0.013161011
000270 30 50 73 bd 3b 85 b0 3d 80 39 dd bb be f5 ca bc
       -0.059402645 0.08619162 -0.0067512393 -0.024775382
000280 38 00 d9 3d 42 cf 72 3d d1 8c 5f bc e2 0d ec 3c
       0.10595745 0.059279688 -0.013644413 0.028815214
000290 02 a3 b5 bc 4d e9 fd bd 2a fd 15 3e 45 b2 83 bc
       -0.022172455 -0.12398014 0.14647356 -0.016076216
0002a0 10 e4 16 3e b5 af 6c 3b 5c 7a b8 bc 25 ee 8f 3e
       0.14735436 0.0036115472 -0.022519283 0.28111377
0002b0 99 3e b5 bc be f6 e9 3d 3f 5b df 3b ff 14 0e 3e
       -0.022124575 0.114240155 0.0068162973 0.13875197
0002c0 b2 c6 0d bd d7 57 38 3e ad 32 69 bc 20 e1 c5 3c
       -0.03461332 0.18002258 -0.014233273 0.0241552
0002d0 fa 68 a3 3b 47 a4 e6 3c e3 26 23 be ef 6c 6f 3e
       0.0049868794 0.028154505 -0.15932803 0.23381399
0002e0 e5 6a 20 3e 13 18 be 3d 5c b2 92 3c f2 51 c2 3d
       0.15665777 0.092819355 0.017907314 0.09488286
0002f0 76 40 d0 bc 96 74 27 bd 44 2f a1 3d 65 f3 ee bc
       -0.025421362 -0.04088267 0.07870343 -0.029168794
000300 44 ed 78 3b e8 8d 04 3f 1a 99 d1 3d 8e 94 f6 3c
       0.0037983218 0.5177903 0.1023428 0.030100133
000310 69 da c8 3d b4 4a e3 3d 72 44 4a bc 1d 96 46 bc
       0.098072834 0.11098233 -0.01234542 -0.012120751
000320 55 81 a7 3c 23 d8 ef 3d 46 9a 9d 3d 93 85 16 bc
       0.020447413 0.11711147 0.07695441 -0.00918712
000330 d2 25 18 3e 3f 1e 0d 3e 49 50 37 bd e4 f9 a5 3c
       0.14858177 0.13781069 -0.0447543 0.020260759
000340 57 b7 07 bd f8 bf 70 3e eb e8 16 3e 00 c6 63 3e
       -0.03313383 0.2351073 0.14737289 0.222435
000350 4c 88 09 bc 5f 78 52 3d 7f f6 15 ba 9d b5 58 bc
       -0.008394312 0.051384326 -0.00057206297 -0.013226894
000360 59 77 0f bc 6f 0f ec 3c da 34 00 3e d8 d4 42 3e
       -0.008756482 0.028815953 0.12520161 0.19026506
000370 39 b9 a1 3d 32 5a 06 3e 7b f5 89 bd 06 03 c9 3a
       0.078966565 0.13120344 -0.06736275 0.0015335984
000380 51 56 31 bb 5b 3e 7d bc 14 8e 05 3c c1 13 8c bb
       -0.0027059505 -0.015456761 0.00815155 -0.004274816
000390 0b f3 f8 3c 60 fb 01 bc d0 10 c6 bc 66 41 c6 3d
       0.03038933 -0.007933468 -0.024177939 0.096804425
0003a0 a9 c7 d8 3c b7 67 20 bd 48 98 93 bc 88 fd 9a 3d
       0.026462393 -0.03916141 -0.01801695 0.075678885
0003b0 e2 a0 f9 3d 7c c1 85 3d 59 d5 dc 3d ed 17 34 3e
       0.12188889 0.06531045 0.1078288 0.17587252
0003c0 db 21 19 bc 00 86 a3 3d b7 ee 06 3e 5a 49 43 3c
       -0.009346451 0.07984543 0.13177 0.011919344
0003d0 a5 b2 93 3b 39 53 87 be ab e5 45 3d ce bf 7b bc
       0.00450738 -0.2643068 0.04831473 -0.015365554
0003e0 fa 22 a1 bc e7 3c 13 bc b6 be f2 3d 21 ba 7d 3e
       -0.019669998 -0.008986688 0.118527815 0.24778034
0003f0 0c ac 83 bb 26 8d a1 3d 66 35 7a bc a1 7a 7d be
       -0.0040183123 0.0788825 -0.01527152 -0.2475381
