PPO/trex_ppo_models/critic_ep1100.pkl (torch, 282372 bytes, 5 tensors)

net.0.weight f4 [256, 14]
000000 45 af 80 3d a7 ef 72 3d 89 c4 0a be e3 26 3d bf
       0.0628343 0.05931058 -0.13551535 -0.7388746
000010 4d fe 7e bf 18 a5 57 3e 61 a6 fe bb 0c 78 0a 3f
       -0.9960678 0.21059072 -0.0077712988 0.54089427
000020 96 a6 e7 be aa 6f 43 3c 40 77 45 be 4b 0e b1 3c
       -0.45244282 0.011928478 -0.19283772 0.02161326
000030 55 fd 08 3e 67 33 6a bb c1 58 70 3d fa c4 73 3d
       0.13377889 -0.0035736205 0.058678392 0.059514023
000040 c6 a2 ea bd 8c 77 26 bf a9 71 08 3f 80 e3 36 be
       -0.11456828 -0.65026164 0.5329843 -0.17860222
000050 00 53 50 be a7 f7 e7 be 5c 52 da 3c ce bc c2 3e
       -0.20344162 -0.4530613 0.0266506 0.38034672
000060 91 1f 26 bf 71 20 e7 3d 43 25 23 be 31 6c e7 be
       -0.64891917 0.112854846 -0.15932183 -0.4519973
000070 7c a7 52 be aa e4 18 bf e6 22 b4 bd d4 0c 66 3f
       -0.20571703 -0.59723914 -0.08795719 0.89863324
000080 30 ab 32 be ae 54 8d 3e 09 76 86 3d 74 1d 9d 3e
       -0.17448115 0.27603668 0.06565482 0.30686533
000090 fc 79 80 3e ad ea 2a 3e 69 89 3a 3f de 88 7d bd
       0.25093067 0.16691084 0.7286592 -0.061898105
0000a0 55 7b fb 3c 61 97 5f 3e 1e 2f 10 bf d3 54 d7 bd
       0.030698458 0.2183509 -0.56321895 -0.10514226
0000b0 2c 67 0e 3d 9a 06 bf bf 07 cb ea be e9 e6 52 be
       0.03476636 -1.492389 -0.45858023 -0.20595898
0000c0 ef 85 5c 3b ab 79 2d 3e 69 a8 b7 be ed 49 25 3e
       0.0033649167 0.16940944 -0.35870674 0.16141482
0000d0 53 2f 90 be f4 8e a7 bd 0f 31 0b bf bb 10 01 bf
       -0.28161106 -0.08181563 -0.5437173 -0.50416154
0000e0 eb ab 8b 3d 95 58 0b bb 2f 32 04 be 42 e7 43 bf
       0.068199 -0.0021262516 -0.12909769 -0.76524746
0000f0 84 d6 0e bf c3 a5 93 3e ea 07 a5 3e 5c e3 19 3e
       -0.55796075 0.28837404 0.322326 0.15028137
000100 8d 6d 24 be e8 0c 93 3e 85 67 c8 3d 6a 34 6d 3e
       -0.16057415 0.28720784 0.0978537 0.23164526
000110 73 de d7 be e9 d7 91 3e b2 3e 96 3c 75 9a 7e 3b
       -0.42161903 0.2848504 0.018340442 0.0038849388
000120 d0 ac a9 3d 2d 90 f2 bd 81 51 4b bf 09 0d 8d bd
       0.082849145 -0.118439056 -0.7942124 -0.06887252
000130 c9 f7 ba 3e db 7d cc 3e 2d 92 b1 bd e8 fe 14 3e
       0.3651717 0.3993977 -0.08670459 0.14550364
000140 69 f0 a0 3c 90 32 b9 3e b8 6b 5f be b1 a2 cf 3c
       0.019645886 0.3617139 -0.21818435 0.025346132
000150 20 72 b1 3d d1 63 58 3e c5 94 11 be 9c 42 91 bf
       0.08664346 0.21131827 -0.14216907 -1.1348453
000160 96 84 df 3e 86 1e ab be a7 d1 96 3c 57 21 11 bf
       0.43655843 -0.33421725 0.018410517 -0.566915
000170 b3 06 0b bf 1f d6 95 3e 06 65 f0 be c7 ed 0b 3e
       -0.543071 0.29264924 -0.46952075 0.13664924
000180 bf 8d 20 bf 38 1d 07 be 82 16 bf be ad 0d 8b 3d
       -0.6271629 -0.1319474 -0.3732186 0.06789718
000190 09 85 6d bd e5 34 52 bf fb 65 21 3d 4e ac d6 3b
       -0.0579882 -0.8211196 0.039403897 0.006551302
0001a0 bc 5f 98 bd 61 ec c4 be 77 0a 06 bf 6b 20 04 be
       -0.07440135 -0.38461593 -0.5235972 -0.12902991
0001b0 7e 4c 23 3b d1 b4 88 be ca 51 be bd d4 bd c3 3e
       0.002491742 -0.26700452 -0.09292944 0.38230765
0001c0 19 ff 26 bd b5 80 46 bd 7b c9 6b be 45 82 eb be
       -0.040770624 -0.04846259 -0.23026077 -0.45997825
0001d0 eb 21 eb bd 63 b4 9b be 96 cf 42 bc 8f 6b 19 3e
       -0.11481079 -0.30411062 -0.011890313 0.14982437
0001e0 f6 4a d1 be 32 65 4d bc 99 78 e6 3d d1 62 60 bd
       -0.40877503 -0.012536334 0.11253471 -0.05478174
0001f0 56 15 32 bd 56 b1 05 be a7 11 34 3e 40 5d 27 3e
       -0.04347738 -0.1305593 0.17584859 0.16344166
000200 8c 9a 63 3d d3 cb db bc 03 75 19 be c1 88 f8 bc
       0.05556731 -0.02683059 -0.14986043 -0.030338647
000210 8f 94 98 be 66 fb fa bc 44 b1 9d be 69 1b f0 bd
       -0.2980084 -0.030637454 -0.30799305 -0.11723978
000220 6e 0e 85 3c 71 97 04 3e 1d 49 94 bd 59 2c 8b be
       0.016242232 0.12948395 -0.07240508 -0.27182272
000230 08 1b f9 3d 27 cc 70 be 65 df ff bd 0a 2a 07 bf
       0.12163359 -0.23515378 -0.12493781 -0.5279852
000240 15 ac e0 3d 5b 3a eb bd eb c4 bc 3d d8 c0 cb bc
       0.10970322 -0.1148574 0.092172466 -0.024872229
000250 da 01 ff bd 1f c4 5a be 7e eb a7 be 55 d5 6a 3d
       -0.12451525 -0.21363877 -0.32796854 0.057332356
000260 b5 ef b2 be db a1 4e bf 49 d9 4a 3d ba 6b 21 3d
       -0.34948507 -0.8071572 0.049523626 0.039409377
000270 16 b6 c9 bd fe 7b 8e bf 37 1e 4c be d7 cb e2 3b
       -0.09849183 -1.113159 -0.19933401 0.0069212723
000280 dc 6d 66 be a9 7d 8e 3e af 61 0e bf fc 3e 2e be
       -0.22502846 0.27830246 -0.55617803 -0.17016214
000290 17 fe cb be de 89 ac be 8a 04 1e 3e f3 20 07 3e
       -0.39842293 -0.33698934 0.15431419 0.13196163
0002a0 09 d1 1a be d8 16 24 be a2 5a 80 be 28 3d e9 be
       -0.15118803 -0.16024339 -0.25069147 -0.4555447
0002b0 76 c7 92 bd 4d d7 ff 3d 51 3f 1b be 9c ee 8c 3e
       -0.071669504 0.12492237 -0.15160872 0.27525795
0002c0 24 60 4e be d1 a2 bd bc f9 15 25 be 61 aa 99 be
       -0.20153862 -0.023148926 -0.16121663 -0.300128
0002d0 24 81 92 be b7 76 c9 3d 02 68 0f 3e f8 fb 3f 3c
       -0.2861415 0.09837096 0.1400452 0.011717789
0002e0 a5 e0 1d be c4 c0 16 bf 07 98 23 3e 7b c5 0b bf
       -0.15417726 -0.58887887 0.15975963 -0.54598206
0002f0 bd 07 cc bd eb 35 d6 3d 72 3e 09 be 89 68 1a 3d
       -0.099624135 0.10459503 -0.13402727 0.03769735
000300 96 37 cf be 1f 3a 2d 3e 0b c6 5c bd 35 32 20 bf
       -0.40472096 0.16916703 -0.053899806 -0.6257661
000310 cc 57 9f 3d df 69 87 bd 85 f9 32 be df d3 23 bf
       0.07780418 -0.0661199 -0.17477997 -0.63995165
000320 d6 23 1b 3d 05 99 c4 be 66 1d 92 bc 37 0c 87 bd
       0.037875973 -0.38397995 -0.017836284 -0.06594127
000330 b7 f6 09 be d4 b5 c5 3d 8e fd bb be 33 56 42 3c
       -0.1347302 0.096538216 -0.36716884 0.011861372
000340 e6 d6 a3 3e fd fc 1e be 30 d1 8d 3d b1 b6 10 be
       0.31999892 -0.15526195 0.06924665 -0.14132191
000350 71 e9 3a 3e ac d4 6f c0 ef 5f b7 bd f9 86 60 bc
       0.18253113 -3.7473555 -0.08953845 -0.013704055
000360 7c e2 bc 38 95 7d 93 3d 7d 4e 2f bf 00 6f 90 3e
       9.0067246e-05 0.07201687 -0.6847914 0.28209686
000370 28 1a 82 bd 88 3a 58 3e c7 ca ea bd 3e ed 08 3f
       -0.06352645 0.21116078 -0.11464458 0.53487
000380 48 54 2f bd f9 a3 b4 bc 58 bc 44 be 45 6b 90 be
       -0.042804986 -0.022050845 -0.19212472 -0.2820684
000390 4d 40 18 ba fa 41 26 be 1b 8e 8a be 6d 30 1f 3e
       -0.00058079214 -0.16236106 -0.27061543 0.15545817
0003a0 bf 20 e2 bb f9 c5 30 3e 27 87 db be d7 34 f9 3d
       -0.0069008763 0.1726302 -0.4287655 0.121682815
0003b0 ec e8 79 bd 8a 89 27 bf 3d 6f 24 be ba 9a 74 be
       -0.061013147 -0.6544424 -0.16058059 -0.23887148
0003c0 b2 4d 00 be cb 93 80 be ed bf f9 3d 01 a6 2f be
       -0.12529638 -0.25112757 0.1219481 -0.17153169
0003d0 41 c1 cb 3d 32 02 26 3e d7 92 a3 be 84 76 b8 3c
       0.0994897 0.16211775 -0.31947967 0.02251745
0003e0 60 01 d6 bd d7 dc af bc 72 0a 66 be d2 35 55 3e
       -0.10449481 -0.02146761 -0.22464922 0.20821312
0003f0 00 22 2a 3e 10 ce 2a be df 1f 04 be db 7e 05 bf
       0.16614532 -0.16680169 -0.12902783 -0.5214669

net.0.bias f4 [256]
000000 3c b7 2b 3e 34 5b 9c 3e 88 ba af 3e 92 80 4e be
       0.16769117 0.30538332 0.34322 -0.20166233
000010 46 44 90 3d e2 21 af 3e 23 fb be 3d a1 3c e4 bd
       0.07044272 0.34205538 0.09325244 -0.111443765
000020 47 9b 5c bb a1 56 73 be 24 64 0b be a5 c0 b7 bb
       -0.0033661888 -0.23763515 -0.1361242 -0.005607682
000030 17 8f 35 be 41 b7 51 3d 5f 5b 99 bd a4 da b6 bd
       -0.17730366 0.051200155 -0.07488131 -0.08928421
000040 d7 c9 30 bc e1 b8 42 be 37 66 07 3e 84 2a a0 bd
       -0.01079031 -0.19015838 0.13222586 -0.07820609
000050 7e 5e 93 3d c3 f9 a4 be 34 04 19 3e ef 85 af 3e
       0.07195757 -0.32221803 0.1494301 0.3428187
000060 a6 6c d8 3d 7a 0d bf 3c 0a 43 86 be 6b f5 a0 be
       0.10567598 0.023321856 -0.26223022 -0.3143724
000070 78 3d c7 ba 52 45 03 bd d3 40 77 3c 36 84 ab 3e
       -0.0015200814 -0.03204853 0.015091139 0.33499306
000080 dc 2e af 3c 05 a2 bd be 79 aa 90 be 89 6f 84 3e
       0.021384649 -0.37037674 -0.2825506 0.25866345
000090 b7 6f 2f 3e a0 87 e0 3b 25 6e d6 3d bd e2 8b be
       0.1713246 0.0068521053 0.10470227 -0.27321425
0000a0 a4 8e ac 3d e4 2f 53 be 45 1f 5f ba 0d 57 76 3d
       0.08425644 -0.20623738 -0.00085114344 0.06014161
0000b0 56 52 7e be 0b 30 3e 3d ef b3 87 be 38 c4 54 be
       -0.24836096 0.046432536 -0.26504466 -0.20777977
0000c0 c1 51 38 3d d7 3c 7d be 7f bd 2a 3e 73 c5 dc 3c
       0.04499984 -0.2473024 0.1667385 0.02694962
0000d0 45 c9 01 3e a6 61 98 bd b8 92 a4 bd 1c 8f a5 3d
       0.12674434 -0.074405 -0.08035797 0.080839366
0000e0 08 90 b6 3c 63 b3 17 be 8a 7f 7c be 9b b4 83 be
       0.022285476 -0.14814524 -0.24658027 -0.2572373
0000f0 0a 00 d9 bd 62 34 14 3d 40 06 16 be 1f 5d 86 be
       -0.105957106 0.03618277 -0.14650822 -0.2624292
000100 74 03 6a 3d e1 86 18 bd 02 50 82 be 4f d2 40 3e
       0.0571322 -0.037238006 -0.25451666 0.18830226
000110 16 03 19 be 8f 9a 24 3d 9d 9e 6a be 4b c2 14 3e
       -0.14942583 0.04018646 -0.22912069 0.14527242
000120 df 00 51 be 53 0b eb 3d d9 af d9 3d a3 17 f3 3d
       -0.20410489 0.11476769 0.106292434 0.11869743
000130 44 92 7a be e0 b8 d0 3d a3 a3 48 bc c5 bf 12 be
       -0.24469858 0.10191512 -0.012246045 -0.14330967
000140 4e 9b 45 be c0 6a 0a be 8a 8c d8 3b 53 aa be 3e
       -0.19297525 -0.13517284 0.0066085504 0.37239322
000150 ea ab 92 be 72 36 04 be b3 86 82 be 0f 2f 56 be
       -0.28646785 -0.12911394 -0.25493392 -0.20916389
000160 2f d0 20 be 21 03 ae bd 1f 70 e8 3d 8a 91 5f bd
       -0.15704416 -0.084966905 0.113495104 -0.054582156
000170 82 04 cf 3d 08 47 44 be 1b d0 91 be a0 53 3f 3e
       0.10108282 -0.19167721 -0.28479084 0.18684244
000180 ab ad 61 be fb 65 1d 3e 3a 2a bd bd 21 67 33 bd
       -0.22038905 0.15370934 -0.0923657 -0.043799523
000190 c0 3b e0 3d 51 fa 3c 3d 7f 2f 49 3e c6 ea 19 3e
       0.109488964 0.046137158 0.19647025 0.15030965
0001a0 51 b7 94 3d 01 a7 01 be fb 7b 70 3e 50 4d 58 3e
       0.07261527 -0.12661363 0.23484795 0.21123242
0001b0 78 31 94 3e 81 43 04 be de 81 29 3e 3f bd ce bd
       0.28943992 -0.12916376 0.16553447 -0.100946896
0001c0 e3 ed a4 3e 19 81 42 be 27 7d d5 bd 18 f3 2c be
       0.32212743 -0.1899456 -0.104242615 -0.16889608
0001d0 0f f1 20 3e 00 ae ed bd 92 b8 0b 3e 8d 38 1c 3e
       0.15716957 -0.116054535 0.13644627 0.15255947
0001e0 7b f7 17 be ce bf 26 3d f3 1d c4 be 36 ad 8f 3d
       -0.148405 0.040710263 -0.383041 0.07015459
0001f0 4a ca b7 3d b4 d0 8b 3e c2 0e f4 bd e1 e1 6a bd
       0.089741305 0.27307665 -0.11916877 -0.05734432
000200 a9 d3 2d 3e 07 2e 53 be 42 3c 26 3e a1 ff 0f b9
       0.16975273 -0.20623027 0.16233924 -0.00013732772
000210 a4 a2 74 3d 4a d9 9c be e0 89 06 be d6 00 24 be
       0.05972542 -0.30634528 -0.13138533 -0.16015944
000220 3b 6e a0 3d 81 4b 83 ba 47 87 7c bd 6f e5 b1 3e
       0.07833525 -0.0010017009 -0.061652448 0.34745356
000230 9b 38 a4 bd 02 7b b1 3d 23 5f 83 be 7f 55 9e 3d
       -0.08018609 0.0866604 -0.2565852 0.07731151
000240 4e b0 f9 bd 2a ba 02 3e 64 a0 d1 3e bf 47 fb 3d
       -0.121918306 0.12766328 0.4094268 0.12269544
000250 d7 b6 69 be 48 cd 89 3d 38 cf 35 be 3b c4 3c be
       -0.22823654 0.067286074 -0.17754829 -0.18434231
000260 b3 c1 e5 3d 97 75 8a be 3f c0 26 bd 28 b4 75 be
       0.11218586 -0.2704284 -0.040710684 -0.23994505
000270 cd fe 62 be 4f 46 b9 bd f7 16 b8 bc 43 f7 55 3e
       -0.22167511 -0.090466134 -0.022471888 0.20895104
000280 f0 84 37 be 1e fc 98 be 5d d9 cc 3b a2 81 47 be
       -0.17921805 -0.2987985 0.0062514977 -0.19483045
000290 da ad 59 bd 8e c7 f0 bb c5 9d a9 bc bc 6a a9 bd
       -0.053144313 -0.0073480075 -0.020705113 -0.08272311
0002a0 ca 44 82 be b9 53 1b be fe 36 69 be 87 b1 58 3d
       -0.25443107 -0.15168656 -0.22774884 0.05290368
0002b0 31 9b 93 be 48 a8 d4 bd 2e 93 26 be 9b 30 07 3e
       -0.2882934 -0.103836596 -0.16267082 0.13202135
0002c0 aa 9a 97 3d e0 5a 64 bd fd 3b 02 3e 71 88 b6 3e
       0.07402547 -0.055750728 0.12718196 0.35650972
0002d0 f4 dd 2f be 60 07 f8 bd 9e 0c d2 3d 8f 93 15 3e
       -0.17174512 -0.12110782 0.10256313 0.1460707
0002e0 10 5d 00 3e 13 c8 83 3e a5 82 fb bd 9e ce 0f 3e
       0.125355 0.25738582 -0.12280778 0.14043662
0002f0 5b 54 e8 bd c9 aa 79 be d4 60 ca be e3 2b f6 3d
       -0.113442145 -0.24381556 -0.39527 0.120200895
000300 ac a7 0f be 85 01 59 be 69 67 91 be f3 8e 77 bd
       -0.14028805 -0.21191986 -0.28399208 -0.06043906
000310 48 09 08 3e 5d f1 77 3d 3d 9b ac 3c 9a 29 8f be
       0.1328479 0.060532916 0.021070117 -0.27961427
000320 fc 03 49 bd 07 ab 42 be ed dc 9c bd be f4 c4 3d
       -0.049076065 -0.19010554 -0.07659326 0.09616993
000330 c7 e9 a9 3e eb 25 58 be cd 0b 9b be 3a c7 d8 3e
       0.3318617 -0.21108215 -0.3028244 0.42339498
000340 7e ed 9a be c9 e5 ea 3d 1f b2 58 be 4f cc ee 3d
       -0.30259317 0.11469609 -0.21161698 0.116600625
000350 7b d6 24 be 7b 40 91 3e 15 20 71 3e 0e 00 8b 3d
       -0.16097443 0.28369507 0.23547395 0.0678712
000360 cd dc a6 be 3d 50 cf 3d 53 f7 4e 3d cf b4 cc 3e
       -0.32590333 0.10122726 0.050528836 0.39981696
000370 8b 8f 86 be 50 31 1d 3d 89 59 46 3e 77 13 39 be
       -0.2628139 0.038377106 0.19370092 -0.18073831
000380 f8 65 0f bd 52 22 bb 3d c2 2c 59 be 11 03 51 3e
       -0.035009354 0.091374055 -0.2120848 0.20411326
000390 60 9c 4d bc 40 ae 71 bc dd fe 9b bd de 0d 10 bd
       -0.01254949 -0.014751017 -0.07616971 -0.035169475
0003a0 52 85 b3 be 6e fc 98 be 47 99 23 bc e2 c3 6f be
       -0.35062653 -0.2988009 -0.009985275 -0.23414567
0003b0 48 68 13 3e 03 47 91 be 9f 9e 8c 3e 15 7d 15 3d
       0.14395249 -0.2837449 0.27464768 0.03649624
0003c0 80 ec 13 be b3 ad e6 3d c9 96 55 be f9 4f f6 bc
       -0.14445686 0.11263599 -0.20858301 -0.03006743
0003d0 c5 50 cf 3e 6a 4e 00 be 70 6e 6d 3d bd d9 5f be
       0.4049131 -0.12529913 0.05796665 -0.21860404
0003e0 36 2e fa 3e a6 b4 39 3e 34 4e 08 be f6 dd 35 3e
       0.4886338 0.18135318 -0.13311082 0.17760453
0003f0 bf 10 8f 3d e4 10 12 3e 02 e0 31 be 63 3d 9b be
       0.06985616 0.14264256 -0.17370608 -0.30320272

net.2.weight f4 [256, 256]
000000 01 04 c7 bb 5a 17 a7 3c db 49 86 be 57 6b e3 bd
       -0.0060734753 0.020396877 -0.26228222 -0.11104458
000010 83 71 93 be 12 ee 21 3d 47 6b e1 3d b4 27 8b bd
       -0.2879754 0.039533682 0.1100679 -0.06794682
000020 0a be a8 bc 32 5c b5 bc 9b a4 22 bd cc a0 23 3d
       -0.02059843 -0.022138689 -0.03970776 0.03994827
000030 c2 c8 20 be f1 41 9f bd 89 12 c9 3c bf 15 9f be
       -0.15701583 -0.07776249 0.024544971 -0.31071278
000040 89 91 06 bd 72 bb fd 3d c6 8d 32 bd ea f6 54 bd
       -0.032853637 0.12389268 -0.043592237 -0.051993288
000050 18 36 b0 bc c6 78 8f 3d 85 fc cf bd 8d 14 a3 be
       -0.021510169 0.070054576 -0.10155586 -0.31851617
000060 9c 96 1c be 99 60 c2 3c d8 37 22 3c ba 50 05 be
       -0.15291828 0.023727702 0.0099010095 -0.13019076
000070 68 2d b3 bd 0b b0 74 be f8 63 b0 3e 40 4f 67 3d
       -0.08748895 -0.2389528 0.3445127 0.056472063
000080 72 3c db 3a 22 13 0f 3d b2 08 35 bd 17 80 80 3b
       0.0016726388 0.034930356 -0.044197746 0.0039215195
000090 08 ea cb 3d d6 bc d1 3d 68 14 71 3d e4 87 77 bd
       0.09956747 0.10241096 0.05885735 -0.06043233
0000a0 8c 35 f4 3c 90 52 ac bc c5 99 18 be da f9 2f be
       0.02981069 -0.021035463 -0.14902408 -0.17185155
0000b0 04 4c 90 ba 2a 31 af be b9 47 1b bf 8d 8d 9b bd
       -0.0011008983 -0.34217197 -0.60656315 -0.07595358
0000c0 e8 85 2c bb b0 5e 43 3d 85 1c 9f 3b 0f e2 8b be
       -0.0026324932 0.047697723 0.0048556947 -0.27320907
0000d0 a7 94 50 bd 8d 32 f8 3b 53 31 58 bd 49 45 db bd
       -0.050923016 0.0075743855 -0.052781414 -0.107065745
0000e0 10 d8 f4 bc a4 ed 84 bd 1c d4 99 bd e7 d8 82 3d
       -0.029888183 -0.06490639 -0.0751116 0.06389027
0000f0 9a 1a 95 3b 48 ea cd 3e 4b a5 50 be 74 82 37 bd
       0.0045502903 0.40217805 -0.20375554 -0.044802144
000100 a8 b1 28 bc d8 3a 4c bd 2a 63 eb 3c 39 dc d0 bd
       -0.010296263 -0.049860805 0.028733809 -0.10198254
000110 98 75 fe 3d 81 e0 88 bd 1a e0 3d 3d 78 a2 52 bd
       0.12424773 -0.06683446 0.046356298 -0.051424474
000120 09 9a 1e bd c2 1d 6b 3e ad 5e 36 bd 79 08 64 3d
       -0.038721118 0.2296057 -0.044523884 0.055672143
000130 fd eb 6b bd 7d 75 9d 3d 58 c9 bd bd b5 e0 36 be
       -0.057598103 0.07688425 -0.09266919 -0.17859156
000140 7f 0a 64 39 b8 4a 5a bd 4e 3a 33 3d 91 33 04 bd
       0.00021747685 -0.053293914 0.043756776 -0.03227574
000150 ed ce a3 bd 88 31 d6 bb 0d 8b 51 bd 86 ce af 3d
       -0.07998452 -0.0065366663 -0.051158 0.08584313
000160 81 96 dc 3d 8a ad a8 bc 9c 50 55 bd 2b 0d 55 3d
       0.10770894 -0.020590562 -0.05207883 0.05201451
000170 3a 45 a4 be d0 30 83 bc 07 c3 ca bc 2d 07 91 be
       -0.32084066 -0.016014487 -0.0247512 -0.28325787
000180 73 ef 13 3d a2 7c 57 3e 0c ba d9 bd 04 be 7a bd
       0.03611703 0.21043637 -0.10631189 -0.06121637
000190 be b1 60 bd bf 1f d6 be 0c 6c 06 3e 86 9b 3c bd
       -0.05485701 -0.41821095 0.13127154 -0.046046756
0001a0 43 e4 00 3e 4f 34 9c 3c 0d ef 78 bd 0a c5 c3 bd
       0.12587075 0.019067911 -0.06077485 -0.095590666
0001b0 ed 2d ab be 7d 36 ba 3e df ca 9d 3d fb 49 84 3e
       -0.33433476 0.36369696 0.0770471 0.25837693
0001c0 0f 82 59 3c f4 f3 26 be 42 5b 05 be 10 0f 76 be
       0.013275637 -0.16303998 -0.13023093 -0.24029183
0001d0 75 ba 98 3d fd e1 6d bd e6 ad 58 bc bc 39 ef ba
       0.07457439 -0.058076847 -0.013225054 -0.0018251459
0001e0 99 2f 07 be 53 1a e7 bd 4c 3e ad bd 34 75 e2 bc
       -0.13201751 -0.11284318 -0.08459148 -0.027643777
0001f0 db 32 70 3e 73 1d e6 bc 93 d5 6a 3b 50 6d b6 bd
       0.234569 -0.028090214 0.0035832867 -0.089075685
000200 f2 6f b9 bc 23 64 3e bc cf f0 a7 3d e3 67 da 3c
       -0.022636387 -0.011620554 0.082002275 0.026660865
000210 b9 92 52 bd bf 26 99 bd 47 c9 f1 bc d8 0a 61 bc
       -0.051409457 -0.07478093 -0.029514922 -0.0137354955
000220 38 c5 e4 bc ce 1f c5 bd 07 90 06 be 1d 4c f2 bd
       -0.027926072 -0.09625207 -0.1314088 -0.11830924
000230 f8 64 95 bd c6 e4 f5 3a 03 e1 5a be c6 af 47 bb
       -0.07294649 0.0018760196 -0.21374898 -0.003046976
000240 75 78 8d 3d 49 26 8d bd f1 cd 57 bd ae be 4c be
       0.06907741 -0.06892068 -0.052686635 -0.19994614
000250 c1 50 60 3d 4a b3 68 be 05 69 11 3d b6 26 28 3d
       0.054764513 -0.22724643 0.035500545 0.041052543
000260 2c 06 b8 bb d8 ff 79 3c be 56 a9 bc bc 20 9c bc
       -0.00561597 0.015258752 -0.020671245 -0.019058578
000270 b0 52 a6 bd d4 15 0b be 1e f3 30 3d 3d 13 9d bd
       -0.0812124 -0.13582546 0.043200605 -0.07669685
000280 2c 5d 70 3d 86 b5 05 bc d3 c6 35 bd fd dc f5 bd
       0.058682606 -0.008160954 -0.044379067 -0.12005041
000290 d0 77 27 bf 13 c5 01 be cb f7 6f bd 42 ea 83 bd
       -0.65417194 -0.12672834 -0.058585923 -0.064411655
0002a0 28 65 98 3c 4d c3 3c 3e 6d 55 0a bd 9e 7d b9 bd
       0.018602923 0.18433876 -0.033772875 -0.09057163
0002b0 8e 06 73 3d fb 5a 47 bd f0 0f 8a bc 8a ff 6a bd
       0.059332423 -0.04867075 -0.016853303 -0.057372607
0002c0 44 36 65 bc 85 23 81 be 39 00 cc bd 14 0b 46 bd
       -0.013989989 -0.25222412 -0.0996098 -0.04835041
0002d0 11 55 b8 be 81 fe a3 bd 9a 5e 61 3e 36 9d b8 bd
       -0.360024 -0.08007527 0.22008744 -0.090143606
0002e0 70 e5 87 3e 31 af 8a bb 84 f7 e6 bc 96 b1 ba 3d
       0.26542234 -0.00423231 -0.028194197 0.09115903
0002f0 0f 19 12 3d f3 c6 4e 3c a4 fc db be f8 7d bd 3d
       0.03566843 0.012620675 -0.42966187 0.09252542
000300 ad ce 39 3e ca 56 43 3d 4f 6a 14 be c3 f0 b9 bc
       0.18145247 0.04769019 -0.14493679 -0.022697812
000310 36 ae e8 bd 3b e0 7c 3d 6a d3 93 3d ca 32 ac bc
       -0.11361353 0.06173728 0.072180584 -0.021020312
000320 60 a2 cf bc c8 0c 02 bd 8a e7 37 bc fa 29 89 bb
       -0.025345981 -0.03175047 -0.011224637 -0.004185912
000330 ba 4c 74 bd 8c 1a f5 bd 9c af 2a 3d 57 7b e5 bd
       -0.059643485 -0.11967954 0.04167138 -0.11205166
000340 a0 2a 12 3c 18 df e3 bd 0a 22 6a 3d 90 f9 c4 3d
       0.008921295 -0.11126536 0.05716137 0.09617913
000350 95 31 95 3c f5 1b 3c 3e a4 df a3 3b 63 f8 81 3d
       0.01821212 0.1837004 0.0050010253 0.06346204
000360 f7 5a f9 3d a5 f6 14 be c5 6e 6e be 13 f3 2a be
       0.12175553 -0.14547212 -0.23284443 -0.16694288
000370 f4 f8 69 3d ce 1e 8c be 82 59 49 be ad 77 81 3e
       0.057122186 -0.27367252 -0.19663051 0.25286618
000380 94 83 8f bd a7 d8 c1 3d 5c 45 31 3d cf 06 37 bd
       -0.070075184 0.09465151 0.043279037 -0.044684228
000390 68 4a 1a 3c da 8e 6e bd 81 5a cd 3d 17 ef 86 bd
       0.009417154 -0.058241703 0.10027028 -0.065885715
0003a0 96 50 24 be 3a d3 59 3e 5f ac 18 bc 94 b9 45 3d
       -0.16046366 0.21271983 -0.00931844 0.048272684
0003b0 40 0f f7 bb 8a ed 76 bd c5 21 15 3c a1 32 37 be
       -0.0075396597 -0.06028513 0.00910229 -0.17890407
0003c0 da 8a 7c 3d 10 59 02 3d cb 5f b6 bd ae b2 80 bd
       0.061655857 0.031823218 -0.0890499 -0.062840804
0003d0 07 c9 f7 bb 3a bd 06 be 15 0d f9 3c a0 71 a4 bd
       -0.007561806 -0.13158122 0.030401746 -0.08029485
0003e0 87 ca ad 3e d4 81 ea bc 50 5b da be e1 8c ee bd
       0.3394358 -0.02862636 -0.4264779 -0.11647964
0003f0 97 36 57 be da 1a 74 bd 90 a2 28 3d e0 6c be 3d
       -0.21016918 -0.05959592 0.041170657 0.0929811

net.2.bias f4 [256]
000000 52 91 f7 3c 81 d2 80 bd 26 df 29 3d f0 6a 7a bc
       0.030220661 -0.062901504 0.041472577 -0.015284285
000010 74 da b4 ba 67 48 54 bb df 5d 10 3d 99 e8 ac bd
       -0.0013798014 -0.0032391788 0.035245772 -0.08442802
000020 4a c4 7c bb 0c 77 01 3c f7 4f 04 3c 6c 21 6e 3e
       -0.0038569146 0.007901918 0.008075706 0.23254937
000030 8c ff 54 3c 91 43 38 bd f0 27 23 bd ce 92 e3 bd
       0.01300038 -0.04498631 -0.03983301 -0.11111985
000040 c6 02 69 3e 90 30 60 bd f1 5d ac bc c9 c4 8b 3c
       0.22754964 -0.054733813 -0.021040889 0.017061608
000050 aa 46 6b bc 15 f3 3a 3e b1 a0 1c 3d 7e 40 7b 3e
       -0.014360109 0.18256791 0.038239185 0.2453632
000060 59 13 91 bc 75 3a 63 bd 5d d3 13 3c 5f a9 a8 be
       -0.017709421 -0.05547567 0.009022561 -0.3294172
000070 ce dd 3d bd f3 26 1b bd 1f 80 6d bc f5 ad 12 be
       -0.046354108 -0.03787894 -0.0144958785 -0.14324172
000080 31 2c ac bd 7a d8 06 3e 52 2e 16 3f 72 1e e7 3c
       -0.08406866 0.13168517 0.5866443 0.02821276
000090 11 bd d7 3e 43 e1 82 bd c1 41 8a bd 9d 3f e7 bd
       0.42136434 -0.063906215 -0.06750823 -0.1129143
0000a0 0f 8c 8f 3c d7 57 54 bd 7a c5 1c 3e f2 2a 14 3d
       0.01752284 -0.051841583 0.15309706 0.03617377
0000b0 6c 71 d8 bd 09 d1 34 bd 43 91 2a 3d 38 af 88 3c
       -0.105685085 -0.044144664 0.04164244 0.016685113
0000c0 a1 ec 3b 3d 9a 36 91 bd d7 05 59 bd 92 b7 62 3d
       0.045879964 -0.070904925 -0.052984085 0.055350848
0000d0 7e b4 cd bc 25 13 c3 bc b9 34 4b bd 81 f9 09 bd
       -0.02511048 -0.02381284 -0.049610827 -0.03368521
0000e0 3d b1 95 3d 05 83 b7 3e 59 1f d1 bd 42 6a da bc
       0.07309196 0.35842147 -0.10211057 -0.026661996
0000f0 30 19 3e 3d c0 71 a9 bd f5 af c7 bd 88 be c0 bd
       0.04641074 -0.08273649 -0.09750358 -0.09411341
000100 9f 0c e9 bc 5f e8 e4 3c d2 5c d3 3d 9d d4 5a bd
       -0.028448401 0.027942834 0.103204384 -0.05342542
000110 ab 57 da bc 02 cc a5 bd 58 91 e9 3c d0 38 ae bd
       -0.026653131 -0.08095552 0.028511688 -0.0850693
000120 d8 3a 1e 3e 34 ea dd bd 6a 13 64 bb 1f 76 1a bd
       0.15452135 -0.10835686 -0.003480161 -0.037710305
000130 69 48 1f 3d de cc a4 bc 6e c7 88 3e a1 18 4f bd
       0.038887415 -0.02011722 0.26714653 -0.050560597
000140 70 32 2f bd 38 d0 fb bd 54 9f 03 3d 84 24 b5 bd
       -0.04277271 -0.12295574 0.03213437 -0.088448554
000150 d4 18 15 bc ea b6 e9 bc b0 36 1b 3d f7 23 26 bd
       -0.009100158 -0.028529603 0.03789395 -0.040561642
000160 2f 16 c7 3d 07 23 9c bd 89 bd 0e bb d8 fa 96 bd
       0.09721028 -0.076238684 -0.0021780452 -0.073720634
000170 b9 b4 48 bd cd d1 69 bd ca c9 a0 3d 13 c7 47 3d
       -0.049000476 -0.057084847 0.07850988 0.048773836
000180 4d 47 6e bd 14 de 35 bd 31 b6 15 3d bc df 94 3c
       -0.058173466 -0.044401243 0.036550704 0.018173091
000190 34 60 7e bd bc 2b 97 bd 22 31 77 3c b0 ac 0e 3c
       -0.062103465 -0.073813885 0.015087398 0.008708164
0001a0 f5 e8 8e bd c3 f7 4f bc 5f 6d 18 3d ee a7 55 bd
       -0.06978027 -0.012693348 0.03721368 -0.052162103
0001b0 cc 89 64 bd 09 45 5c bd 5a 1b 22 3f a9 92 3f bd
       -0.055795476 -0.053776775 0.63322985 -0.046770725
0001c0 5b 76 92 bd ef b3 04 be 9f b7 2e bd cb 2c bb bd
       -0.07151481 -0.12959264 -0.042655583 -0.09139403
0001d0 2d 68 21 3e 90 b5 83 bc 34 b3 85 bd 62 be d9 3c
       0.15762396 -0.016077787 -0.06528321 0.02658004
0001e0 7f aa 8c 3e 8a 51 b5 bd f3 40 48 bd 23 38 d0 3c
       0.27473828 -0.08853443 -0.048890065 0.025417393
0001f0 d1 51 49 bc bc 05 1f bd 80 30 6b bd b8 be e4 3c
       -0.012287573 -0.038823828 -0.0574193 0.027922973
000200 41 0a a2 bd 0f 0a 64 bc 1b c0 48 bd e7 19 d8 3c
       -0.07912112 -0.013918414 -0.04901133 0.026379539
000210 af 17 7d bd 09 d1 7b bd 97 36 0d bd 7b de 5b bb
       -0.061790165 -0.06147865 -0.03447589 -0.0033549357
000220 ba 01 f0 bd a0 1e b2 ba ae 57 2f bd bf 71 e5 3e
       -0.11719079 -0.0013589449 -0.042808227 0.44813344
000230 a7 35 59 3d 1f 7b 08 3d 02 7d a2 bc 59 e8 b4 3b
       0.053029682 0.033320542 -0.019834999 0.005520862
000240 96 3a cc 3c 58 bf 84 bd e7 d2 09 3d 8a 19 58 be
       0.02493028 -0.064818084 0.033648398 -0.21103492
000250 a5 95 98 bd 3b d4 d8 bc 8c 08 18 bd df 1e 57 bd
       -0.074504174 -0.026468387 -0.037117526 -0.052519675
000260 1c 37 5a 3e f2 f0 17 bc 83 2e 9a bc 60 d2 1b bd
       0.21310085 -0.009273754 -0.018821007 -0.038042426
000270 48 3a a5 bd f0 24 59 3d 3a 40 88 bd 89 92 6f bd
       -0.08067757 0.053013742 -0.06652875 -0.058489356
000280 96 8d 40 bc 56 4e 74 bc 2b 74 18 be 28 22 df 3b
       -0.011752507 -0.014911255 -0.14888065 0.0068094917
000290 ab bc 8a bd 74 c8 81 bd 2c 7f 42 bd 45 1a 56 bd
       -0.06774267 -0.063370615 -0.04748456 -0.052271146
0002a0 d7 b5 17 bd 97 29 38 bd 9e 44 0f be 7f b7 03 3f
       -0.03703865 -0.04496154 -0.13991019 0.5145187
0002b0 52 c8 54 3b db 11 8d bd 81 4c 81 bd 60 85 ca 3c
       0.0032468033 -0.06888171 -0.0631342 0.024721801
0002c0 39 bc 38 bd 5b 4e 83 3e cb f1 2d bc 0c 9b fa bc
       -0.045101378 0.25645718 -0.01061673 -0.03059151
0002d0 bb 62 9e bd 8c 11 b7 bc 47 1c b5 bd 0f bc a7 3e
       -0.07733675 -0.022347234 -0.08843284 0.32760665
0002e0 86 f3 27 bc 8c 48 77 bc c2 d6 b4 bd f4 7c 05 3d
       -0.010250932 -0.01509298 -0.08830024 0.032589868
0002f0 c6 0c 63 bd 72 4c 20 3b cf da 0f 3d 54 f8 29 bd
       -0.055432104 0.0024459627 0.03512078 -0.04149659
000300 2e f6 b1 bc d8 69 24 3c 7b 20 94 bc e7 25 45 bd
       -0.021723833 0.010035001 -0.018081894 -0.04813185
000310 13 9f 0a bc 38 73 17 bc 6a 5f 76 bb f5 58 7a bd
       -0.008460778 -0.009243779 -0.0037593492 -0.061119992
000320 c8 74 8b bd d8 b9 5e 3c 35 f7 6b bc ee 2c 7d bd
       -0.06809384 0.013594113 -0.0144022005 -0.061810426
000330 48 57 c0 3c 58 3b 95 bb d4 d6 59 be 75 3d 99 bd
       0.023479119 -0.0045541935 -0.21273357 -0.07482425
000340 6d c8 d6 bd 6c 78 0d 3f 26 0a e4 3d d6 08 fb bb
       -0.10487447 0.55261874 0.11134748 -0.0076609654
000350 6a 20 c2 3c 4d 75 93 bb b9 50 2d bd 01 83 71 bc
       0.023697097 -0.0045000673 -0.04231331 -0.014740706
000360 3e 9a 8e bd 18 ad b3 bd a8 43 bf bb 0c ab 25 3e
       -0.06963013 -0.087732494 -0.0058369227 0.1617853
000370 b2 9d d3 3c fc bb 5c be c2 51 0a bd c9 96 38 bd
       0.02583203 -0.21556085 -0.033769377 -0.045065675
000380 d6 b6 09 3c a3 ad ef 3d c0 dc bc bd 65 a1 8e bd
       0.008405408 0.117030405 -0.09221792 -0.06964377
000390 68 a1 e1 bb 95 93 b7 bc a5 86 3f bd 6b ec 99 bd
       -0.006885696 -0.02240924 -0.046759266 -0.07515796
0003a0 a5 cf 84 bd d0 0f 84 bd 99 84 0a bd 42 6e fa 3b
       -0.064849176 -0.064483285 -0.03381786 0.0076425383
0003b0 8c 9f 49 3c 76 6b 0c bd b8 cb e3 3c 70 6e 4d bc
       0.012306105 -0.03428217 0.027807102 -0.012538537
0003c0 4b c1 1e bd 62 2a 25 3d 82 8e ae 3c 5e 3a 46 3d
       -0.038758557 0.040323623 0.021308187 0.048395507
0003d0 61 7b 80 bd 60 c0 13 be 4a 04 30 3c a0 15 9d bd
       -0.06273533 -0.14428854 0.01074321 -0.0767014
0003e0 12 50 88 bd b8 70 80 bd d5 89 07 3d 72 a5 12 3d
       -0.06655897 -0.062714994 0.03309043 0.035802312
0003f0 de f1 47 bd 55 c2 59 3d 7d aa c3 bd b9 59 1e be
       -0.048814647 0.053163845 -0.095540024 -0.15463914

net.4.weight f4 [1, 256]
000000 04 45 c9 3d f7 1b c7 3d 93 f7 d6 3d 38 38 e8 bc
       0.09827617 0.09722131 0.1049644 -0.02834712
000010 43 39 7b bc 34 91 c1 3d 60 be 11 3e e6 c8 bd bb
       -0.0153334765 0.094515234 0.14232779 -0.005791771
000020 62 0b 1a 3e 55 29 5b bc 3f 48 d3 3c 42 52 20 3f
       0.15043405 -0.013376554 0.025791286 0.62625515
000030 1b 61 0a 3e 56 31 17 3f d8 ca 25 bd f2 04 a4 bc
       0.13513605 0.59059656 -0.04047665 -0.02002189
000040 27 eb 45 3e 50 02 3f 3c 4b 81 aa 3c de 92 53 3d
       0.19327985 0.011658266 0.020813605 0.051653735
000050 a6 09 1c bb 4e 85 38 3e 47 63 da bb 09 ea 42 3e
       -0.0023809462 0.18019602 -0.006664667 0.1903459
000060 a8 83 16 bb 93 bf b3 3c 30 28 5b bb 7a 8c 66 bf
       -0.0022966657 0.021941936 -0.0033440702 -0.900581
000070 dc 51 82 ba 72 dc 9b bd 7f 15 7c 3d bc 2d df 3d
       -0.0009942609 -0.07610406 0.061543938 0.10897395
000080 16 23 32 bb 0d b3 ab be 32 db 2b 3e 8a a4 08 3e
       -0.0027181557 -0.33535042 0.16782835 0.13344017
000090 21 bf ab 3d e0 5b c7 bc bb 26 ad bc 8e 05 88 3e
       0.08386064 -0.024335802 -0.021136632 0.26566738
0000a0 b8 4b c8 3b c4 1f 8d 3e c0 9e 97 3d a0 66 eb 3b
       0.006112542 0.27563298 0.07403326 0.0071838647
0000b0 ee dc 05 bd de 8c 0f bb 83 20 15 3e 22 c4 64 3d
       -0.032681398 -0.0021904032 0.14563183 0.05585111
0000c0 f2 1d 15 3e 75 b9 d9 bc 10 5d 3a 3e 79 9d 82 3d
       0.14562204 -0.02657769 0.18199563 0.06377692
0000d0 aa 3b e8 3e 85 58 45 bd e5 82 b1 ba d5 99 0b bd
       0.4535802 -0.048180122 -0.0013543038 -0.034082253
0000e0 ef e2 07 3e 96 b4 13 bf a1 30 88 bc 2d a7 19 3e
       0.13270162 -0.5769743 -0.01662475 0.15005179
0000f0 47 e7 5d 3d fd 51 f3 3c 57 4f 16 bc ff 69 35 3e
       0.05417564 0.029702181 -0.0091741895 0.17716216
000100 23 5c 5a bc 0e 80 02 bc 26 a5 03 be 7c 6b 1b be
       -0.013327631 -0.007965101 -0.12855968 -0.15177721
000110 b9 b6 b1 be 2c a2 9f 3c a9 6b 25 bd d3 11 c0 bc
       -0.3470972 0.01948651 -0.040385876 -0.023446
000120 95 23 0a 3f e1 74 4a 3e c4 06 39 bc 63 23 26 be
       0.53960544 0.19771148 -0.011293117 -0.16224436
000130 28 2d 1f bc 7a a7 8d 3d c3 e8 3d 3e 32 10 f5 3e
       -0.009715356 0.06916709 0.18545823 0.4786392
000140 17 82 ba 3d 8f 13 41 3d 03 83 91 3d 0c 18 eb bc
       0.09106844 0.047137793 0.071050666 -0.02869799
000150 32 10 29 3c 1f ec 10 3e 82 2b 23 3e d4 57 2d 3c
       0.010318803 0.14152573 0.15934566 0.010580022
000160 d6 ef c7 3c b4 7c 1e bc 14 5e 0f 3e ea 8c 1e bd
       0.024406355 -0.009673286 0.14000732 -0.038708605
000170 02 08 8f 3d 13 03 47 3d fe ef 00 3f bc 2d b5 3d
       0.06983949 0.048586916 0.503662 0.08846614
000180 90 fd a4 3e 88 e4 53 3c 27 78 4d 3e 0a 61 e9 3b
       0.32224703 0.012932904 0.20065366 0.0071221637
000190 0f e1 4d 3e 36 0d 77 bb 2d af 58 3d 9c e6 48 bd
       0.20105384 -0.0037697083 0.052901436 -0.04904805
0001a0 80 5b af 3b fe 49 bf 3d 10 8d c2 3d f1 f4 02 3d
       0.005351484 0.09340285 0.09499562 0.031971876
0001b0 92 41 3e bc bd f0 3e bc f0 e8 0c 3e 57 49 c4 3d
       -0.011612313 -0.011654076 0.13760734 0.09584301
0001c0 27 02 67 bc b1 6b 0d bb 48 e8 22 3d 98 fa 93 3c
       -0.014099634 -0.0021579082 0.039772302 0.018063828
0001d0 e9 51 f2 3e 88 56 17 3f 74 6c 69 3b 34 41 0b 3e
       0.47328117 0.5911641 0.0035617622 0.13599092
0001e0 4b 94 60 3e 21 6d 91 3e 2c bf 28 3e 01 e9 56 bd
       0.2193157 0.2840357 0.16479176 -0.052468304
0001f0 75 6b 8c bb 5d fd 96 bc de 23 4a 3d 4b 10 a1 3b
       -0.004285271 -0.01843136 0.049350612 0.0049152724
000200 3e e8 dc 3c 65 7b 0b be 1c f7 ee bb d7 08 64 bc
       0.02696621 -0.1362129 -0.0072926413 -0.013918123
000210 3f ec 54 bc 4d d4 15 3e b0 60 23 3e 21 dc 35 3f
       -0.012995779 0.14631768 0.15954852 0.71039015
000220 d9 d0 17 3e 25 fd 81 3d a2 ea 49 3d d3 96 8d bd
       0.14825763 0.063471116 0.04929603 -0.06913533
000230 03 36 91 3e 89 d8 88 3d 4e be b5 3b a4 3c 06 3d
       0.2836152 0.06681926 0.0055463677 0.032772675
000240 4f cb f4 3d bf bd f4 3c 9e 79 17 3e 68 be 40 3e
       0.119528405 0.029875634 0.14792487 0.18822634
000250 94 7b 51 3e fc 3d 04 3d 27 61 f1 3c 52 77 a2 3d
       0.20457298 0.032285675 0.029465271 0.07932915
000260 e3 5a f6 bd 0f 3c e3 bc c2 ba f2 bc 24 6c 1b 3b
       -0.12029054 -0.0277386 -0.029630069 0.002371558
000270 30 50 73 bd 3b 85 b0 3d 80 39 dd bb 43 ae b2 bc
       -0.059402645 0.08619162 -0.0067512393 -0.02181161
000280 38 00 d9 3d 42 cf 72 3d 37 52 ad 3e e2 0d ec 3c
       0.10595745 0.059279688 0.33851787 0.028815214
000290 02 a3 b5 bc 4d e9 fd bd 94 f2 f1 3d 45 b2 83 bc
       -0.022172455 -0.12398014 0.11813846 -0.016076216
0002a0 1b 1d f2 3d cc 66 b3 bc 35 70 86 3c a6 ed c4 3e
       0.11821958 -0.021899603 0.016410926 0.3846256
0002b0 99 3e b5 bc df 4e e8 3d 3f 5b df 3b ff 14 0e 3e
       -0.022124575 0.113431685 0.0068162973 0.13875197
0002c0 56 ff c3 bb 43 27 f6 3d 97 f9 71 3c f5 54 3b 3e
       -0.005981366 0.12019207 0.0147689795 0.18294127
0002d0 35 da c6 bc 47 a4 e6 3c e3 26 23 be 3b b0 84 3d
       -0.024273971 0.028154505 -0.15932803 0.06478926
0002e0 e5 6a 20 3e ec 84 5f 3d 5c b2 92 3c 08 19 c1 3d
       0.15665777 0.054570124 0.017907314 0.094286025
0002f0 14 70 9f 3b 96 74 27 bd 44 2f a1 3d 65 f3 ee bc
       0.0048656557 -0.04088267 0.07870343 -0.029168794
000300 55 df 78 3b 90 b4 3c 3f 1a 99 d1 3d 8e 94 f6 3c
       0.0037974913 0.73713017 0.1023428 0.030100133
000310 53 90 ba 3d 30 d7 de 3d 72 44 4a bc 1d 96 46 bc
       0.09109559 0.108808875 -0.01234542 -0.012120751
000320 55 81 a7 3c 32 d6 ef 3d 46 9a 9d 3d f2 f2 ac 3c
       0.020447413 0.117107764 0.07695441 0.02111194
000330 d2 25 18 3e e2 1b 0d 3e 7b 08 eb bd 0a 11 20 bc
       0.14858177 0.13780168 -0.11476227 -0.009769687
000340 3f 85 b5 bd 7b 9f 8c bd c5 3d 2e be c5 b1 be 3e
       -0.08863305 -0.06866356 -0.1701575 0.37245002
000350 4c 88 09 bc 5f 78 52 3d 42 1b c3 3c 9d b5 58 bc
       -0.008394312 0.051384326 0.023816708 -0.013226894
000360 59 77 0f bc 18 c0 da 3c 01 9b 58 3d a0 f2 b3 3e
       -0.008756482 0.026702926 0.0528822 0.35146046
000370 39 b9 a1 3d 86 28 00 3e 7b f5 89 bd 06 03 c9 3a
       0.078966565 0.12515458 -0.06736275 0.0015335984
000380 51 56 31 bb 48 db 41 be 14 8e 05 3c 1e 4c a5 bd
       -0.0027059505 -0.18931305 0.00815155 -0.08071159
000390 0b f3 f8 3c d0 22 19 bd e4 2f a3 3b 66 41 c6 3d
       0.03038933 -0.037386715 0.0049800742 0.096804425
0003a0 bd 17 2b bb b7 67 20 bd 48 98 93 bc 88 fd 9a 3d
       -0.0026106678 -0.03916141 -0.01801695 0.075678885
0003b0 e2 a0 f9 3d 7c c1 85 3d 86 12 dc 3d ed 17 34 3e
       0.12188889 0.06531045 0.107457206 0.17587252
0003c0 db 21 19 bc 00 86 a3 3d b7 ee 06 3e 5a 49 43 3c
       -0.009346451 0.07984543 0.13177 0.011919344
0003d0 fc 59 5f 3d 40 78 68 be 96 03 9d 3c ce bf 7b bc
       0.054529175 -0.22702122 0.019166749 -0.015365554
0003e0 fa 22 a1 bc e7 3c 13 bc b6 be f2 3d 21 ba 7d 3e
       -0.019669998 -0.008986688 0.118527815 0.24778034
0003f0 0c ac 83 bb a1 bb ae 3e 20 7f 70 3c c0 1f 4c be
       -0.0040183123 0.34127524 0.014678746 -0.19933987
