PPO/trex_ppo_models/critic_ep1000.pkl (torch, 282372 bytes, 5 tensors)

net.0.weight f4 [256, 14]
0	0x3d9d6367	0.07684975
1	0x3d3713bd	0.04469656
2	0xbdc76fb8	-0.097381055
3	0xbf48661b	-0.782808
4	0xbf75a9c2	-0.95962155
5	0x3e83d51f	0.25748536
6	0x3d200feb	0.03907768
7	0x3f167ccb	0.5878417
8	0xbee68dda	-0.450301
9	0x3df37bd5	0.118888535
10	0xbe3574b8	-0.17720306
11	0x3d7caf39	0.061690543
12	0x3d6f4be2	0.058421977
13	0x3dd61058	0.10452336
14	0xbd4b92e8	-0.049700648
15	0x3cef82f7	0.029237254
16	0xbd984648	-0.0743528
17	0xbf245c78	-0.64203596
18	0x3eeebf9e	0.46630567
19	0xbe86e408	-0.2634585
20	0xbe57d5d5	-0.21077664
21	0xbec5bec0	-0.38622093
22	0x3bd7f9a5	0.0065910392
23	0x3ed12782	0.40850455
24	0xbf278a2c	-0.6544521
25	0x3d88afda	0.06674166
26	0xbe17c4f7	-0.1482123
27	0xbf08e6f8	-0.5347743
28	0xbe4a402f	-0.19751047
29	0xbf197162	-0.59938633
30	0xbd4bf898	-0.049797624
31	0x3f657f47	0.89647335
32	0xbe800093	-0.25000438
33	0x3e9109c1	0.28327754
34	0x3d9ac350	0.07556784
35	0x3e97ebf7	0.29672214
36	0x3e829249	0.25502232
37	0x3e111931	0.14169766
38	0x3f2c2917	0.672502
39	0xbd6737c4	-0.056449667
40	0xbd007228	-0.031358868
41	0x3e8e179c	0.27752388
42	0xbf0a6bb0	-0.5407057
43	0xbddc8d48	-0.10769135
44	0x3d0e672c	0.03476636
45	0xbfb9aefb	-1.4506525
46	0xbf002943	-0.5006296
47	0xbe27fcf2	-0.16405085
48	0x3d394cd6	0.045239292
49	0x3e587a9f	0.21140526
50	0xbea22621	-0.31669715
51	0x3e503d98	0.20335996
52	0xbe765ed6	-0.24059615
53	0xbd238df8	-0.039930314
54	0xbf0b310f	-0.5437173
55	0xbeecb4e1	-0.4623175
56	0xbc5fd46f	-0.013661488
57	0xbc899984	-0.016796835
58	0xbe36bb28	-0.17844832
59	0xbf2aabe9	-0.66668564
60	0xbed275bf	-0.41105458
61	0x3ebeb12a	0.3724454
62	0x3ea7a28d	0.32741204
63	0x3e805608	0.25065637
64	0xbdfba6d7	-0.122876815
65	0x3e9ae5f5	0.30253568
66	0x3e21c3e5	0.15797384
67	0x3e864032	0.26220852
68	0xbed9d426	-0.4254467
69	0x3e8f35ff	0.27970883
70	0x3cb5fea3	0.022216147
71	0xbcc0ff4d	-0.023559237
72	0x3dcfa9fa	0.10139842
73	0xbdedf3a2	-0.11618735
74	0xbf5c4c0e	-0.8605355
75	0x3d879a83	0.06621268
76	0x3eb7e1f7	0.35914585
77	0x3ee34775	0.44390455
78	0xbdc48e09	-0.095974036
79	0x3e24bcb3	0.16087608
80	0xbcc0ce39	-0.023535835
81	0x3eb2eed0	0.34947824
82	0xbeb21a4b	-0.34785685
83	0x3de70f62	0.11282231
84	0x3d6faa38	0.058511943
85	0x3d8a3ae6	0.06749515
86	0xbdd74d30	-0.10512769
87	0xbf7ae4e3	-0.98005503
88	0x3f00b1de	0.50271404
89	0xbea8c518	-0.3296287
90	0x3dd16653	0.10224595
91	0xbf112157	-0.566915
92	0xbeda9f38	-0.426996
93	0x3ec2e19c	0.3806275
94	0xbee67dc7	-0.45017835
95	0x3e4d2919	0.20035209
96	0xbf208dbf	-0.6271629
97	0xbdf63104	-0.12021068
98	0xbecb57e0	-0.3971548
99	0x3da387c2	0.07984878
100	0xbd6d8509	-0.0579882
101	0xbf51739b	-0.81817025
102	0x3d80b8a3	0.06285217
103	0x3cfb1c54	0.030653156
104	0xbd5c6cdf	-0.053814765
105	0xbec4ec61	-0.38461593
106	0xbf00cf87	-0.5031666
107	0xbe1cd49b	-0.15315478
108	0x3ccd6d21	0.02507645
109	0xbe7bbac1	-0.2458296
110	0xbd8872e7	-0.06662541
111	0x3ecf2237	0.4045579
112	0xbd26ff19	-0.040770624
113	0xbd4680b5	-0.04846259
114	0xbe6bc97b	-0.23026077
115	0xbeeb8245	-0.45997825
116	0xbdeb21eb	-0.11481079
117	0xbe9bb463	-0.30411062
118	0xbc42cf96	-0.011890313
119	0x3e196b8f	0.14982437
120	0xbed14af6	-0.40877503
121	0xbc4d6532	-0.012536334
122	0x3de67899	0.11253471
123	0xbd6062d1	-0.05478174
124	0xbd321556	-0.04347738
125	0xbe05b156	-0.1305593
126	0x3e3411a7	0.17584859
127	0x3e275d40	0.16344166
128	0x3d639a8c	0.05556731
129	0xbcdbcbd3	-0.02683059
130	0xbe197503	-0.14986043
131	0xbcf888c1	-0.030338647
132	0xbe98948f	-0.2980084
133	0xbcfafb66	-0.030637454
134	0xbe9db144	-0.30799305
135	0xbdf01b69	-0.11723978
136	0x3c850e6e	0.016242232
137	0x3e049771	0.12948395
138	0xbd94491d	-0.07240508
139	0xbe8b2c59	-0.27182272
140	0x3df91b08	0.12163359
141	0xbe70cc27	-0.23515378
142	0xbdffdf65	-0.12493781
143	0xbf072a0a	-0.5279852
144	0x3de0ac15	0.10970322
145	0xbdeb3a5b	-0.1148574
146	0x3dbcc4eb	0.092172466
147	0xbccbc0d8	-0.024872229
148	0xbdff01da	-0.12451525
149	0xbe5ac41f	-0.21363877
150	0xbea7eb7e	-0.32796854
151	0x3d6ad555	0.057332356
152	0xbeb2efb5	-0.34948507
153	0xbf4ea1db	-0.8071572
154	0x3d91d37f	0.07120418
155	0x3d216bba	0.039409377
156	0xbd9d0e16	-0.07668702
157	0xbf8eaceb	-1.114652
158	0xbe623a8e	-0.2209265
159	0x3ce96b9d	0.028493697
160	0xbe5056d1	-0.20345618
161	0x3e998931	0.2998748
162	0xbf08f978	-0.5350566
163	0xbe43b057	-0.19110237
164	0xbec0f28b	-0.37685046
165	0xbea17e5c	-0.31541717
166	0x3e341bb8	0.17588699
167	0x3e1bb526	0.15205821
168	0xbe1ad109	-0.15118803
169	0xbe2416d8	-0.16024339
170	0xbe805aa2	-0.25069147
171	0xbee93d28	-0.4555447
172	0xbd92c776	-0.071669504
173	0x3dffd74d	0.12492237
174	0xbe1b3f51	-0.15160872
175	0x3e8cee9c	0.27525795
176	0xbe4e6024	-0.20153862
177	0xbcbda2d1	-0.023148926
178	0xbe2515f9	-0.16121663
179	0xbe99aa61	-0.300128
180	0xbe928124	-0.2861415
181	0x3dc976b7	0.09837096
182	0x3e0f6802	0.1400452
183	0x3c3ffbf8	0.011717789
184	0xbe1de0a5	-0.15417726
185	0xbf16c0c4	-0.58887887
186	0x3e239807	0.15975963
187	0xbf0bc57b	-0.54598206
188	0xbdcc07bd	-0.099624135
189	0x3dd635eb	0.10459503
190	0xbe093e72	-0.13402727
191	0x3d1a6889	0.03769735
192	0xbecf3796	-0.40472096
193	0x3e2d3a1f	0.16916703
194	0xbd5cc60b	-0.053899806
195	0xbf203235	-0.6257661
196	0x3d9f57cc	0.07780418
197	0xbd8769df	-0.0661199
198	0xbe32f985	-0.17477997
199	0xbf23d3df	-0.63995165
200	0x3d1b23d6	0.037875973
201	0xbec49905	-0.38397995
202	0xbc921d66	-0.017836284
203	0xbd870c37	-0.06594127
204	0xbe09f6b7	-0.1347302
205	0x3dc5b5d4	0.096538216
206	0xbebbfd8e	-0.36716884
207	0x3c425633	0.011861372
208	0x3ea3d6e6	0.31999892
209	0xbe1efcfd	-0.15526195
210	0x3da34fe6	0.07974224
211	0xbe10b6b1	-0.14132191
212	0x3e45a8d1	0.1930268
213	0xc062b370	-3.542202
214	0xbdccdeb6	-0.10003416
215	0xbb524473	-0.0032084256
216	0x3c2d6fa6	0.010585701
217	0x3da8fc4d	0.082512476
218	0xbf2a3b90	-0.66497135
219	0x3e98f34d	0.29873124
220	0xbd6b6fcb	-0.05747966
221	0x3e60fed4	0.21972209
222	0xbe033fab	-0.12817256
223	0x3f0a55e8	0.5403733
224	0xbd2f5448	-0.042804986
225	0xbcb4a3f9	-0.022050845
226	0xbe44bc58	-0.19212472
227	0xbe906b45	-0.2820684
228	0xba18404d	-0.00058079214
229	0xbe2641fa	-0.16236106
230	0xbe8a8e1b	-0.27061543
231	0x3e1f306d	0.15545817
232	0xbbe220bf	-0.0069008763
233	0x3e30c5f9	0.1726302
234	0xbedb8727	-0.4287655
235	0x3df934d7	0.121682815
236	0xbd79e8ec	-0.061013147
237	0xbf27898a	-0.6544424
238	0xbe246f3d	-0.16058059
239	0xbe749aba	-0.23887148
240	0xbe004db2	-0.12529638
241	0xbe8093cb	-0.25112757
242	0x3df9bfed	0.1219481
243	0xbe2fa601	-0.17153169
244	0x3dcbc141	0.0994897
245	0x3e260232	0.16211775
246	0xbea392d7	-0.31947967
247	0x3cb87684	0.02251745
248	0xbdd60160	-0.10449481
249	0xbcafdcd7	-0.02146761
250	0xbe660a72	-0.22464922
251	0x3e5535d2	0.20821312
252	0x3e2a2200	0.16614532
253	0xbe2ace10	-0.16680169
254	0xbe041fdf	-0.12902783
255	0xbf057edb	-0.5214669

net.0.bias f4 [256]
0	0x3e5bb9dc	0.21457618
1	0x3e8eb12a	0.2786954
2	0x3ea6ebd0	0.32601786
3	0xbe2393e6	-0.15974388
4	0x3df1ddee	0.11809908
5	0x3ea6ab9e	0.3255281
6	0x3e30937d	0.17243762
7	0xbdb745af	-0.08948838
8	0xbb5c9b47	-0.0033661888
9	0xbe7356a1	-0.23763515
10	0xbe0b6424	-0.1361242
11	0x3c82c8ba	0.015964855
12	0xbe358f17	-0.17730366
13	0x3d51b741	0.051200155
14	0xbd995b5f	-0.07488131
15	0xbda15bdc	-0.07878849
16	0xbc30c9d7	-0.01079031
17	0xbe42b8e1	-0.19015838
18	0x3e076637	0.13222586
19	0xbda02a84	-0.07820609
20	0x3d5082bf	0.05090594
21	0xbea4f9c3	-0.32221803
22	0x3cb631ae	0.022240486
23	0x3ea9d458	0.33169818
24	0x3dd86ca6	0.10567598
25	0x3cbf0d7a	0.023321856
26	0xbe86430a	-0.26223022
27	0xbea0f56b	-0.3143724
28	0xbac73d78	-0.0015200814
29	0xbb666aee	-0.003515895
30	0x3d2dc4dd	0.04242407
31	0x3e6826b3	0.22671013
32	0x3caf2edc	0.021384649
33	0xbebda205	-0.37037674
34	0xbe90aa79	-0.2825506
35	0x3e9f74b3	0.31143722
36	0x3e09502e	0.13409492
37	0x3be087a0	0.0068521053
38	0x3de91691	0.11381257
39	0xbe80c7e0	-0.25152493
40	0x3dac8ea4	0.08425644
41	0xbe532fe4	-0.20623738
42	0xba5f1f45	-0.00085114344
43	0x3d76570d	0.06014161
44	0xbe7e5256	-0.24836096
45	0x3d3e300b	0.046432536
46	0xbe87b3ef	-0.26504466
47	0xbdafc9f7	-0.085834436
48	0x3d3851c1	0.04499984
49	0xbe7d3cd7	-0.2473024
50	0x3e2c900c	0.16851825
51	0x3cdcc573	0.02694962
52	0x3e01c945	0.12674434
53	0xbde9053b	-0.11377951
54	0xbda492b8	-0.08035797
55	0x3da58f1c	0.080839366
56	0xbc151fa5	-0.009101783
57	0xbe17b363	-0.14814524
58	0xbe7c7f8a	-0.24658027
59	0xbe880688	-0.26567483
60	0xbe1eadfd	-0.15496059
61	0xbbc562d3	-0.0060237437
62	0xbe7de930	-0.24795985
63	0xbe865d1f	-0.2624292
64	0x3d14788c	0.036247775
65	0xbd1886e1	-0.037238006
66	0xbe67a33c	-0.22620863
67	0x3e275b50	0.16343427
68	0xbe190316	-0.14942583
69	0x3d6b1b37	0.057399
70	0xbe6a9e9d	-0.22912069
71	0x3e14c24b	0.14527242
72	0xbe5100df	-0.20410489
73	0x3deb0b53	0.11476769
74	0x3dd9afd9	0.106292434
75	0x3e1ce26e	0.15320751
76	0xbe7a9244	-0.24469858
77	0x3dd0b8e0	0.10191512
78	0x3d54ab49	0.051921163
79	0xbe12bfc5	-0.14330967
80	0xbe459b4e	-0.19297525
81	0xbe0a6ac0	-0.13517284
82	0x3bd88c8a	0.0066085504
83	0x3ea8f6a7	0.3300068
84	0xbe92abea	-0.28646785
85	0xbe043672	-0.12911394
86	0xbe8286b3	-0.25493392
87	0xbe562f0f	-0.20916389
88	0xbda3fbdf	-0.08007025
89	0xbdae0321	-0.084966905
90	0x3e74ef77	0.23919474
91	0xbd4d9782	-0.050193317
92	0x3d90fe95	0.07079808
93	0xbe444708	-0.19167721
94	0xbe91d01b	-0.28479084
95	0x3df2a30a	0.118475035
96	0xbe61adab	-0.22038905
97	0x3e1d65fb	0.15370934
98	0xbdc7c9de	-0.097553
99	0xbd336721	-0.043799523
100	0x3e0d3ffd	0.13793941
101	0x3e4056c8	0.18783104
102	0x3e492f7f	0.19647025
103	0x3e754215	0.2395099
104	0x3d94b751	0.07261527
105	0xbe077d9e	-0.13231513
106	0x3e04e45c	0.12977737
107	0x3e584d50	0.21123242
108	0x3e7c46be	0.24636361
109	0xbe044381	-0.12916376
110	0x3e2981de	0.16553447
111	0xbe2d64ab	-0.16932933
112	0x3ea5fb83	0.3241845
113	0xbe3e88df	-0.186069
114	0xbdd57d27	-0.104242615
115	0xbe257522	-0.16157964
116	0x3e20f10f	0.15716957
117	0xbdedae00	-0.116054535
118	0x3e0bb892	0.13644627
119	0x3e1c388d	0.15255947
120	0xbe17f77b	-0.148405
121	0x3b11f65a	0.002227208
122	0xbec0f644	-0.37687886
123	0x3d034a22	0.03205312
124	0x3db7ca4a	0.089741305
125	0x3e8bd0b4	0.27307665
126	0xbdf40ec2	-0.11916877
127	0xbd6ae1e1	-0.05734432
128	0x3e8ddddb	0.27708325
129	0xbe532e07	-0.20623027
130	0x3e50269c	0.20327228
131	0xb90fffa1	-0.00013732772
132	0x3d9637ac	0.07334837
133	0xbe9cd94a	-0.30634528
134	0xbe0689e0	-0.13138533
135	0xbe2400d6	-0.16015944
136	0x3da06e3b	0.07833525
137	0x3d4b9b19	0.04970846
138	0xbd7c8747	-0.061652448
139	0x3eaccdda	0.33750802
140	0xbda4389b	-0.08018609
141	0x3db17b02	0.0866604
142	0xbe835f23	-0.2565852
143	0x3e0273c6	0.12739477
144	0xbdf9b04e	-0.121918306
145	0x3e02ba2a	0.12766328
146	0x3ef1d210	0.47230577
147	0x3dd179ab	0.102282844
148	0xbe69b6d7	-0.22823654
149	0x3d89cd48	0.067286074
150	0xbe35cf38	-0.17754829
151	0xbe3cc43b	-0.18434231
152	0x3dd6d805	0.10490421
153	0xbe8a7597	-0.2704284
154	0xbd26c03f	-0.040710684
155	0xbe75b428	-0.23994505
156	0xbe62fecd	-0.22167511
157	0xbdb9464f	-0.090466134
158	0xbcb816f7	-0.022471888
159	0x3e86150e	0.26187938
160	0xbe3784f0	-0.17921805
161	0xbe98fc1e	-0.2987985
162	0x3bccd95d	0.0062514977
163	0xbe4781a2	-0.19483045
164	0x3a8c1b24	0.0010689241
165	0x3cf08fed	0.029365504
166	0xbca99dc5	-0.020705113
167	0xbda96abc	-0.08272311
168	0xbe8244ca	-0.25443107
169	0xbe1b53b9	-0.15168656
170	0xbe6936fe	-0.22774884
171	0x3e0f6ae2	0.14005616
172	0xbe939b31	-0.2882934
173	0xbd656952	-0.056008644
174	0xbe26932e	-0.16267082
175	0x3e07309b	0.13202135
176	0x3d2961c3	0.041353
177	0xbd645ae0	-0.055750728
178	0x3e023bfd	0.12718196
179	0x3e9fa65e	0.31181616
180	0xbe17b11d	-0.14813657
181	0xbdf80760	-0.12110782
182	0x3d7a2966	0.061074637
183	0x3e1b7446	0.15181074
184	0x3e005d10	0.125355
185	0x3e7a6807	0.24453746
186	0xbd2ccd8e	-0.04218822
187	0x3e0fce9e	0.14043662
188	0xbde8545b	-0.113442145
189	0xbe79aac9	-0.24381556
190	0xbebda950	-0.37043238
191	0x3df62be3	0.120200895
192	0xbe0fa7ac	-0.14028805
193	0xbe590185	-0.21191986
194	0xbe916769	-0.28399208
195	0xbdaa939e	-0.08328937
196	0x3e080948	0.1328479
197	0x3d77f15d	0.060532916
198	0x3cac9b3d	0.021070117
199	0xbe8f299a	-0.27961427
200	0xbd4903fc	-0.049076065
201	0xbe42ab07	-0.19010554
202	0xbd9cdced	-0.07659326
203	0x3dc4f4be	0.09616993
204	0x3e804e35	0.25059667
205	0xbe5825eb	-0.21108215
206	0xbe9b0bcd	-0.3028244
207	0x3ecb0cef	0.39658305
208	0xbe9aed7e	-0.30259317
209	0x3db54b95	0.08852307
210	0xbe58b21f	-0.21161698
211	0x3e1b9b55	0.15195973
212	0xbe24d67b	-0.16097443
213	0x3e59ab1f	0.21256684
214	0x3e712015	0.23547395
215	0x3d8b000e	0.0678712
216	0xbea6dccd	-0.32590333
217	0x3dcf503d	0.10122726
218	0x3d794dc5	0.060865182
219	0x3eed3129	0.4632657
220	0xbe868f8b	-0.2628139
221	0x3d1d3150	0.038377106
222	0x3e465989	0.19370092
223	0xbe39e916	-0.18155321
224	0xbd0f65f8	-0.035009354
225	0x3dbb2252	0.091374055
226	0xbe592cc2	-0.2120848
227	0x3e44c1b3	0.19214515
228	0xbc4d9c60	-0.01254949
229	0xbc71ae40	-0.014751017
230	0xbd9bfedd	-0.07616971
231	0xbe05d63f	-0.1307001
232	0xbeb38552	-0.35062653
233	0xbe98fc6e	-0.2988009
234	0x3a82263a	0.0009929605
235	0xbe6fc3e2	-0.23414567
236	0x3e136848	0.14395249
237	0xbe914703	-0.2837449
238	0x3e703a47	0.23459731
239	0x3d157d15	0.03649624
240	0xbe13ec80	-0.14445686
241	0x3de6adb3	0.11263599
242	0xbe5596c9	-0.20858301
243	0xbcf23120	-0.02956444
244	0x3eaeca02	0.34138495
245	0xbdd6e8ac	-0.104935974
246	0x3d6d6e70	0.05796665
247	0xbe5fd9bd	-0.21860404
248	0x3ec0ad07	0.3763201
249	0x3e91c130	0.28467703
250	0xbe084e34	-0.13311082
251	0x3d444413	0.047916483
252	0x3d9f35e8	0.07773954
253	0x3e2f89f7	0.17142473
254	0xbe31e002	-0.17370608
255	0xbe9b3d63	-0.30320272

net.2.weight f4 [256, 256]
0	0xbbc70401	-0.0060734753
1	0x3ca7175a	0.020396877
2	0xbe8649db	-0.26228222
3	0xbde36b57	-0.11104458
4	0xbe937183	-0.2879754
5	0x3d21ee12	0.039533682
6	0x3de16b47	0.1100679
7	0xbd8b27b4	-0.06794682
8	0xbca8be0a	-0.02059843
9	0xbcb55c32	-0.022138689
10	0xbd22a49b	-0.03970776
11	0x3d23a0cc	0.03994827
12	0xbe20c8c2	-0.15701583
13	0xbd9f41f1	-0.07776249
14	0x3cc91289	0.024544971
15	0xbe9f15bf	-0.31071278
16	0xbd069189	-0.032853637
17	0x3dfdbb72	0.12389268
18	0xbd328dc6	-0.043592237
19	0xbd54f6ea	-0.051993288
20	0xbcb03618	-0.021510169
21	0x3d8f78c6	0.070054576
22	0xbdcffc85	-0.10155586
23	0xbea3148d	-0.31851617
24	0xbe1c969c	-0.15291828
25	0x3cc26099	0.023727702
26	0x3c2237d8	0.0099010095
27	0xbe0550ba	-0.13019076
28	0xbdb32d68	-0.08748895
29	0xbe74b00b	-0.2389528
30	0x3eb063f8	0.3445127
31	0x3d674f40	0.056472063
32	0x3adb3c72	0.0016726388
33	0x3d0f1322	0.034930356
34	0xbd3508b2	-0.044197746
35	0x3b808017	0.0039215195
36	0x3dcbea08	0.09956747
37	0x3dd1bcd6	0.10241096
38	0x3d711468	0.05885735
39	0xbd7787e4	-0.06043233
40	0x3cf4358c	0.02981069
41	0xbcac5290	-0.021035463
42	0xbe1899c5	-0.14902408
43	0xbe2ff9da	-0.17185155
44	0xba904c04	-0.0011008983
45	0xbeaf312a	-0.34217197
46	0xbf1b47b9	-0.60656315
47	0xbd9b8d8d	-0.07595358
48	0xbb2c85e8	-0.0026324932
49	0x3d435eb0	0.047697723
50	0x3b9f1c85	0.0048556947
51	0xbe8be20f	-0.27320907
52	0xbd5094a7	-0.050923016
53	0x3bf8328d	0.0075743855
54	0xbd583153	-0.052781414
55	0xbddb4549	-0.107065745
56	0xbcf4d810	-0.029888183
57	0xbd84eda4	-0.06490639
58	0xbd99d41c	-0.0751116
59	0x3d82d8e7	0.06389027
60	0x3b951a9a	0.0045502903
61	0x3ecdea48	0.40217805
62	0xbe50a54b	-0.20375554
63	0xbd378274	-0.044802144
64	0xbc28b1a8	-0.010296263
65	0xbd4c3ad8	-0.049860805
66	0x3ceb632a	0.028733809
67	0xbdd0dc39	-0.10198254
68	0x3dfe7598	0.12424773
69	0xbd88e081	-0.06683446
70	0x3d3de01a	0.046356298
71	0xbd52a278	-0.051424474
72	0xbd1e9a09	-0.038721118
73	0x3e6b1dc2	0.2296057
74	0xbd365ead	-0.044523884
75	0x3d640879	0.055672143
76	0xbd6bebfd	-0.057598103
77	0x3d9d757d	0.07688425
78	0xbdbdc958	-0.09266919
79	0xbe36e0b5	-0.17859156
80	0x39640a7f	0.00021747685
81	0xbd5a4ab8	-0.053293914
82	0x3d333a4e	0.043756776
83	0xbd043391	-0.03227574
84	0xbda3ceed	-0.07998452
85	0xbbd63188	-0.0065366663
86	0xbd518b0d	-0.051158
87	0x3dafce86	0.08584313
88	0x3ddc9681	0.10770894
89	0xbca8ad8a	-0.020590562
90	0xbd55509c	-0.05207883
91	0x3d550d2b	0.05201451
92	0xbea4453a	-0.32084066
93	0xbc8330d0	-0.016014487
94	0xbccac307	-0.0247512
95	0xbe91072d	-0.28325787
96	0x3d13ef73	0.03611703
97	0x3e577ca2	0.21043637
98	0xbdd9ba0c	-0.10631189
99	0xbd7abe04	-0.06121637
100	0xbd60b1be	-0.05485701
101	0xbed61fbf	-0.41821095
102	0x3e066c0c	0.13127154
103	0xbd3c9b86	-0.046046756
104	0x3e00e443	0.12587075
105	0x3c9c344f	0.019067911
106	0xbd78ef0d	-0.06077485
107	0xbdc3c50a	-0.095590666
108	0xbeab2ded	-0.33433476
109	0x3eba367d	0.36369696
110	0x3d9dcadf	0.0770471
111	0x3e8449fb	0.25837693
112	0x3c59820f	0.013275637
113	0xbe26f3f4	-0.16303998
114	0xbe055b42	-0.13023093
115	0xbe760f10	-0.24029183
116	0x3d98ba75	0.07457439
117	0xbd6de1fd	-0.058076847
118	0xbc58ade6	-0.013225054
119	0xbaef39bc	-0.0018251459
120	0xbe072f99	-0.13201751
121	0xbde71a53	-0.11284318
122	0xbdad3e4c	-0.08459148
123	0xbce27534	-0.027643777
124	0x3e7032db	0.234569
125	0xbce61d73	-0.028090214
126	0x3b6ad593	0.0035832867
127	0xbdb66d50	-0.089075685
128	0xbcb96ff2	-0.022636387
129	0xbc3e6423	-0.011620554
130	0x3da7f0cf	0.082002275
131	0x3cda67e3	0.026660865
132	0xbd5292b9	-0.051409457
133	0xbd9926bf	-0.07478093
134	0xbcf1c947	-0.029514922
135	0xbc610ad8	-0.0137354955
136	0xbce4c538	-0.027926072
137	0xbdc51fce	-0.09625207
138	0xbe069007	-0.1314088
139	0xbdf24c1d	-0.11830924
140	0xbd9564f8	-0.07294649
141	0x3af5e4c6	0.0018760196
142	0xbe5ae103	-0.21374898
143	0xbb47afc6	-0.003046976
144	0x3d8d7875	0.06907741
145	0xbd8d2649	-0.06892068
146	0xbd57cdf1	-0.052686635
147	0xbe4cbeae	-0.19994614
148	0x3d6050c1	0.054764513
149	0xbe68b34a	-0.22724643
150	0x3d116905	0.035500545
151	0x3d2826b6	0.041052543
152	0xbbb8062c	-0.00561597
153	0x3c79ffd8	0.015258752
154	0xbca956be	-0.020671245
155	0xbc9c20bc	-0.019058578
156	0xbda652b0	-0.0812124
157	0xbe0b15d4	-0.13582546
158	0x3d30f31e	0.043200605
159	0xbd9d133d	-0.07669685
160	0x3d705d2c	0.058682606
161	0xbc05b586	-0.008160954
162	0xbd35c6d3	-0.044379067
163	0xbdf5dcfd	-0.12005041
164	0xbf2777d0	-0.65417194
165	0xbe01c513	-0.12672834
166	0xbd6ff7cb	-0.058585923
167	0xbd83ea42	-0.064411655
168	0x3c986528	0.018602923
169	0x3e3cc34d	0.18433876
170	0xbd0a556d	-0.033772875
171	0xbdb97d9e	-0.09057163
172	0x3d73068e	0.059332423
173	0xbd475afb	-0.04867075
174	0xbc8a0ff0	-0.016853303
175	0xbd6aff8a	-0.057372607
176	0xbc653644	-0.013989989
177	0xbe812385	-0.25222412
178	0xbdcc0039	-0.0996098
179	0xbd460b14	-0.04835041
180	0xbeb85511	-0.360024
181	0xbda3fe81	-0.08007527
182	0x3e615e9a	0.22008744
183	0xbdb89d36	-0.090143606
184	0x3e87e570	0.26542234
185	0xbb8aaf31	-0.00423231
186	0xbce6f784	-0.028194197
187	0x3dbab196	0.09115903
188	0x3d12190f	0.03566843
189	0x3c4ec6f3	0.012620675
190	0xbedbfca4	-0.42966187
191	0x3dbd7df8	0.09252542
192	0x3e39cead	0.18145247
193	0x3d4356ca	0.04769019
194	0xbe146a4f	-0.14493679
195	0xbcb9f0c3	-0.022697812
196	0xbde8ae36	-0.11361353
197	0x3d7ce03b	0.06173728
198	0x3d93d36a	0.072180584
199	0xbcac32ca	-0.021020312
200	0xbccfa260	-0.025345981
201	0xbd020cc8	-0.03175047
202	0xbc37e78a	-0.011224637
203	0xbb8929fa	-0.004185912
204	0xbd744cba	-0.059643485
205	0xbdf51a8c	-0.11967954
206	0x3d2aaf9c	0.04167138
207	0xbde57b57	-0.11205166
208	0x3c122aa0	0.008921295
209	0xbde3df18	-0.11126536
210	0x3d6a220a	0.05716137
211	0x3dc4f990	0.09617913
212	0x3c953195	0.01821212
213	0x3e3c1bf5	0.1837004
214	0x3ba3dfa4	0.0050010253
215	0x3d81f863	0.06346204
216	0x3df95af7	0.12175553
217	0xbe14f6a5	-0.14547212
218	0xbe6e6ec5	-0.23284443
219	0xbe2af313	-0.16694288
220	0x3d69f8f4	0.057122186
221	0xbe8c1ece	-0.27367252
222	0xbe495982	-0.19663051
223	0x3e8177ad	0.25286618
224	0xbd8f8394	-0.070075184
225	0x3dc1d8a7	0.09465151
226	0x3d31455c	0.043279037
227	0xbd3706cf	-0.044684228
228	0x3c1a4a68	0.009417154
229	0xbd6e8eda	-0.058241703
230	0x3dcd5a81	0.10027028
231	0xbd86ef17	-0.065885715
232	0xbe245096	-0.16046366
233	0x3e59d33a	0.21271983
234	0xbc18ac5f	-0.00931844
235	0x3d45b994	0.048272684
236	0xbbf70f40	-0.0075396597
237	0xbd76ed8a	-0.06028513
238	0x3c1521c5	0.00910229
239	0xbe3732a1	-0.17890407
240	0x3d7c8ada	0.061655857
241	0x3d025910	0.031823218
242	0xbdb65fcb	-0.0890499
243	0xbd80b2ae	-0.062840804
244	0xbbf7c907	-0.007561806
245	0xbe06bd3a	-0.13158122
246	0x3cf90d15	0.030401746
247	0xbda471a0	-0.08029485
248	0x3eadca87	0.3394358
249	0xbcea81d4	-0.02862636
250	0xbeda5b50	-0.4264779
251	0xbdee8ce1	-0.11647964
252	0xbe573697	-0.21016918
253	0xbd741ada	-0.05959592
254	0x3d28a290	0.041170657
255	0x3dbe6ce0	0.0929811

net.2.bias f4 [256]
0	0x3cf79152	0.030220661
1	0xbd80d281	-0.062901504
2	0x3d29df26	0.041472577
3	0xbc7a6af0	-0.015284285
4	0xbab4da74	-0.0013798014
5	0xbb544867	-0.0032391788
6	0x3d105ddf	0.035245772
7	0xbdace899	-0.08442802
8	0x3cca3394	0.024682797
9	0x3c01770c	0.007901918
10	0x3c044ff7	0.008075706
11	0x3e5e630e	0.21717474
12	0x3c54ff8c	0.01300038
13	0xbdf3bdf6	-0.119014665
14	0x3d24b728	0.040213734
15	0xbe5009da	-0.20316258
16	0x3e64ad66	0.22331771
17	0xbd603090	-0.054733813
18	0xbcac5df1	-0.021040889
19	0x3c8bc4c9	0.017061608
20	0xbc6b46aa	-0.014360109
21	0x3e0c9ef0	0.13732505
22	0x3d1ca0b1	0.038239185
23	0x3e4b11c0	0.1983099
24	0xbc911359	-0.017709421
25	0xbd633a75	-0.05547567
26	0x3c13d35d	0.009022561
27	0xbe3e2b46	-0.18571195
28	0xbc96360d	-0.01833632
29	0xbd1b26f3	-0.03787894
30	0xbc6d801f	-0.0144958785
31	0xbe12adf5	-0.14324172
32	0xbdac2c31	-0.08406866
33	0xbcdc91bd	-0.026924962
34	0x3f07975c	0.5296533
35	0x3ce71e72	0.02821276
36	0x3e7c78a0	0.2465539
37	0xbd82e143	-0.063906215
38	0xbd8a41c1	-0.06750823
39	0xbde73f9d	-0.1129143
40	0x3c8f8c0f	0.01752284
41	0xbd5457d7	-0.051841583
42	0x3e1cc57a	0.15309706
43	0x3d142af2	0.03617377
44	0xbdd8716c	-0.105685085
45	0xbd34d109	-0.044144664
46	0x3d2a9143	0.04164244
47	0x3c88af38	0.016685113
48	0x3d3beca1	0.045879964
49	0xbd91369a	-0.070904925
50	0xbd5905d7	-0.052984085
51	0x3d62b792	0.055350848
52	0xbccdb47e	-0.02511048
53	0xbcc31325	-0.02381284
54	0xbd4b34b9	-0.049610827
55	0xbd09f981	-0.03368521
56	0x3d95b13d	0.07309196
57	0x3eb6f565	0.35734096
58	0xbdd11f59	-0.10211057
59	0xbcda6a42	-0.026661996
60	0x3d3e1930	0.04641074
61	0xbda971c0	-0.08273649
62	0xbdc7aff5	-0.09750358
63	0xbddf37ad	-0.10899291
64	0xbce90c9f	-0.028448401
65	0x3ce4e85f	0.027942834
66	0x3e1e4764	0.15456921
67	0xbd5ad49d	-0.05342542
68	0xbcda57ab	-0.026653131
69	0xbda5cc02	-0.08095552
70	0x3ce99158	0.028511688
71	0xbdae38d0	-0.0850693
72	0x3e40baca	0.18821254
73	0xbdddea34	-0.10835686
74	0xbb64136a	-0.003480161
75	0xbd1a761f	-0.037710305
76	0x3d1f4869	0.038887415
77	0xbca4ccde	-0.02011722
78	0x3e88c76e	0.26714653
79	0xba24f7eb	-0.0006293046
80	0x3d1a3383	0.03764678
81	0xbdfbd038	-0.12295574
82	0x3d039f54	0.03213437
83	0xbdb52484	-0.088448554
84	0xbc1518d4	-0.009100158
85	0xbce9b6ea	-0.028529603
86	0x3d1b36b0	0.03789395
87	0xbd2623f7	-0.040561642
88	0x3ca0d3a8	0.019632176
89	0xbd9c2307	-0.076238684
90	0xbb0ebd89	-0.0021780452
91	0xbd96fad8	-0.073720634
92	0xbd48b4b9	-0.049000476
93	0xbd69d1cd	-0.057084847
94	0x3da0c9ca	0.07850988
95	0x3d47c713	0.048773836
96	0xbd6e474d	-0.058173466
97	0xbd35de14	-0.044401243
98	0x3d24ef69	0.04026738
99	0x3c94dfbc	0.018173091
100	0xbd7e6034	-0.062103465
101	0xbd972bbc	-0.073813885
102	0x3c773122	0.015087398
103	0x3c0eacb0	0.008708164
104	0xbd8ee8f5	-0.06978027
105	0xbc4ff7c3	-0.012693348
106	0x3d186d5f	0.03721368
107	0xbc79cdbd	-0.015246806
108	0xbd6489cc	-0.055795476
109	0xbd5c4509	-0.053776775
110	0x3f0de899	0.5543304
111	0xbd3f92a9	-0.046770725
112	0xbd92765b	-0.07151481
113	0xbe04b3ef	-0.12959264
114	0xbd2eb79f	-0.042655583
115	0xbdbb2ccb	-0.09139403
116	0x3e21682d	0.15762396
117	0x3c8bf9f0	0.017086953
118	0xbd85b334	-0.06528321
119	0x3cd9be62	0.02658004
120	0x3e6dabcc	0.23210067
121	0xbd40577d	-0.046958435
122	0xbd4840f3	-0.048890065
123	0x3cd03823	0.025417393
124	0xbc4951d1	-0.012287573
125	0xbd1f05bc	-0.038823828
126	0x3cb73d77	0.022368176
127	0x3ce4beb8	0.027922973
128	0xbda20a41	-0.07912112
129	0x3d8b216b	0.06793483
130	0xbd48c01b	-0.04901133
131	0x3cd819e7	0.026379539
132	0xbd7d17af	-0.061790165
133	0xbd7bd109	-0.06147865
134	0xbd0d3697	-0.03447589
135	0xbb5bde7b	-0.0033549357
136	0xbdd4c449	-0.10389001
137	0xbab21ea0	-0.0013589449
138	0xbd2f57ae	-0.042808227
139	0x3ec2c58f	0.3804135
140	0x3d5935a7	0.053029682
141	0x3d087b1f	0.033320542
142	0xbca27d02	-0.019834999
143	0x3bb4e859	0.005520862
144	0x3ccc3a96	0.02493028
145	0xbd84bf58	-0.064818084
146	0x3d09d2e7	0.033648398
147	0xbd9e4d11	-0.07729543
148	0xbd8f4cb0	-0.06997049
149	0xbcd8d43b	-0.026468387
150	0xbd18088c	-0.037117526
151	0xbd571edf	-0.052519675
152	0x3e80e279	0.25172785
153	0xbc17f0f2	-0.009273754
154	0xbc9a2e83	-0.018821007
155	0xbd1bd260	-0.038042426
156	0xbda53a48	-0.08067757
157	0x3d5924f0	0.053013742
158	0xbd88403a	-0.06652875
159	0xbd6f9289	-0.058489356
160	0xbc408d96	-0.011752507
161	0xbc744e56	-0.014911255
162	0xbe18742b	-0.14888065
163	0x3bdf2228	0.0068094917
164	0xbd8abcab	-0.06774267
165	0xbd81c874	-0.063370615
166	0xbc9b2a2b	-0.018941006
167	0xbd561a45	-0.052271146
168	0xbc0b29c0	-0.008493841
169	0xbd382997	-0.04496154
170	0xbe0f449e	-0.13991019
171	0x3f01cd72	0.5070411
172	0x3b54c852	0.0032468033
173	0xbd8d11db	-0.06888171
174	0xbd814c81	-0.0631342
175	0x3cca8560	0.024721801
176	0xbc86aeed	-0.016440833
177	0x3e834e5b	0.25645718
178	0xbc2df1cb	-0.01061673
179	0xbcfa9b0c	-0.03059151
180	0xbd9e62bb	-0.07733675
181	0xbcb7118c	-0.022347234
182	0xbdb51c47	-0.08843284
183	0x3eb01c0c	0.34396398
184	0xbc27f386	-0.010250932
185	0xbc77488c	-0.01509298
186	0xbdb4d6c2	-0.08830024
187	0x3d057cf4	0.032589868
188	0xbd630cc6	-0.055432104
189	0x3b204c72	0.0024459627
190	0x3d0fdacf	0.03512078
191	0xbd29f854	-0.04149659
192	0xbcb1f62e	-0.021723833
193	0x3c2469d8	0.010035001
194	0xbc94207b	-0.018081894
195	0xbd4525e7	-0.04813185
196	0xbc0a9f13	-0.008460778
197	0xbc177338	-0.009243779
198	0xbb765f6a	-0.0037593492
199	0xbd7a58f5	-0.061119992
200	0xbd8b74c8	-0.06809384
201	0x3c5eb9d8	0.013594113
202	0xbc6bf735	-0.0144022005
203	0xbd7d2cee	-0.061810426
204	0x3cc05748	0.023479119
205	0xbb953b58	-0.0045541935
206	0xbe55617e	-0.20837972
207	0xbd993d75	-0.07482425
208	0xbdd6c86d	-0.10487447
209	0x3f026bdd	0.50945836
210	0x3e10b18b	0.14130227
211	0xbbfb08d6	-0.0076609654
212	0x3cc2206a	0.023697097
213	0xbb93754d	-0.0045000673
214	0xbd2d50b9	-0.04231331
215	0xbc718301	-0.014740706
216	0xbd8e9a3e	-0.06963013
217	0xbdb3ad18	-0.087732494
218	0x3d0fea04	0.035135284
219	0x3c6d4de3	0.014483902
220	0x3cd39db2	0.02583203
221	0xbe5cbbfc	-0.21556085
222	0xbd0a51c2	-0.033769377
223	0xbd3896c9	-0.045065675
224	0x3c09b6d6	0.008405408
225	0x3e1234cd	0.14277954
226	0xbdbcdcc0	-0.09221792
227	0xbd8ea165	-0.06964377
228	0xbbe1a168	-0.006885696
229	0xbcb79395	-0.02240924
230	0xbd3f86a5	-0.046759266
231	0xbd99ec6b	-0.07515796
232	0xbd84cfa5	-0.064849176
233	0xbd840fd0	-0.064483285
234	0xbd0a8499	-0.03381786
235	0x3bfa6e42	0.0076425383
236	0x3c499f8c	0.012306105
237	0xbd0c6b76	-0.03428217
238	0x3ce3cbb8	0.027807102
239	0xbc4d6e70	-0.012538537
240	0xbd1ec14b	-0.038758557
241	0x3d252a62	0.040323623
242	0x3cae8e82	0.021308187
243	0x3d463a5e	0.048395507
244	0xbcfe6618	-0.031054541
245	0xbe13c060	-0.14428854
246	0x3c30044a	0.01074321
247	0xbd9d15a0	-0.0767014
248	0xbd885012	-0.06655897
249	0xbd8070b8	-0.062714994
250	0x3d0789d5	0.03309043
251	0x3d12a572	0.035802312
252	0xbd47f1de	-0.048814647
253	0x3d59c255	0.053163845
254	0xbdc3aa7d	-0.095540024
255	0xbe1e59b9	-0.15463914

net.4.weight f4 [1, 256]
0	0x3dc94504	0.09827617
1	0x3dc71bf7	0.09722131
2	0x3dd6f793	0.1049644
3	0xbce83838	-0.02834712
4	0xbc7b3943	-0.0153334765
5	0x3dc19134	0.094515234
6	0x3e11be60	0.14232779
7	0xbbbdc8e6	-0.005791771
8	0x3e373126	0.17889842
9	0xbc5b2955	-0.013376554
10	0x3cd3483f	0.025791286
11	0x3f44ed24	0.7692435
12	0x3e0a611b	0.13513605
13	0x3ef898a1	0.48553947
14	0xbd7057de	-0.058677547
15	0x3e31d62d	0.17366858
16	0x3dfdad6b	0.123865925
17	0x3c3f0250	0.011658266
18	0x3caa814b	0.020813605
19	0x3d5392de	0.051653735
20	0xbb1c09a6	-0.0023809462
21	0x3e77e0d1	0.24206854
22	0xbbda6347	-0.006664667
23	0x3e5d5524	0.2161451
24	0xbb1683a8	-0.0022966657
25	0x3cb3bf93	0.021941936
26	0xbb5b2830	-0.0033440702
27	0xbf628550	-0.8848467
28	0xbcb294ad	-0.02179941
29	0xbd9bdc72	-0.07610406
30	0x3d7c157f	0.061543938
31	0x3ddf2dbc	0.10897395
32	0xbb322316	-0.0027181557
33	0xbe11a8e8	-0.14224589
34	0x3e3d5d5a	0.18492642
35	0x3e08a48a	0.13344017
36	0x3d267593	0.04063947
37	0xbcc75be0	-0.024335802
38	0xbcad26bb	-0.021136632
39	0x3e88058e	0.26566738
40	0x3bc84bb8	0.006112542
41	0x3e8d1fc4	0.27563298
42	0x3d979ec0	0.07403326
43	0x3beb66a0	0.0071838647
44	0xbd05dcee	-0.032681398
45	0xbb0f8cde	-0.0021904032
46	0x3e152083	0.14563183
47	0x3d64c422	0.05585111
48	0x3e151df2	0.14562204
49	0xbcd9b975	-0.02657769
50	0x3e3a5d10	0.18199563
51	0x3d829d79	0.06377692
52	0x3ee83baa	0.4535802
53	0xbd455885	-0.048180122
54	0xbab182e5	-0.0013543038
55	0xbd0b99d5	-0.034082253
56	0x3e07e2ef	0.13270162
57	0xbea7c687	-0.32768652
58	0xbc8830a1	-0.01662475
59	0x3e19a72d	0.15005179
60	0x3d5de747	0.05417564
61	0x3cf351fd	0.029702181
62	0xbc164f57	-0.0091741895
63	0x3e00b86d	0.12570353
64	0xbc5a5c23	-0.013327631
65	0xbc02800e	-0.007965101
66	0xbe3e944a	-0.18611255
67	0xbe1b6b7c	-0.15177721
68	0xbeb1b6b9	-0.3470972
69	0x3c9fa22c	0.01948651
70	0xbd256ba9	-0.040385876
71	0xbcc011d3	-0.023446
72	0x3f133e12	0.57516587
73	0x3e4a74e1	0.19771148
74	0xbc3906c4	-0.011293117
75	0xbe262363	-0.16224436
76	0xbc1f2d28	-0.009715356
77	0x3d8da77a	0.06916709
78	0x3e3de8c3	0.18545823
79	0x3ee894b7	0.4542596
80	0x3d4fbdf4	0.050718263
81	0x3d41138f	0.047137793
82	0x3d918303	0.071050666
83	0xbceb180c	-0.02869799
84	0x3c291032	0.010318803
85	0x3e10ec1f	0.14152573
86	0x3e232b82	0.15934566
87	0x3c2d57d4	0.010580022
88	0x3b004769	0.0019573814
89	0xbc1e7cb4	-0.009673286
90	0x3e0f5e14	0.14000732
91	0xbd1e8cea	-0.038708605
92	0x3d8f0802	0.06983949
93	0x3d470313	0.048586916
94	0x3f00effe	0.503662
95	0x3db52dbc	0.08846614
96	0x3ea4fd90	0.32224703
97	0x3c53e488	0.012932904
98	0x3e56b15a	0.20966092
99	0x3be9610a	0.0071221637
100	0x3e4de10f	0.20105384
101	0xbb770d36	-0.0037697083
102	0x3d58af2d	0.052901436
103	0xbd48e69c	-0.04904805
104	0x3baf5b80	0.005351484
105	0x3dbf49fe	0.09340285
106	0x3dc28d10	0.09499562
107	0x3d94d5d7	0.07267349
108	0xbc3e4192	-0.011612313
109	0xbc3ef0bd	-0.011654076
110	0x3e62212e	0.2208297
111	0x3dc44957	0.09584301
112	0xbc670227	-0.014099634
113	0xbb0d6bb1	-0.0021579082
114	0x3d22e848	0.039772302
115	0x3c93fa98	0.018063828
116	0x3ef251e9	0.47328117
117	0x3f1c407e	0.6103591
118	0x3b696c74	0.0035617622
119	0x3e0b4134	0.13599092
120	0x3e827a2e	0.2548384
121	0x3e620fa1	0.22076274
122	0x3e28bf2c	0.16479176
123	0xbd56e901	-0.052468304
124	0xbb8c6b75	-0.004285271
125	0xbc96fd5d	-0.01843136
126	0xbbc95a40	-0.006144792
127	0x3ba1104b	0.0049152724
128	0x3cdce83e	0.02696621
129	0xbe4d4de7	-0.20049249
130	0xbbeef71c	-0.0072926413
131	0xbc6408d7	-0.013918123
132	0xbc54ec3f	-0.012995779
133	0x3e15d44d	0.14631768
134	0x3e2360b0	0.15954852
135	0x3f35dc21	0.71039015
136	0x3e6d3e00	0.23168182
137	0x3d81fd25	0.063471116
138	0x3d49eaa2	0.04929603
139	0x3b03131e	0.0020000408
140	0x3e913603	0.2836152
141	0x3d88d889	0.06681926
142	0x3bb5be4e	0.0055463677
143	0x3d063ca4	0.032772675
144	0x3df4cb4f	0.119528405
145	0x3cf4bdbf	0.029875634
146	0x3e17799e	0.14792487
147	0x3e78b025	0.24285944
148	0x3e39ab73	0.18131809
149	0x3d043dfc	0.032285675
150	0x3cf16127	0.029465271
151	0x3da27752	0.07932915
152	0xbe254416	-0.16139254
153	0xbce33c0f	-0.0277386
154	0xbcf2bac2	-0.029630069
155	0x3b1b6c24	0.002371558
156	0xbd735030	-0.059402645
157	0x3db0853b	0.08619162
158	0xbbdd3980	-0.0067512393
159	0xbcb2ae43	-0.02181161
160	0x3dd90038	0.10595745
161	0x3d72cf42	0.059279688
162	0x3ead5237	0.33851787
163	0x3cec0de2	0.028815214
164	0xbcb5a302	-0.022172455
165	0xbdfde94d	-0.12398014
166	0x3e15fd2a	0.14647356
167	0xbc83b245	-0.016076216
168	0x3e160197	0.14649044
169	0xbcb366cc	-0.021899603
170	0x3c867035	0.016410926
171	0x3ec4ed0b	0.384621
172	0xbcb53e99	-0.022124575
173	0x3de84edf	0.113431685
174	0x3bdf5b3f	0.0068162973
175	0x3e0e14ff	0.13875197
176	0xbd0dc6b2	-0.03461332
177	0x3df62743	0.12019207
178	0x3c71f997	0.0147689795
179	0x3e3b54f5	0.18294127
180	0xbcc6da35	-0.024273971
181	0x3ce6a447	0.028154505
182	0xbe2326e3	-0.15932803
183	0x3defe9f1	0.11714543
184	0x3e206ae5	0.15665777
185	0x3d5f84ec	0.054570124
186	0x3c92b25c	0.017907314
187	0x3dc11908	0.094286025
188	0x3b9f7014	0.0048656557
189	0xbd277496	-0.04088267
190	0x3da12f44	0.07870343
191	0xbceef365	-0.029168794
192	0x3b78df55	0.0037974913
193	0x3f3cb490	0.73713017
194	0x3dd1991a	0.1023428
195	0x3cf6948e	0.030100133
196	0x3dba9053	0.09109559
197	0x3dded730	0.108808875
198	0xbc4a4472	-0.01234542
199	0xbc46961d	-0.012120751
200	0x3ca78155	0.020447413
201	0x3defd632	0.117107764
202	0x3d9d9a46	0.07695441
203	0x3cacf2f2	0.02111194
204	0x3e1825d2	0.14858177
205	0x3e0d1be2	0.13780168
206	0xbdd9cb28	-0.10634452
207	0xbc20110a	-0.009769687
208	0xbdb5853f	-0.08863305
209	0x3e1e238a	0.15443245
210	0xbdd9d049	-0.1063543
211	0x3ebeb1c5	0.37245002
212	0xbc09884c	-0.008394312
213	0x3d52785f	0.051384326
214	0x3cc31b42	0.023816708
215	0xbc58b59d	-0.013226894
216	0xbc0f7759	-0.008756482
217	0x3cdac018	0.026702926
218	0x3db7f07d	0.089814164
219	0x3e600aed	0.21879168
220	0x3da1b939	0.078966565
221	0x3e002886	0.12515458
222	0xbd89f57b	-0.06736275
223	0x3ac90306	0.0015335984
224	0xbb315651	-0.0027059505
225	0xbe8a0017	-0.26953194
226	0x3c058e14	0.00815155
227	0xbda54c1e	-0.08071159
228	0x3cf8f30b	0.03038933
229	0xbd1922d0	-0.037386715
230	0x3ba32fe4	0.0049800742
231	0x3dc64166	0.096804425
232	0xbb2b17bd	-0.0026106678
233	0xbd2067b7	-0.03916141
234	0xbc939848	-0.01801695
235	0x3d9afd88	0.075678885
236	0x3df9a0e2	0.12188889
237	0x3d85c17c	0.06531045
238	0x3ddc1286	0.107457206
239	0x3e3417ed	0.17587252
240	0xbc1921db	-0.009346451
241	0x3da38600	0.07984543
242	0x3e06eeb7	0.13177
243	0x3c43495a	0.011919344
244	0x3b93b2a5	0.00450738
245	0xbe687840	-0.22702122
246	0x3c9d0396	0.019166749
247	0xbc7bbfce	-0.015365554
248	0xbca122fa	-0.019669998
249	0xbc133ce7	-0.008986688
250	0x3df2beb6	0.118527815
251	0x3e7dba21	0.24778034
252	0xbb83ac0c	-0.0040183123
253	0x3eaebba1	0.34127524
254	0x3c707f20	0.014678746
255	0xbe4c1fc0	-0.19933987
